models/maddpg_best/actor_0.pth (torch, 325901 bytes, 8 tensors)

shared.0.weight f4 [256, 48]
0	0x3d17d689	0.03706983
1	0xbce3aee4	-0.027793355
2	0x3d103baf	0.03521317
3	0xbc74397f	-0.014906286
4	0x3de75d75	0.112971224
5	0xbe26559a	-0.16243592
6	0x3cb6099c	0.022221379
7	0x3d8c635a	0.06854887
8	0xbd7ce025	-0.0617372
9	0xbdac6ad4	-0.08418813
10	0xbcb22081	-0.021744015
11	0x3d96edb5	0.07369558
12	0x3db8bf67	0.09020882
13	0x3d7d30e4	0.061814204
14	0x3d9e5b67	0.07732277
15	0xbcdf8001	-0.027282717
16	0x3d0841b9	0.033265803
17	0xbcd70ac2	-0.026250247
18	0x3d8407b7	0.06446784
19	0x3d398dde	0.04530131
20	0xbd9069d8	-0.07051438
21	0xbdcbb8a7	-0.09947329
22	0xbcda7945	-0.026669154
23	0x3da415f1	0.080119975
24	0x3c3bda70	0.011465654
25	0xbd01a93f	-0.031655546
26	0x3d45256c	0.04813139
27	0xbc3fd066	-0.011707401
28	0x3cb23bbd	0.021757001
29	0x3dd269b0	0.102740645
30	0x3d93f7a4	0.07224968
31	0x3d725f0f	0.059172686
32	0x3d171c1c	0.03689204
33	0xbc362178	-0.011116378
34	0xbd3e254b	-0.046422284
35	0xbe000260	-0.12500906
36	0x3dad3c32	0.08458747
37	0xbd6909a1	-0.05689395
38	0xbd1ee60c	-0.03879361
39	0x3c160e5e	0.009158699
40	0xbbc6303d	-0.006048231
41	0x3d449f60	0.048003554
42	0xbd8f92e6	-0.070104405
43	0x3d9c4012	0.07629408
44	0x3cf71176	0.030159693
45	0xbd24303a	-0.040085055
46	0x3ce5889a	0.028019238
47	0xbdad8df4	-0.08474341
48	0x3d4c7d71	0.049924318
49	0x3b950d9b	0.004548741
50	0xbdbc7433	-0.09201851
51	0xbd0b64dc	-0.034031734
52	0x3dd1df7c	0.102477044
53	0x3c3e756a	0.011624673
54	0xbac8961b	-0.0015303524
55	0xbdc12d08	-0.09432417
56	0xbeaa00e3	-0.33203802
57	0xbe095483	-0.13411145
58	0xbd916dcf	-0.071010225
59	0x3dcb4833	0.0992588
60	0x3e0177a2	0.12643293
61	0x3e18000e	0.14843771
62	0xbc2c9c20	-0.01053527
63	0x3d67aa62	0.056558974
64	0x3c873728	0.016505793
65	0xbdc2ad19	-0.09505672
66	0x3de757e6	0.11296062
67	0x3d30e9eb	0.04319183
68	0x3d8a2354	0.067450196
69	0x3cf67fed	0.030090297
70	0x3da703a0	0.08154988
71	0xbd6e492e	-0.05817526
72	0x3d034871	0.032051507
73	0x3d154d14	0.03645046
74	0x3d6fc282	0.058535106
75	0xbb2704c9	-0.002548503
76	0xbda0d1cd	-0.07852516
77	0x3d30ddd4	0.0431803
78	0xbcd356dc	-0.025798254
79	0x3d56b78b	0.052421134
80	0x3b8b7981	0.0042564278
81	0xbc365b03	-0.011130097
82	0xbc1a9020	-0.009433776
83	0x3adf2a16	0.0017026092
84	0xbcc73568	-0.024317458
85	0xbd1faed8	-0.038985103
86	0xbc1aac65	-0.009440516
87	0xbd9727bb	-0.07380625
88	0xbdc5dc4f	-0.09661161
89	0xbcf3439d	-0.029695326
90	0xbcc09767	-0.023509694
91	0x3d9a0723	0.075208925
92	0xbd12df0d	-0.03585725
93	0xbd881952	-0.066454545
94	0xbc9a8429	-0.018861847
95	0xbd670505	-0.05640127
96	0x3b6b6a53	0.0035921528
97	0xbbc7b6cf	-0.0060947905
98	0x3da17cfb	0.07885166
99	0x3df23961	0.118273504
100	0x3d998083	0.07495215
101	0xbd99ce93	-0.07510104
102	0x3d6828f8	0.056679696
103	0x3e14b3ce	0.14521715
104	0x3b3edaab	0.0029122035
105	0xbd65eeb8	-0.056135863
106	0xbd52198c	-0.051293895
107	0x3d8ff1e8	0.07028562
108	0x3e0c806e	0.13720867
109	0x3d627355	0.05528577
110	0xbd62d6e4	-0.055380717
111	0x3b0a1392	0.0021068794
112	0xba30e34d	-0.00067477376
113	0xbe24f8b7	-0.16110502
114	0x3e0a9545	0.13533504
115	0x3b664580	0.003513664
116	0x3ded2580	0.11579418
117	0xbd72e21a	-0.05929766
118	0xbcdaab67	-0.02669306
119	0x3d8f350d	0.069925405
120	0xbc1c17aa	-0.009527126
121	0xbbccf68b	-0.006254976
122	0x3cf31376	0.029672366
123	0xbd00dec5	-0.03146245
124	0x3d1b70ea	0.03794948
125	0x3d595e5f	0.053068515
126	0x3c608bcb	0.013705204
127	0xbc16ccba	-0.009204084
128	0x3c956b70	0.018239707
129	0x3c33bc6b	0.010970215
130	0xbd6917a9	-0.05690733
131	0xbc208c31	-0.009799049
132	0x3d0ff4b1	0.035145465
133	0xbcc6ccab	-0.024267515
134	0xbdbba557	-0.091623954
135	0x3db5f9d3	0.08885541
136	0x3c6d7660	0.014493555
137	0x3dc8c616	0.09803407
138	0xbde86168	-0.11346704
139	0x3dada797	0.08479231
140	0x3d27da35	0.040979583
141	0xbd1cf8ed	-0.03832333
142	0xbd183448	-0.037159234
143	0xbd47c440	-0.048771143
144	0xbe29ae65	-0.16570432
145	0xbc12ad7b	-0.008952494
146	0xbd22ffb7	-0.03979465
147	0x3e4d4e22	0.20049337
148	0x3db9b646	0.09067969
149	0x3d56bcec	0.052426264
150	0xbd1875c6	-0.037221693
151	0xbe68cb0c	-0.22733706
152	0x3d41cce8	0.047314554
153	0x3e2c0346	0.16798124
154	0xbd29bef8	-0.041441888
155	0xbac1fb2a	-0.0014799584
156	0xbe154b68	-0.14579546
157	0xbd8d4a2a	-0.06898911
158	0x3cf060ef	0.029343097
159	0x3db20874	0.086930186
160	0xbd75d41b	-0.060016733
161	0x3e01e7ff	0.12686156
162	0xbd96dcea	-0.07366355
163	0x3d592bee	0.05302041
164	0x3df78938	0.12086719
165	0x3dca3581	0.09873486
166	0xbe1deeb4	-0.1542309
167	0x3e57566a	0.21029058
168	0xbdf63dfe	-0.12023543
169	0xbbd080f3	-0.006363028
170	0x3bbc02d1	0.0057376404
171	0x3e95f4e5	0.29288402
172	0x3bf8a2c5	0.007587763
173	0x3d4830f3	0.048874807
174	0xbc7a3597	-0.015271566
175	0x3af7fb36	0.0018919471
176	0x3b4c096e	0.003113355
177	0xbcd99efc	-0.026565067
178	0xbda6701f	-0.08126854
179	0xbd71c2b7	-0.059023585
180	0x3c69d6f6	0.014272442
181	0xbd419ab3	-0.047266673
182	0x3d8ccf7c	0.06875512
183	0x3bd8784c	0.0066061374
184	0x3d1f8f0f	0.03895479
185	0x3dc7775b	0.09739562
186	0x3da27c38	0.07933849
187	0x3d95aac1	0.07307959
188	0x3d0942b7	0.03351089
189	0x3dbfe74f	0.093702905
190	0xbcf5ca75	-0.030003766
191	0xbda678d3	-0.08128514
192	0xbd35e037	-0.04440328
193	0x3da118d6	0.07866065
194	0xbd4404f1	-0.047856275
195	0x3ed34dff	0.41270444
196	0xbd14591d	-0.036217798
197	0x3c876393	0.016526973
198	0x3b359dee	0.0027712542
199	0xbb90f26a	-0.0044234293
200	0x3ab6be8c	0.0013942285
201	0x3db033c3	0.08603623
202	0x3e3dc810	0.18533349
203	0x3e14ba25	0.14524134
204	0x3d840531	0.06446303
205	0x3d387297	0.045031156
206	0x3d91c153	0.07116952
207	0x3da0522f	0.07828175
208	0x3da8f34b	0.082495295
209	0xbeb8ae6e	-0.3607058
210	0xbd28766f	-0.041128572
211	0xba0b7cd0	-0.0005321028
212	0x3e439dac	0.19103116
213	0xbdf54a45	-0.119770564
214	0xbc951d8b	-0.018202564
215	0xbd83e39e	-0.06439899
216	0xbeb0b9db	-0.34516796
217	0xbe072540	-0.13197803
218	0xbdd1e322	-0.102484
219	0x3bc30f0b	0.005952721
220	0xbdad3a3b	-0.08458372
221	0x3de740cf	0.11291658
222	0x3d042fe9	0.032272253
223	0xbcece5de	-0.028918203
224	0xbd016513	-0.031590533
225	0x3e21922c	0.15778416
226	0x3c5ba67e	0.013406394
227	0xbbac5145	-0.0052587115
228	0x3d8b28c6	0.06794886
229	0xbdaf8517	-0.08570307
230	0xbc549715	-0.012975474
231	0xbdd32410	-0.10309613
232	0x3d1ff936	0.039056025
233	0x3de28f91	0.11062539
234	0x3dbbf9b3	0.09178486
235	0xbdf0ddf8	-0.11761087
236	0x3d5429a1	0.051797513
237	0x3e211790	0.15731645
238	0xbd26a452	-0.04068405
239	0xbc4c557a	-0.012471551
240	0xbd80ee4e	-0.06295453
241	0xbd9a7bd1	-0.07543147
242	0x3c1f8428	0.009736098
243	0x3e9225db	0.28544506
244	0xbddcaa5d	-0.10774682
245	0xbbcb971b	-0.0062130815
246	0x3d1a5653	0.03767998
247	0x3dcaf19f	0.09909367
248	0x3df20c8e	0.11818801
249	0xbe776cb5	-0.24162562
250	0x3d33ad98	0.043866724
251	0xbd6d70a3	-0.057968747
252	0xbe1c49aa	-0.15262476
253	0x3da22a20	0.07918191
254	0xbc52b425	-0.012860333
255	0x3cc42648	0.023944035

shared.0.bias f4 [256]
0	0x3d71d76f	0.059043344
1	0x3ca8b98f	0.020596294
2	0x3d927796	0.071517155
3	0x3d316457	0.043308582
4	0x3d998df3	0.07497778
5	0x3d35ce59	0.04438624
6	0xbaefb82a	-0.0018289138
7	0xbd2bf83e	-0.04198479
8	0x3c90f0ee	0.01769301
9	0xbca5546e	-0.02018186
10	0x3d91ba27	0.07115584
11	0xbc160094	-0.009155411
12	0x3b91b975	0.004447157
13	0xbc821aec	-0.015881978
14	0x3c337f6e	0.010955675
15	0xbd2dc277	-0.042421784
16	0x3bf0f7e2	0.0073537687
17	0xbc298209	-0.010345944
18	0x3d1df1e5	0.038560767
19	0xbd2d3739	-0.042288993
20	0x3c2c5f53	0.010520774
21	0x3c003095	0.007824083
22	0x3c87222a	0.016495783
23	0x3d820c83	0.06350043
24	0x3c9e7762	0.019344036
25	0xbd7c2dd0	-0.061567128
26	0xbae1ba34	-0.001722163
27	0xbcaeffae	-0.021362152
28	0x3d9505d1	0.072765
29	0xbcadcc23	-0.021215504
30	0x3d45d961	0.04830301
31	0x3d510c40	0.051037073
32	0xbc7dbb18	-0.015486501
33	0xbce3f45c	-0.02782648
34	0xbcc01995	-0.023449698
35	0x3cc296cb	0.023753544
36	0x3c36c495	0.011155267
37	0xbce3a15e	-0.027786907
38	0xbc105b86	-0.008810883
39	0xbd1a0303	-0.03760053
40	0x3cfb7ab2	0.030698154
41	0xbc23f678	-0.010007493
42	0xbc9468f3	-0.01811645
43	0x3c3cbe3b	0.011519964
44	0xbca5b0a5	-0.020225832
45	0xbc8bf0ba	-0.01708256
46	0x39dc3782	0.00042003026
47	0x3cc40840	0.023929715
48	0xbb8acf77	-0.0042361575
49	0x3c9d0c63	0.019170946
50	0xbd355857	-0.0442737
51	0x3c809f8b	0.015701076
52	0xbcc00c14	-0.02344326
53	0x3b353eba	0.0027655796
54	0x3d524ca1	0.05134261
55	0x3cc50034	0.024047948
56	0xbb4fccdc	-0.00317078
57	0x3c2c81a3	0.010528955
58	0x3d0d22aa	0.034456886
59	0x3c5e528d	0.013569486
60	0x3d12b032	0.035812564
61	0x3d209a68	0.039209753
62	0xbd19abbf	-0.037517305
63	0xbc7caaa8	-0.015421547
64	0x3c05daba	0.008169824
65	0xbc945542	-0.01810706
66	0xbd69dc28	-0.057094723
67	0xbcdad2bf	-0.02671182
68	0x3aca0e20	0.0015415587
69	0xbc87efc2	-0.016593818
70	0xbc830657	-0.015994234
71	0xbd580d8b	-0.05274729
72	0x3c00004d	0.007812572
73	0x3b261fa5	0.0025348451
74	0xbcaba10b	-0.020950815
75	0xba9feee1	-0.0012201929
76	0x3d75182a	0.059837498
77	0x3cce0af5	0.02515171
78	0x3d9154f6	0.07096283
79	0x3d07fcbb	0.033200007
80	0xbc8d116f	-0.017220227
81	0x3c69efe8	0.0142783895
82	0x3c200a9b	0.009768154
83	0xbcf669d3	-0.030079758
84	0xbb3f04d4	-0.0029147165
85	0x3d4806f3	0.048834752
86	0x3b5bf589	0.0033563098
87	0x3da967e6	0.0827177
88	0x3c804fee	0.015663113
89	0xbb5efb34	-0.003402424
90	0x3bc79e0d	0.006091839
91	0x3c51156b	0.012761454
92	0x3cf29bbf	0.029615281
93	0xbcd0157f	-0.025400875
94	0x3cfcb9a5	0.030850241
95	0xbc0ffd3c	-0.008788403
96	0xbc5e898e	-0.0135826
97	0x3cb758b9	0.022381173
98	0x3d8436ba	0.06455751
99	0x3d4ba0f3	0.04971404
100	0xbc0aa39d	-0.00846186
101	0xbb985f94	-0.0046500657
102	0xbbe9e300	-0.007137656
103	0xbb1ffada	-0.0024410994
104	0x3d328397	0.043582525
105	0xbb497557	-0.0030740106
106	0xbc1dceae	-0.009631796
107	0x3c8eee55	0.01744763
108	0x3c849d86	0.016188394
109	0xbc0e31d7	-0.008678875
110	0xbc1ef576	-0.009702077
111	0xbaa6f3b2	-0.0012737422
112	0x3d70a1d3	0.058748078
113	0x3bbf7d11	0.0058437665
114	0x3cb0d156	0.021584194
115	0xbd247651	-0.040151898
116	0x3b47e944	0.0030504027
117	0xbc86b15f	-0.016441999
118	0x3d2cc8c4	0.042183653
119	0x3cdb9bd7	0.026807709
120	0xbb9f8707	-0.0048683914
121	0x3b6ce5a0	0.003614761
122	0x3d69eb5b	0.057109218
123	0xbbc71719	-0.0060757515
124	0xb9287c52	-0.00016068041
125	0x3c1ebd45	0.00968868
126	0x3aed2687	0.0018093147
127	0xbbe2a112	-0.0069161737
128	0x3d60d5e4	0.054891482
129	0x3be6c4ff	0.0070425267
130	0xbce7c07f	-0.028290031
131	0xbc839e7d	-0.016066784
132	0xbd475106	-0.048661254
133	0x3d2b3448	0.041797906
134	0x3cd2d7f1	0.025737735
135	0x3c086b18	0.008326314
136	0x3cc9baaa	0.024625141
137	0xbcd67afa	-0.026181687
138	0x3c7a2dbd	0.015269694
139	0x3babdaac	0.0052445736
140	0xbc87970a	-0.016551513
141	0x3d18091f	0.037118074
142	0xbb933fb6	-0.004493679
143	0xbc8716f2	-0.016490433
144	0x3d839e52	0.064266816
145	0x3c85b78b	0.016322872
146	0x3d2017c7	0.039085176
147	0xbca67e41	-0.020323874
148	0x3ccac88b	0.02475383
149	0xbd6d21b8	-0.057893485
150	0x3c1a0eb6	0.009402921
151	0xbc962c7b	-0.018331757
152	0xbc033796	-0.008008858
153	0xbc87b24a	-0.016564507
154	0xbc10cda8	-0.008838095
155	0xbca8c915	-0.020603696
156	0xbb44303a	-0.0029935972
157	0xbb439fb3	-0.0029849827
158	0xbd33a840	-0.043861628
159	0xbd42f281	-0.04759455
160	0xbaf77a13	-0.0018880985
161	0x3d01bef0	0.031676233
162	0x3ad3f5ac	0.0016171238
163	0x3d6866b3	0.056738567
164	0x3da01d57	0.07818096
165	0xbb9d1e7e	-0.0047948947
166	0x3d6e19f7	0.05813023
167	0x3c09de88	0.008414872
168	0x3cd1ea2f	0.025624363
169	0x3d5f1778	0.05446574
170	0x3c674e34	0.014117766
171	0xbc516302	-0.012779953
172	0x3d272648	0.040807992
173	0xbad3b1c6	-0.0016151003
174	0x3a4442e3	0.00074867735
175	0xbc260874	-0.010133851
176	0x3b9d7f59	0.004806441
177	0x3d7f1ead	0.062285114
178	0xbc1929d3	-0.009348351
179	0xbc880235	-0.016602615
180	0x3c29ca2c	0.010363143
181	0xbce37310	-0.027764827
182	0x3c985f3c	0.018600099
183	0xbc8beb62	-0.017080013
184	0x3c8d8d44	0.017279275
185	0x00000000	0.0
186	0x3cc4922f	0.023995487
187	0x3ca34ecd	0.019935036
188	0xbc2e3bb1	-0.010634349
189	0x3d0d5347	0.034503248
190	0xbc5b659b	-0.013390924
191	0xbcefb53a	-0.02926122
192	0x3a3266f0	0.00068055
193	0x3d3fccf3	0.046826314
194	0xbc06071e	-0.008180408
195	0xbc6f633d	-0.014611063
196	0x3d7e9f6a	0.062163748
197	0x3bd56cbc	0.0065132063
198	0xbcd04478	-0.025423273
199	0x3d11669e	0.035498254
200	0x3d87547a	0.066079095
201	0x3b0fc9e4	0.0021940405
202	0x3ca76636	0.02043448
203	0x3c77d175	0.015125622
204	0x3cc6d47c	0.024271242
205	0xbadd3fec	-0.0016880012
206	0x3d5e9384	0.0543399
207	0x3c8fb16d	0.017540658
208	0xbc76886c	-0.015047174
209	0xbbb29fcd	-0.0054511786
210	0xbbcf785b	-0.006331486
211	0x3b51ec57	0.0032031739
212	0xbaf8cb82	-0.0018981548
213	0xbc19d6ec	-0.00938962
214	0x3cd8b231	0.026452156
215	0x3c8aed80	0.016958952
216	0xbce8d2ec	-0.028420888
217	0x3d1347b3	0.03595705
218	0xbc0b66df	-0.008508413
219	0x3d5d94da	0.054097034
220	0xbb846369	-0.004040171
221	0xbd8e4c6c	-0.0694817
222	0xba3393e8	-0.0006850348
223	0x3cf14b66	0.029454898
224	0x3d125eb1	0.035734836
225	0xba141a8c	-0.0005649708
226	0xbca259db	-0.019818237
227	0xbcd9d8a6	-0.026592564
228	0x3d8c13f4	0.06839743
229	0x3c5248e1	0.0128347585
230	0x3c81116b	0.015755376
231	0x38f35a69	0.00011603983
232	0xbc54a3db	-0.012978519
233	0x3c163060	0.009166807
234	0x3c2461c3	0.010033074
235	0x3bb654e4	0.005564319
236	0xbbec1cf8	-0.007205602
237	0x3c1e2d8c	0.009654414
238	0x3d009495	0.0313917
239	0xb898a55d	-7.278726e-05
240	0x3d7521f0	0.05984682
241	0xbbd45afa	-0.006480572
242	0x3d16afbd	0.03678869
243	0xbc469f7d	-0.012122986
244	0xbb91d439	-0.0044503477
245	0xbc7c2387	-0.01538933
246	0xbbd75f98	-0.006572675
247	0x3ca17853	0.019710695
248	0x3d0d5013	0.034500193
249	0x3c829328	0.01593931
250	0xbc1cffcf	-0.009582474
251	0xbc486509	-0.01223112
252	0x3bc05a93	0.0058701723
253	0xbcef2b93	-0.029195582
254	0x3cf51e07	0.029921545
255	0x3b06486e	0.0020489949

shared.2.weight f4 [256, 256]
0	0x3c70d654	0.014699537
1	0xbd321510	-0.043477118
2	0x3d25df6b	0.04049627
3	0x3d931b43	0.07182934
4	0x3d5c76f5	0.053824384
5	0x3e8f929c	0.28041542
6	0xbe422272	-0.18958452
7	0x3ed04518	0.40677714
8	0xbe680aea	-0.22660413
9	0x3e42d5f6	0.19026932
10	0x3d601183	0.0547042
11	0xbea108d1	-0.3145204
12	0xbe2ad177	-0.16681467
13	0x3e8c45b6	0.27396935
14	0x3ccf7a63	0.025326913
15	0xbecb461f	-0.39701936
16	0xbcee1ed3	-0.029067433
17	0xbc827453	-0.015924608
18	0xbd143f6a	-0.03619329
19	0x3e986e46	0.29771632
20	0xbd9f2093	-0.07769885
21	0x3d87510b	0.066072546
22	0x3d24caf6	0.04023262
23	0xbcee503c	-0.029090993
24	0x3cb5913b	0.022163978
25	0x3eb7292f	0.35773608
26	0x3dbf9f28	0.093565285
27	0xbcbb6b9a	-0.022878457
28	0xbd564469	-0.052311335
29	0xbe57233d	-0.21009536
30	0x3d8f6210	0.07001126
31	0xbdabb6a7	-0.083844475
32	0x3dd08808	0.10182196
33	0x3e4c1676	0.19930443
34	0x3e5c654c	0.21523017
35	0xbce2e0eb	-0.02769514
36	0x3e03ac83	0.12858777
37	0x3e900c16	0.2813422
38	0xbcb47665	-0.022029111
39	0x3ddce890	0.10786545
40	0xbda0e08b	-0.07855328
41	0xbdd4fd7e	-0.10399912
42	0xbca4c3de	-0.020112928
43	0x3de6ad07	0.11263471
44	0x3da67d89	0.08129413
45	0xbe18e637	-0.1493157
46	0xbb273d34	-0.0025518658
47	0x3dbbdca6	0.09172945
48	0x3d82a2d3	0.063787125
49	0xbe300994	-0.17191154
50	0xbed25675	-0.41081586
51	0x3e997e85	0.2997934
52	0x3dfc285f	0.12312388
53	0xbdfb9312	-0.12283911
54	0x3df29788	0.118453085
55	0x3c32fc23	0.010924372
56	0x3dea53fd	0.11441801
57	0x3bb0a248	0.005390439
58	0xbb5d44b1	-0.0033762867
59	0xbd6f3dc0	-0.0584085
60	0x3d981a63	0.07426908
61	0xbd8114b2	-0.063027754
62	0x3dc2911b	0.09500333
63	0xbe6cdc48	-0.23130906
64	0x3e0fcd0f	0.14043067
65	0x3d1fc4b9	0.03900597
66	0xbda77ebc	-0.081784695
67	0x3e8c775b	0.2743481
68	0x3e3aa694	0.18227607
69	0xbdb946fb	-0.090467416
70	0xbd139d35	-0.036038596
71	0x3d662429	0.05618683
72	0xbedb8017	-0.42871162
73	0x3bd9b303	0.0066436543
74	0xbd4f4fe3	-0.050613295
75	0xbd873ee6	-0.06603794
76	0xbdbb5011	-0.09146131
77	0x3cc3c176	0.02389596
78	0x3cacb815	0.02108387
79	0x3db18e01	0.08669663
80	0x3d88ec1b	0.066856585
81	0x3d580fb5	0.052749354
82	0x3db95669	0.090496846
83	0xbcac420b	-0.021027585
84	0x3ccfcd41	0.025366427
85	0xbc9cd97e	-0.019146677
86	0xbd6273a8	-0.05528608
87	0xbcae9681	-0.021312
88	0xbdc4d263	-0.096104406
89	0xbdcef9d7	-0.10106247
90	0x3ddf46dc	0.10902187
91	0xbdf945b4	-0.12171498
92	0x3d8b08bf	0.067887776
93	0x3d4cf192	0.050035067
94	0x3e85b4b8	0.2611444
95	0xbcb61d5b	-0.022230795
96	0x3dd9877b	0.10621544
97	0x3c38cf2d	0.011279863
98	0x3d93ae2f	0.07210957
99	0x3cf320ee	0.029678788
100	0xbdd9f3d3	-0.10642209
101	0x3cdd76fb	0.027034273
102	0x3c7a97dc	0.015294995
103	0xbcdc403f	-0.026886104
104	0x3db9084d	0.090347864
105	0xbdbe16a0	-0.09281659
106	0x3b395a8c	0.002828273
107	0x3dde20db	0.108461104
108	0xbd36700f	-0.04454046
109	0x3d8a0e20	0.067409754
110	0xbda3674a	-0.07978685
111	0x3d487c77	0.048946824
112	0x3e016bd3	0.12638788
113	0xbda2de38	-0.07952541
114	0xbe3331de	-0.17499492
115	0xbd5181db	-0.05114923
116	0x3e4329a7	0.19058858
117	0x3b3a6742	0.0028442894
118	0xbd4e2b31	-0.05033416
119	0x3c5f8295	0.013641973
120	0xbcfb3dcb	-0.030669114
121	0x3dca4f4d	0.09878407
122	0xbbc368b9	-0.0059634116
123	0xbd67b815	-0.05657204
124	0x3e1eac7b	0.15495484
125	0x3e42e86a	0.19033971
126	0xbdd25410	-0.1026994
127	0x3cc6dcb8	0.024275169
128	0x3d13f03b	0.036117774
129	0x3b73a246	0.003717558
130	0xbdf3c760	-0.11903262
131	0xbd2301fd	-0.039796818
132	0xbe1499cf	-0.14511798
133	0x3d66e5df	0.056371566
134	0xbe1d52df	-0.15363644
135	0x3e0bea8e	0.13663694
136	0x3de0f5c7	0.10984378
137	0xbdb69c33	-0.089165114
138	0x3e1b0d52	0.151418
139	0x390bc60e	0.00013329854
140	0x3ced082a	0.028934557
141	0xbd1f2727	-0.038855698
142	0xbe1b7c65	-0.15184171
143	0x3ea1d5e1	0.3160849
144	0xbc867ed4	-0.016417898
145	0x3c8ea998	0.017414853
146	0xbca456d8	-0.020060942
147	0xbe34385b	-0.17599623
148	0xbaa3e0fb	-0.0012502962
149	0xbd89416c	-0.06701931
150	0x3cc0bf64	0.023528762
151	0xbdaf618e	-0.08563529
152	0xbdc54392	-0.09632029
153	0xbc9f083a	-0.019413102
154	0x3ec98880	0.39361954
155	0x3ec5d4cb	0.3863891
156	0x3eedc250	0.4643731
157	0xbcf1ef4a	-0.029533047
158	0x3cb809ac	0.02246555
159	0x3f3e9eca	0.7446104
160	0xbd316357	-0.04330763
161	0x3d5cc0b5	0.053894717
162	0x3db109ed	0.08644471
163	0x3dc96422	0.09833552
164	0x3c1c1cdc	0.009528365
165	0xbe7f2441	-0.24916174
166	0x3d347597	0.044057455
167	0x3e8948bf	0.26813313
168	0x3dd460ca	0.103700235
169	0x3d55ddfb	0.05221365
170	0xbcb8ef28	-0.022574976
171	0xbd22a3cb	-0.039706986
172	0x3d48a29a	0.048983194
173	0xbde6bdc7	-0.11266666
174	0x3e9b4a47	0.30330107
175	0x3df9b774	0.12193194
176	0x3dd92a87	0.106038146
177	0x3d90fc9c	0.070794314
178	0x3db0eee6	0.08639316
179	0xbc2f52b5	-0.010700871
180	0x3d3f40be	0.046692602
181	0x3d0f0826	0.03491988
182	0xbd5208e2	-0.051278003
183	0x3dc5e147	0.09662109
184	0x3d8a497b	0.067522965
185	0x3c9d0b92	0.019170556
186	0xbe6e75fe	-0.23287198
187	0x3db59f6d	0.08868299
188	0x3d8129fd	0.06306837
189	0xbd7de2d9	-0.061983917
190	0x3d47da42	0.04879213
191	0x3cc0aee6	0.023520898
192	0x3d9df8ec	0.07713494
193	0x3b107106	0.0022040023
194	0xbe15e522	-0.14638188
195	0xbd17a2cf	-0.0370205
196	0xbcfff314	-0.031243838
197	0xbd79e6d5	-0.061011154
198	0x3e953a72	0.29146153
199	0x3cc17c32	0.023618791
200	0xbc45eb46	-0.012080019
201	0xbe276a3e	-0.16349122
202	0x3d6e3ed4	0.058165386
203	0x3d717ce8	0.05895701
204	0x3e47cb04	0.19511038
205	0xbdffe495	-0.124947704
206	0xbc76baa1	-0.015059144
207	0x3ebb207d	0.36548224
208	0xbec78b30	-0.3897338
209	0x3d9281b4	0.07153645
210	0x3db08ffd	0.086212136
211	0xbda4065c	-0.080090255
212	0xbcc25a9a	-0.023724843
213	0x3e5ddb42	0.21665671
214	0x3d4c2c69	0.04984704
215	0xbb9efd57	-0.004851978
216	0xbda5bff3	-0.08093252
217	0x3e4a452f	0.19752954
218	0xbc4b7a8b	-0.012419353
219	0x3d39ab02	0.0453291
220	0xbf81f1b0	-1.0151882
221	0xbd3f4a59	-0.046701763
222	0xbda14363	-0.07874181
223	0x3d88b8a6	0.06675844
224	0x3d099403	0.03358842
225	0x3d08006f	0.03320354
226	0xbc58c617	-0.013230822
227	0xbe371839	-0.17880334
228	0xba5a64e8	-0.0008331076
229	0x3dd4de3b	0.103939496
230	0x3d3db749	0.046317372
231	0xbd209434	-0.039203838
232	0xbd77d181	-0.060502533
233	0xbe4a2835	-0.197419
234	0x3cd6faf3	0.026242709
235	0xbc9c7c48	-0.01910223
236	0x3cd1ef48	0.025626794
237	0x3cce9c78	0.025221094
238	0x3c8211dc	0.015877657
239	0xbe1c4154	-0.15259296
240	0x3d8422a3	0.06451919
241	0xbc4466af	-0.011987372
242	0x3ab82d6d	0.0014051624
243	0xbe83fe78	-0.25780082
244	0xbb79eaf2	-0.0038134423
245	0xbd074bc1	-0.03303123
246	0x3e5bd7ca	0.21469036
247	0x3d8d857e	0.06910227
248	0xbe0ce452	-0.13758972
249	0xbd98fa68	-0.07469636
250	0x3c24acda	0.010050977
251	0x3e0ba2d3	0.13636331
252	0xbd2e4b3b	-0.042552214
253	0xb982c184	-0.00024939713
254	0x3e0ce232	0.13758162
255	0xbc68a0f0	-0.014198527

shared.2.bias f4 [256]
0	0x3c92008b	0.017822525
1	0xbc40a07d	-0.011757013
2	0x3d5ffe76	0.054686032
3	0x3d35cba3	0.044383656
4	0xbc001c05	-0.00781918
5	0x3bf161b9	0.007366386
6	0x3cf508e9	0.029911475
7	0x3ba9dbd1	0.005183675
8	0xbadae5c6	-0.0016700558
9	0x3ac3004c	0.0014877408
10	0x3c970070	0.018432826
11	0xbbea7850	-0.0071554556
12	0xbc8fe8c0	-0.017567039
13	0xbbb59796	-0.005541752
14	0x3cb52849	0.022113936
15	0xbc33d225	-0.010975395
16	0x3d1d23ac	0.038364097
17	0x3b807ff9	0.0039215055
18	0x3c7657be	0.015035568
19	0x3c3a2fdd	0.011363951
20	0xbca35c1e	-0.019941386
21	0x3b674cbf	0.0035293547
22	0x3c9317ff	0.017955778
23	0x3ca1ef13	0.01976732
24	0x3a9af2a2	0.0011821578
25	0xbc34895f	-0.01101908
26	0xbb6a94eb	-0.0035794328
27	0xbbbf6cef	-0.0058418433
28	0xbb184783	-0.0023235984
29	0xbbc7a7b7	-0.006092991
30	0x3c9c8e23	0.019110745
31	0x3d8420c3	0.06451561
32	0x3d0ac41c	0.03387843
33	0x3cfdbc88	0.030973688
34	0x3c3c17aa	0.011480251
35	0x3d506456	0.050876938
36	0x3c39aed9	0.011333191
37	0x00000000	0.0
38	0xbbe7f26e	-0.0070784604
39	0xbb2fcc62	-0.0026824703
40	0x3cc20eec	0.023688756
41	0xbcd65933	-0.02616558
42	0xbb4308ef	-0.0029759964
43	0xbb35ad1b	-0.0027721587
44	0x3c8f362c	0.017481886
45	0xbb5ff736	-0.0034174449
46	0x3c161da3	0.009162339
47	0xbbbc0849	-0.0057382924
48	0x3d0522ce	0.032503895
49	0xbbf901b7	-0.0075990814
50	0x3d329df5	0.04360767
51	0xbcdd45eb	-0.027010879
52	0x3c05bdeb	0.008162956
53	0x3bafe887	0.0053682956
54	0xbc40981d	-0.011755017
55	0xbcb4efca	-0.022086997
56	0xbbb95c26	-0.005656737
57	0xbbde9aa3	-0.0067933365
58	0x3d275491	0.040852133
59	0xbbd49bd8	-0.0064883046
60	0xbbb5f561	-0.005552933
61	0x3c184b65	0.009295319
62	0xbba59703	-0.0050534024
63	0x3d619f82	0.05508376
64	0xbc14f849	-0.009092399
65	0xbc356b75	-0.011072983
66	0x3cb4a0a6	0.02204926
67	0xbc78b0f4	-0.015178908
68	0x3caa4939	0.020786868
69	0x3d1173f7	0.035510983
70	0xbaba72c9	-0.0014224882
71	0x3d23825c	0.039919242
72	0xbbbbdc0a	-0.005733018
73	0x3b753467	0.0037415267
74	0x3b81e176	0.0039636446
75	0x3d0960f4	0.033539727
76	0x3b1ace5c	0.0023621535
77	0x3b6ed4b8	0.0036442708
78	0xbc9385c7	-0.018008126
79	0x3d87e8b2	0.0663618
80	0x3cddf7c7	0.027095689
81	0xbc014508	-0.0078899935
82	0x3c8ac101	0.016937735
83	0xbc6dae50	-0.014506891
84	0x3d47918c	0.04872279
85	0xbc0c79a6	-0.008573925
86	0xbd5d3b13	-0.054011416
87	0xbc335a76	-0.010946861
88	0x3d7566f6	0.059912644
89	0x3d6d751a	0.057973005
90	0x3d59a862	0.053139098
91	0x3d0d52fc	0.03450297
92	0x3c8328d6	0.016010683
93	0x3cbe8e98	0.023261353
94	0xbc89fa9b	-0.01684313
95	0x3cf58643	0.029971248
96	0x3cc0a19b	0.02351456
97	0x3cb49bee	0.02204701
98	0xbaab5bdf	-0.0013073644
99	0x3d581396	0.052753054
100	0xbbfc4ba5	-0.007699447
101	0x3bae32eb	0.0053161285
102	0xbc023c6f	-0.007948979
103	0x3cc5d5b3	0.024149751
104	0x3bb5f4bf	0.0055528576
105	0x3d617c42	0.055050142
106	0xbbd7574c	-0.006571686
107	0x3ce4d94d	0.027935648
108	0x00000000	0.0
109	0x3d1b9773	0.03798623
110	0x3d7aed87	0.06126168
111	0xbc0ff95c	-0.008787479
112	0x3cae5b7f	0.021283863
113	0x3c4a47b0	0.012346193
114	0x3d032052	0.032013245
115	0xbba6bb4a	-0.0050882446
116	0x3ca57145	0.020195613
117	0x3d177cb1	0.03698415
118	0x3a0a04a6	0.0005264975
119	0x3c80f2fb	0.015740862
120	0x3ca5a6ad	0.020221079
121	0x3d0ca891	0.034340445
122	0xbbb98f67	-0.005662847
123	0xbbd484ee	-0.006485573
124	0x3d1f8d9f	0.03895342
125	0xbb7e561e	-0.0038808654
126	0x3ce93233	0.02846632
127	0xbbb08398	-0.005386781
128	0x3c150e25	0.009097611
129	0xbb0b0b00	-0.0021216273
130	0x3c07f274	0.008297551
131	0xbc2ac2a4	-0.0104223825
132	0xba320540	-0.00067909434
133	0xbc15b5e9	-0.009137609
134	0x3b40926c	0.002938415
135	0x3c4623bf	0.0120934835
136	0x3c972493	0.018450057
137	0x3bb5dc75	0.005549962
138	0x3b8217e9	0.0039701355
139	0xbc0816b0	-0.00830619
140	0xbbfcb58e	-0.0077120727
141	0x3d90f058	0.07077092
142	0x3b943f8b	0.0045241765
143	0x3c1dc9c5	0.009630625
144	0x3bc2cd12	0.0059448564
145	0x3cb3ac24	0.021932669
146	0x3d8a268e	0.06745635
147	0xbae8f20f	-0.0017772334
148	0x3d0c9361	0.03432024
149	0x3c80bd92	0.015715394
150	0x3c56e838	0.013116889
151	0x3d2a60c1	0.041596178
152	0xbc2b40c8	-0.010452457
153	0x3d2ba0c1	0.041901354
154	0xbab1275b	-0.0013515757
155	0x00000000	0.0
156	0x3ae9ab6a	0.0017827575
157	0xba81653f	-0.0009872093
158	0xbd3a88d2	-0.04554064
159	0x3d3c62ba	0.04599259
160	0xbbe1673c	-0.0068787616
161	0xbbc4204e	-0.0059852963
162	0x3d2e6e3e	0.042585604
163	0xbc03ae7c	-0.008037206
164	0xbc11988f	-0.00888647
165	0xbb793fb2	-0.003803235
166	0x3c15e2d3	0.009148317
167	0xbb811bb0	-0.003940068
168	0x3d37502e	0.0447542
169	0xbc1df22a	-0.009640256
170	0xbbd3f4f7	-0.006468411
171	0xbc3cf98b	-0.011534105
172	0x3d4218f5	0.047387082
173	0xbc192706	-0.009347683
174	0xbccac477	-0.024751885
175	0xbbc29ae3	-0.005938874
176	0x3c82b035	0.015953163
177	0xbc4a5319	-0.012348914
178	0xbc143ebf	-0.009048163
179	0x3d5072fd	0.05089091
180	0x3d44de59	0.04806361
181	0x3d3c9624	0.046041623
182	0x3c7e3d98	0.015517615
183	0xbb5a70cc	-0.0033331392
184	0xbbc20189	-0.005920593
185	0x3cd25122	0.025673453
186	0x00000000	0.0
187	0xbc5a2321	-0.013314039
188	0x3d1f1792	0.038840838
189	0x3cdc3a81	0.026883366
190	0x3ca974ab	0.020685514
191	0x3c0d2ca8	0.008616604
192	0xbbb78cfc	-0.0056015234
193	0xbb64ba48	-0.0034901071
194	0x3c276707	0.010217435
195	0x3d4cb52d	0.04997747
196	0x3b928869	0.0044718278
197	0xbba44a97	-0.0050137746
198	0x3d108b9b	0.03528939
199	0x3d062ebf	0.032759424
200	0xbb3b0dc4	-0.002854214
201	0xbd4bdf52	-0.04977352
202	0x3d1124b0	0.03543538
203	0x3d52466c	0.05133669
204	0x3cf3409f	0.0296939
205	0x3c74f274	0.014950383
206	0x3c870f3d	0.016486758
207	0x3d38b864	0.045097724
208	0xbbf4c5ec	-0.007469883
209	0x3d1c6347	0.038180616
210	0x3cb81556	0.022471111
211	0xbbadec6f	-0.005307726
212	0x3cdc6c24	0.026907034
213	0x3d2f6602	0.04282189
214	0xbc269be1	-0.010169
215	0x3bd4115c	0.006471796
216	0x3a231a1f	0.0006221849
217	0xbb31a065	-0.002710366
218	0x3d4ad85c	0.049522743
219	0xbb7046b5	-0.0036663238
220	0xbbc7905b	-0.0060902066
221	0xbba6d9f5	-0.0050919005
222	0xbab93e6a	-0.0014132981
223	0x3d17260e	0.036901526
224	0xbbb06924	-0.0053836275
225	0xbc133a7e	-0.008986114
226	0xbbc2aebd	-0.0059412406
227	0x3d5b8b36	0.05359956
228	0xbc40615f	-0.011741965
229	0x3c511c65	0.012763117
230	0xbbfb62b4	-0.0076716784
231	0xb9320b51	-0.00016979619
232	0xbbe2ed76	-0.00692528
233	0xba917333	-0.0011096954
234	0x3b7ac40b	0.0038263823
235	0x3b7fc1ae	0.0039025354
236	0xbb474594	-0.0030406462
237	0x3ca897eb	0.020580253
238	0xbb9d4ed9	-0.004800659
239	0xbd065508	-0.032795936
240	0x00000000	0.0
241	0xbc0407b4	-0.008058477
242	0x3dbe94ce	0.09305726
243	0x3c7ec071	0.015548811
244	0x3be669d3	0.007031658
245	0x3b9c7afa	0.004775402
246	0xbccc6607	-0.024950994
247	0x3c6bc2d2	0.0143897105
248	0xbb6f5a85	-0.003652246
249	0x3cd565b0	0.026049465
250	0xba871919	-0.0010307162
251	0x3d55fff7	0.05224606
252	0xba9ed8ea	-0.0012119089
253	0xbb59b53d	-0.0033219599
254	0x3d3391a6	0.043840073
255	0xbb87ff3b	-0.004150299

skill_head.weight f4 [3, 256]
0	0xbdcf0c9d	-0.10109828
1	0x3cd3db76	0.025861483
2	0xbc84521f	-0.01615244
3	0xbd1786c1	-0.036993746
4	0xbd3f6e94	-0.046736315
5	0xbdde4d40	-0.10854578
6	0xbe041fb4	-0.12902719
7	0xbc27aad4	-0.0102336
8	0xbd85b03d	-0.065277554
9	0xbe5609c2	-0.2090216
10	0xbe4ef888	-0.20211995
11	0xbb83b9d6	-0.004019956
12	0x3b1a679a	0.0023560286
13	0x3c9622ce	0.018327143
14	0xbe265a39	-0.16245355
15	0xbd4e70a0	-0.050400376
16	0xbe031495	-0.1280082
17	0xbdca2772	-0.09870805
18	0xbe1f3201	-0.15546419
19	0xbe2db04e	-0.16961786
20	0xbe1f34cc	-0.15547484
21	0xbe0dd38b	-0.13850228
22	0xbe43f317	-0.191357
23	0xbe122bc1	-0.14274503
24	0xbd3e5669	-0.046469126
25	0xbd5c9dae	-0.053861313
26	0x3d8d601f	0.06903099
27	0x3d1a814f	0.037720975
28	0x3b78665d	0.003790281
29	0xbbe729c1	-0.007054538
30	0xbd66b3f5	-0.056323964
31	0xbd1a86c2	-0.03772617
32	0xbdd929fe	-0.106037125
33	0xbd5095c3	-0.050924074
34	0xbd30097f	-0.042977806
35	0xbe0a7468	-0.13520968
36	0xbe38665f	-0.18007801
37	0xbb757848	-0.0037455726
38	0x3c826854	0.015918888
39	0xbd872415	-0.06598679
40	0xbd747b5e	-0.059687965
41	0xbdd14db4	-0.10219899
42	0xbd23efaf	-0.040023502
43	0xbc8bbcea	-0.017057855
44	0xbdfccea9	-0.12344105
45	0x3c436381	0.011925579
46	0x3be86028	0.007091541
47	0xbbf5d24b	-0.0075018755
48	0xbe00eee6	-0.12591133
49	0xbc5e2b01	-0.013560058
50	0xbde15bae	-0.11003815
51	0xbdcc5e88	-0.09978968
52	0xbdc6dbd5	-0.097098984
53	0xbd8e6afa	-0.06953998
54	0xbda83e0d	-0.0821496
55	0xbd0f6ec4	-0.035017744
56	0xbd59f944	-0.053216234
57	0xbb485452	-0.0030567837
58	0xbdd8b28d	-0.10580931
59	0xbc813ba1	-0.015775504
60	0xbad11058	-0.0015950305
61	0xbe4e5062	-0.20147851
62	0xbe1d7c55	-0.1537946
63	0xbde094ce	-0.10965882
64	0x3b468938	0.003029419
65	0xbd01e8ca	-0.031716146
66	0xbe33c960	-0.17557287
67	0xbe09d93b	-0.13461773
68	0xbda6b66e	-0.081402645
69	0xbe4cc989	-0.19998755
70	0xbc821666	-0.015879821
71	0xbe14b109	-0.14520659
72	0xbe306f52	-0.17229965
73	0xbe0b4865	-0.13601835
74	0xbdfd0ccd	-0.12355957
75	0xbe365f78	-0.17809856
76	0xbe0087ac	-0.12551755
77	0x3c41c682	0.011827113
78	0xbe3a8768	-0.18215716
79	0xbd3535bc	-0.0442407
80	0xbe18bb7a	-0.14915267
81	0xbd1c2797	-0.038123693
82	0xbd76d5d0	-0.0602625
83	0xbc722a40	-0.014780581
84	0xbdde96e8	-0.10868627
85	0xbb6002ec	-0.003418143
86	0x3b8939b8	0.004187789
87	0xbaa27f19	-0.0012397497
88	0xbe217ee5	-0.15771063
89	0xbdd2155d	-0.10257981
90	0xbd3e88cd	-0.046517182
91	0xbc68caa2	-0.014208468
92	0xbe1c8b6a	-0.15287557
93	0xbd9c5835	-0.07634012
94	0xbcdede4a	-0.027205605
95	0xbe14f4eb	-0.14546554
96	0xbd72dac4	-0.059290662
97	0xbe176bac	-0.14787167
98	0xbe285175	-0.16437323
99	0xbd2c5571	-0.04207367
100	0x3ce5105a	0.027961899
101	0xbe25973a	-0.1617097
102	0x3a8de1cd	0.001082474
103	0xbe4c2948	-0.19937623
104	0xbe0f4573	-0.13991337
105	0xbe0f59aa	-0.13999048
106	0xbcec5533	-0.02884922
107	0xbe50eea9	-0.20403542
108	0xbc5d544c	-0.0135088675
109	0xbdaf0db3	-0.08547535
110	0xbe131780	-0.14364433
111	0xbd8c9e61	-0.06866146
112	0xbe47466c	-0.19460458
113	0xbe305f2b	-0.17223804
114	0xbd1ce4fc	-0.038304314
115	0xbbaa04b5	-0.0051885494
116	0xbe324d4b	-0.17412297
117	0xbdac7663	-0.08421018
118	0x3c8aea9d	0.016957575
119	0xbe034b8a	-0.12821785
120	0xbdde49f7	-0.108539514
121	0xbe0a7259	-0.13520183
122	0x3ae8a51e	0.0017749404
123	0x3d6b48f8	0.057442635
124	0xbe150010	-0.14550805
125	0x3c747e64	0.014922712
126	0xbde3e6be	-0.11127995
127	0x3d072c0d	0.033000994
128	0xbe020ca7	-0.12700139
129	0xbc256483	-0.010094765
130	0xbe4ec789	-0.20193304
131	0xbcf6bf34	-0.03012047
132	0xbd282409	-0.04104999
133	0xbd3e3734	-0.046439365
134	0xbcb5bbd3	-0.022184288
135	0xbdfb5643	-0.122723125
136	0xbe36f504	-0.17866904
137	0xbe57184b	-0.21005361
138	0x3c0c24ff	0.008553742
139	0xbe1c5f76	-0.1527079
140	0x3c7a18cd	0.015264702
141	0xbd6a4adb	-0.057200294
142	0x3b4d7414	0.0031349706
143	0xbdce4496	-0.100716755
144	0xbd2dc2dd	-0.042422164
145	0xbe2035b5	-0.15645488
146	0xbd9b8383	-0.07593443
147	0x3c7857e3	0.015157673
148	0xbda4dc20	-0.08049798
149	0x3cd56269	0.026047902
150	0x3d6f7595	0.058461744
151	0xbe0716a8	-0.13192236
152	0xbd95608b	-0.07293805
153	0xbdf52b0c	-0.11971101
154	0x3ccdf677	0.025141938
155	0xbcee7981	-0.029110672
156	0xbdf92401	-0.1216507
157	0x37abb654	2.0469692e-05
158	0xbd23deaf	-0.04000729
159	0xbdd0e975	-0.102007784
160	0xbd34b12b	-0.044114273
161	0xbc55b915	-0.013044615
162	0xbe18b853	-0.14914064
163	0xbdb535ff	-0.088481896
164	0x3bb6ad31	0.0055748452
165	0xbdeb9da2	-0.115046754
166	0xbe3e5027	-0.18585263
167	0xbd06204d	-0.03274565
168	0xbe2f05d9	-0.17092074
169	0xbcffd941	-0.031231524
170	0xbc0d151b	-0.008610989
171	0xbc297848	-0.010343619
172	0xbe2d5ca6	-0.16929874
173	0x3c974afd	0.018468374
174	0xbd8acb57	-0.06777065
175	0x3cb44f0b	0.022010347
176	0xbe1a7833	-0.15084915
177	0xbac483e7	-0.0014992923
178	0xbdbd78ef	-0.09251582
179	0xbda169ba	-0.07881494
180	0xbddc3e5e	-0.10754083
181	0xbe0a28da	-0.13492146
182	0xbe26ad60	-0.16277075
183	0xbb2a416a	-0.0025978931
184	0xbd2b5f34	-0.04183884
185	0xbd01b188	-0.031663448
186	0x39ffe416	0.00048807327
187	0xbd904814	-0.07044998
188	0xbe60a5da	-0.21938267
189	0xbc3a0d28	-0.011355676
190	0xbe2524b0	-0.16127276
191	0xbd6e08cf	-0.05811387
192	0x3d97fb8f	0.07421028
193	0x3c8d4041	0.017242553
194	0xbc061588	-0.008183844
195	0xbe17555a	-0.14778653
196	0xbb1d8b73	-0.0024039417
197	0xbc9b23c9	-0.018937962
198	0xbe1ae537	-0.15126501
199	0xbe21a70a	-0.15786377
200	0xbc863cca	-0.016386408
201	0xbd9ffbc8	-0.07811695
202	0xbe09070f	-0.13381599
203	0xbe14adbe	-0.14519402
204	0xbe15e175	-0.14636786
205	0xbdac3325	-0.084081925
206	0xbe2db208	-0.16962445
207	0xbde2a63a	-0.110668615
208	0xbb4e73ac	-0.0031502051
209	0xbd3765fd	-0.044774998
210	0xbe02cffc	-0.12774652
211	0x3d53bcae	0.05169361
212	0xbd6af377	-0.057361092
213	0xbdfadb0b	-0.122488104
214	0x39907e96	0.00027560134
215	0xbe4fd2b9	-0.20295228
216	0x3c5713d4	0.013127286
217	0xbc52aa0a	-0.012857923
218	0xbdc4a611	-0.09601987
219	0x3ce54936	0.027989011
220	0xbc0018f3	-0.007818448
221	0xbbe58873	-0.0070047914
222	0xbbcb8a02	-0.00621152
223	0xbe2b3298	-0.16718519
224	0xbbf5dbc1	-0.0075030033
225	0xbd992007	-0.07476812
226	0x3cf9503f	0.030433772
227	0xbdd40cd3	-0.103540085
228	0x3be247de	0.00690554
229	0xbe581e13	-0.21105222
230	0xbc1a3a17	-0.009413264
231	0x3cbbc692	0.022921834
232	0xbb9e57a0	-0.004832223
233	0xbdeefaf2	-0.11668958
234	0x3b5b2f8c	0.0033445088
235	0xbe2c9a9d	-0.16855855
236	0x3d32fe82	0.04369975
237	0xbe154045	-0.14575298
238	0x3be0f9ba	0.006865707
239	0xbdff606d	-0.12469564
240	0xbc086c9b	-0.008326675
241	0xbd892462	-0.066963926
242	0xbca83e90	-0.020537645
243	0xbe1900dd	-0.14941736
244	0xbde69366	-0.11258583
245	0xbd82cd7a	-0.06386848
246	0xbda517d2	-0.08061184
247	0x3b09a017	0.0020999962
248	0x3d6234ee	0.05522626
249	0xbd862c9f	-0.065514795
250	0xbccf74b7	-0.025324209
251	0xbdffb2f9	-0.12485308
252	0xbb86541e	-0.004099383
253	0x3938edf2	0.00017636249
254	0xbe07d231	-0.13263775
255	0xbd41ab40	-0.047282457

skill_head.bias f4 [3]
0	0xbdee1d01	-0.11626626
1	0x3c68c450	0.014206961
2	0xbb9575d2	-0.0045611644

param_head.weight f4 [6, 256]
0	0xbc9107e2	-0.017703954
1	0x3c789787	0.015172846
2	0xbc060a09	-0.0081811035
3	0x3d4b1fd6	0.049590908
4	0xbc5e3307	-0.013561971
5	0xbc0e82bc	-0.008698162
6	0x3d13da4c	0.036096856
7	0x3d883dce	0.06652413
8	0x3c0c155d	0.008550015
9	0xbc0d61f2	-0.008629309
10	0xbcd2318e	-0.025658395
11	0xbd016f95	-0.031600554
12	0xbc53c8c3	-0.012926283
13	0xbd3be408	-0.045871764
14	0x3cc209fa	0.023686398
15	0xbd7cba5b	-0.06170116
16	0x3cd13988	0.025540128
17	0xbb95d60f	-0.004572637
18	0x3bf86aa1	0.0075810705
19	0x3cccebda	0.025014807
20	0x3d4f53a2	0.050616868
21	0x3cb32bf2	0.02187154
22	0x3b8d94e0	0.004320726
23	0x3cf64cc3	0.0300659
24	0xbdae3404	-0.08506015
25	0x3cf83ab7	0.030301435
26	0xbcfc3381	-0.030786278
27	0x3d5a4196	0.053285204
28	0x3d0fa5ce	0.035070233
29	0xbd54c80f	-0.051948603
30	0xbc5264a1	-0.012841375
31	0x3b42d0af	0.0029726436
32	0x3dd2f2c8	0.10300213
33	0x3d004a36	0.031320773
34	0xbce5da61	-0.028058233
35	0x3b094876	0.002094773
36	0x3d37647a	0.044773556
37	0xbd6ba552	-0.05753071
38	0x3d45ee0e	0.04832273
39	0xbd163dc3	-0.036679994
40	0xbb2f6fe6	-0.0026769578
41	0x3c9a1164	0.01880712
42	0xbcd87dbe	-0.026427146
43	0x3c4281fd	0.011871812
44	0x3c2e5ce4	0.010642264
45	0x3c8c688a	0.017139692
46	0xbb78c912	-0.0037961644
47	0x3d9a8f38	0.07546848
48	0x3d5b00d9	0.053467605
49	0xbc80c7f9	-0.015720354
50	0x3d2fff0f	0.042967852
51	0x3d3feab8	0.046854705
52	0xbcdbc39a	-0.026826669
53	0xbcc02f6e	-0.023460116
54	0xbc9b6e4e	-0.018973496
55	0x3b170951	0.0023046324
56	0xbd21e34f	-0.03952342
57	0x3bb71a78	0.005587872
58	0x3c3d5ad3	0.011557299
59	0xbb2ab642	-0.0026048576
60	0x3b512889	0.003191503
61	0x3dac21ca	0.08404882
62	0xbc0c01ce	-0.008545352
63	0x3c5e178e	0.013555421
64	0x3c9ef7eb	0.019405326
65	0xbc098986	-0.008394605
66	0x3d0fcb21	0.03510583
67	0x3d4ae67d	0.049536217
68	0xbcbf8b2a	-0.023381788
69	0x3c900308	0.01757957
70	0x3c76b1f6	0.015057078
71	0x3da1a06f	0.078919284
72	0x3c495090	0.012287274
73	0x3ceabd84	0.028654821
74	0xbce43590	-0.027857572
75	0x3bc22470	0.005924754
76	0xbcdab9aa	-0.02669986
77	0x3c2c1c0b	0.010504733
78	0x3c85afc4	0.016319163
79	0x3caf1724	0.021373339
80	0x3d23d50a	0.03999809
81	0x3cf4882f	0.029850094
82	0x3c98a153	0.018631613
83	0x3c752ab2	0.014963793
84	0x3dacd4e8	0.08439046
85	0x3d743ff9	0.05963132
86	0xbd0d035e	-0.03442704
87	0x391732ea	0.00014419449
88	0x3cccbc30	0.024992079
89	0x3da93010	0.0826112
90	0xbc271001	-0.010196687
91	0x3c8d2a38	0.017232046
92	0xbc807de3	-0.015685027
93	0x3d99dfca	0.075133875
94	0x3c84cec1	0.01621187
95	0x3d86ae7f	0.06576251
96	0xbd74aec9	-0.059737
97	0x3d7663fe	0.060153954
98	0xbc509782	-0.012731435
99	0x3d08590a	0.03328804
100	0x3c7d57b4	0.015462805
101	0x3d449a5d	0.047998775
102	0x3ce2fce8	0.027708486
103	0x3dc7f8f0	0.09764278
104	0x3d0aaf97	0.03385886
105	0x3c25d902	0.0101225395
106	0xbbd7bdf7	-0.006583925
107	0xbc97858d	-0.0184963
108	0xbc33fb53	-0.010985213
109	0xbb543109	-0.003237786
110	0xbd7ef8fa	-0.06224916
111	0xbc79e2b9	-0.015251809
112	0xbbf491c0	-0.007463664
113	0x3d3c1acc	0.045923993
114	0x3b8aad9e	0.0042321226
115	0xbcde613c	-0.027145974
116	0x3c6f4fea	0.014606455
117	0x3d522c25	0.05131163
118	0xbcde2d8f	-0.027121333
119	0x3d40cd4f	0.047070798
120	0xbcf0131b	-0.029305985
121	0xbbe30de0	-0.0069291443
122	0x3c81b173	0.015831685
123	0x3d284312	0.04107959
124	0x3d1a3be6	0.03765478
125	0xbb844927	-0.0040370408
126	0x3d23b509	0.03996757
127	0xbcfd2e4b	-0.030905863
128	0xbbbff991	-0.005858608
129	0x3d30f62c	0.043203518
130	0x3b478248	0.0030442644
131	0x3c231be5	0.009955381
132	0x3cf573e9	0.029962497
133	0x3c16c49f	0.009202152
134	0x3cca40cd	0.024689103
135	0xbcd41583	-0.025889164
136	0x3aa76fdc	0.0012774426
137	0x3bac5d90	0.005260177
138	0x3bc2fe79	0.0059507457
139	0x390b196d	0.00013265545
140	0x3c888e26	0.016669344
141	0x3d33d3ac	0.043903038
142	0x3c8c1dc5	0.017104039
143	0xbd59ac1d	-0.053142656
144	0xbd792230	-0.06082362
145	0xbbcc4749	-0.006234084
146	0xbd29262e	-0.041296177
147	0xbd13b007	-0.036056545
148	0x3b5c6291	0.0033628086
149	0xbd0faccb	-0.035076898
150	0xbd3f6c28	-0.046734005
151	0x3d1db772	0.038505025
152	0x3d46fc24	0.048580304
153	0xbda20c1e	-0.079124674
154	0xbc358672	-0.011079418
155	0x3c647fd1	0.013946489
156	0xbcae695f	-0.02129048
157	0xbd086be5	-0.03330602
158	0x3b76e492	0.003767286
159	0xbb82fba8	-0.003997285
160	0x3c93b6bc	0.01803147
161	0xbd2052f8	-0.039141625
162	0x3d4925dd	0.049108375
163	0x3c5c5250	0.013447359
164	0xbd9734f9	-0.073831506
165	0xbbd42d3f	-0.0064751203
166	0x3db1c8ea	0.086808994
167	0x3d1e4b58	0.038646072
168	0xbbee2f4a	-0.007268821
169	0xbb608929	-0.0034261441
170	0x3c453f34	0.012038995
171	0x3cc76484	0.024339922
172	0x3d27a72f	0.040930923
173	0xbb174bbb	-0.002308591
174	0x3d400948	0.04688385
175	0x3d2b748d	0.0418592
176	0x3d136444	0.035984293
177	0x3cbf6748	0.023364678
178	0x3b2ab9dc	0.0026050722
179	0x3c9fc5b7	0.019503457
180	0x3ce736d6	0.02822439
181	0x3c78d13c	0.015186604
182	0x3d1e357b	0.03862522
183	0x3c88efd4	0.016715921
184	0xbce9616e	-0.02848884
185	0xbd608529	-0.05481449
186	0xbcaec13f	-0.021332381
187	0x3bd1e365	0.0064052814
188	0x3beea4da	0.0072828354
189	0x3c5ea3bf	0.013588845
190	0x3ce1c2d8	0.027558729
191	0xbc713095	-0.0147210555
192	0x3d7aa8d9	0.061196182
193	0xbcc9bbc8	-0.024625674
194	0x3d3555ce	0.044271283
195	0x3cd82927	0.02638681
196	0x3c2f6c10	0.010706916
197	0x3ca8182e	0.020519342
198	0x3c2f2e7f	0.010692238
199	0xbd169a44	-0.036768213
200	0x3c6e9639	0.014562183
201	0x3c82b63c	0.015956037
202	0x3d14627a	0.036226727
203	0xbc4b408a	-0.012405524
204	0x3c351ffc	0.011054989
205	0xbd561268	-0.052263647
206	0x3df9af6b	0.121916614
207	0x3d9da83e	0.07698105
208	0x3ad61211	0.0016332289
209	0xbcdd3272	-0.027001593
210	0xbd4d209f	-0.050079938
211	0xbbbbb1ca	-0.005727981
212	0xbd38e9f7	-0.045145
213	0xbcac7123	-0.021050042
214	0x3d173884	0.036919132
215	0x3ced8bac	0.028997265
216	0xbccdae07	-0.025107397
217	0xbb6ece96	-0.0036439053
218	0xbacfcb6f	-0.0015853475
219	0xbda4b787	-0.080428176
220	0xbd1191fc	-0.035539612
221	0x3bca0332	0.0061649317
222	0x3da5ed4f	0.08101904
223	0x3c567df2	0.013091551
224	0xbc03103b	-0.007999475
225	0xbc08cef7	-0.0083501255
226	0x3dd3ffa3	0.10351493
227	0x3d10b98d	0.035333205
228	0x3c564768	0.013078548
229	0x3d407f8a	0.04699663
230	0x3cf2fecc	0.029662512
231	0xba4d90f1	-0.00078417273
232	0x3d2fcd77	0.042920556
233	0x3c59934c	0.013279747
234	0xbb98cbdd	-0.0046629743
235	0x3cb2a16a	0.021805484
236	0xbd4ada49	-0.04952458
237	0x3d0d9d1b	0.034573656
238	0xbd098c78	-0.033581227
239	0x3dabed9c	0.0839493
240	0x3d396983	0.04526664
241	0xbb6d00a5	-0.0036163714
242	0x3c6bc12d	0.014389318
243	0x3b85f9d3	0.0040886193
244	0xbc0ed769	-0.00871835
245	0x3cc2596f	0.023724286
246	0x3dabcb28	0.08388358
247	0x3cddb7e9	0.027065234
248	0xbce93883	-0.02846933
249	0x3d884471	0.06653679
250	0x3cda562d	0.02665242
251	0xbb7652ed	-0.0037586049
252	0x3d11aa04	0.03556253
253	0x3cc5acdc	0.024130277
254	0x3caf0101	0.021362783
255	0x3dbbeb7a	0.09175773

param_head.bias f4 [6]
0	0x3be9b071	0.007131629
1	0x3a88cf50	0.001043776
2	0x3cbd8641	0.023135306
3	0x3c8122a0	0.01576358
4	0xbb5fe622	-0.003416427
5	0xbc2de78b	-0.010614286
