models/maddpg_best/actor_1.pth (torch, 325901 bytes, 8 tensors)

shared.0.weight f4 [256, 48]
000000 30 0b 0b 3d 2f 81 86 3d 3b 53 ac bc 1a f0 16 bd
       0.033946216 0.065676086 -0.021035781 -0.036850072
000010 fe 63 02 3d ce c2 b7 be 40 a6 3f bd 9d de 29 3e
       0.03183364 -0.35890812 -0.046789408 0.16588826
000020 84 36 e5 3d ec a1 e5 3d cd 97 a2 bb 94 c7 43 be
       0.11192039 0.11212525 -0.0049619437 -0.19119102
000030 a3 10 90 ba 47 49 51 3b 70 3c a5 3c fc 45 a6 bb
       -0.0010991286 0.0031934546 0.02017042 -0.0050742608
000040 85 e8 60 3c 04 a3 42 bd d2 23 2b be 85 06 aa bc
       0.013727312 -0.047518745 -0.16712883 -0.020755062
000050 7b 94 08 bd 65 43 86 bd 2c 93 ea 3d de e2 cf bd
       -0.033344727 -0.06555823 0.11453852 -0.10150693
000060 59 0f 22 be e0 1f 27 bb 0c 30 99 bc 6a 44 5b 3d
       -0.15826167 -0.0025501177 -0.018699668 0.05353204
000070 d1 70 c7 bd c1 2e 50 bc 46 b2 d4 3d 7b 1b 82 3c
       -0.09738315 -0.0127064595 0.103855655 0.015882244
000080 29 b1 38 bd d3 da 32 3d f7 a3 1b 3d 68 a7 85 bc
       -0.045090828 0.04366572 0.037998166 -0.016315177
000090 b0 bd 2e 3d 95 af 88 bd 1b 93 f7 bd 8b ae 03 bd
       0.04266137 -0.066741146 -0.12088605 -0.03214888
0000a0 47 99 9e 3c 7e f3 60 3a a3 d5 73 bc ab 58 b2 3d
       0.019360198 0.0008581205 -0.014882478 0.08708318
0000b0 80 05 92 3d 09 b9 71 3d 37 92 2a 3d 12 23 8f bd
       0.07129955 0.059014354 0.041643348 -0.06989111
0000c0 4d 7b 23 bc d8 be 9f bb 02 07 32 3d 02 e8 d2 3c
       -0.009978128 -0.0048750453 0.043463714 0.025745396
0000d0 fb 97 e8 bd 5b bc d4 bd 80 65 f2 bc fc 68 a0 3e
       -0.11357113 -0.103874885 -0.029589415 0.31330097
0000e0 14 61 a3 3d b6 ff 41 3e 78 0d 43 3d b9 7c a8 3b
       0.079775006 0.18945202 0.047620267 0.005141821
0000f0 07 a7 b5 3d 18 32 4e 3d e1 6a 75 3c 17 22 48 3d
       0.088697486 0.050340742 0.014979095 0.048860636
000100 65 75 47 bc 2c 50 13 bd 45 d7 46 3e 0c 2f 9a bd
       -0.012173985 -0.03596513 0.19418056 -0.07528505
000110 39 7d 69 bb 13 70 ed bd 4f be e8 bd 38 29 79 3b
       -0.0035627617 -0.11593642 -0.113644235 0.0038018953
000120 78 74 32 be 41 e9 2e bd b1 30 d8 bd b2 4f 78 3d
       -0.17427242 -0.042702917 -0.10556162 0.06062288
000130 6f 1b 1f bd 77 20 7c 3c 9e b6 b9 3c 92 87 ab bd
       -0.038844522 0.0153886 0.022670086 -0.08375467
000140 c4 22 9d bd 15 57 1d 3e e2 82 fa 3d 3d 03 de 3c
       -0.07672647 0.1536525 0.12231995 0.027101154
000150 0c 72 a0 3d a7 fa ea bd 57 11 dc bd 21 db d4 bd
       0.07834253 -0.114735894 -0.10745495 -0.10393358
000160 bc cd d2 3d b7 4f 5f bc 1f bb 12 3b bd b6 14 bc
       0.10293147 -0.013629845 0.0022389365 -0.009076771
000170 f9 a9 05 3e cf 4f fb 3d b8 2c ba bd 04 ff 0b bd
       0.1305312 0.12271082 -0.09090561 -0.03417875
000180 5c cf 02 bc b5 ca 33 39 18 6c 2e bd 54 f2 16 3d
       -0.007984009 0.00017146285 -0.042583555 0.036852196
000190 c1 f3 2e be 52 7c 08 3c d9 ce 1f 3d 45 9e 49 3e
       -0.17085172 0.0083304215 0.039015625 0.19689281
0001a0 dc ae 0d 3e 05 ff 2c bd b7 49 b6 3d 48 bd 34 3d
       0.13836235 -0.042235393 0.08900779 0.044125825
0001b0 75 32 d9 3d 7c 97 9f 3c 01 c9 23 3d 69 6d ea 3d
       0.10605327 0.019481413 0.039986614 0.114466496
0001c0 5d 45 a0 bc 9c ed 63 be 79 31 7b 3e 94 07 41 3d
       -0.019564325 -0.2225861 0.24530591 0.047126368
0001d0 e4 47 1a bd ca ae b5 3d 16 0a cf 3c 3b 23 f5 bd
       -0.037666216 0.08871229 0.025273364 -0.1196961
0001e0 73 1e 2b 3e 7c 77 ab bd ce d8 97 bd 18 fe f4 bd
       0.16710834 -0.08372399 -0.07414399 -0.11962527
0001f0 e6 fd 79 3e 9b 79 83 3d 1e 2d 0d 3d 1a fb af bc
       0.24413261 0.06419679 0.034466855 -0.02148204
000200 ec 3b 09 bc 02 98 04 3c 24 d5 ce 3d e0 c0 2d 3b
       -0.008376103 0.008092882 0.10099247 0.0026512668
000210 b1 30 98 3d 38 ae dd bd c8 81 8e bc 7c e5 f8 3c
       0.07431162 -0.10824245 -0.017395869 0.030382864
000220 a7 2a 8c 3c 4d 07 2e 3d 45 27 45 3c d8 40 af bd
       0.017110182 0.04248743 0.012033288 -0.0855729
000230 71 c1 91 3d 11 71 6a bc 75 c5 22 3d ec 9d a2 bc
       0.07116974 -0.014309184 0.03973909 -0.019850694
000240 e9 5e d4 bc a8 29 ee bc 61 43 b8 3d 23 22 1a bd
       -0.025924163 -0.029072598 0.089972265 -0.03763021
000250 97 83 3f 3d d6 85 20 3e a7 67 9e 3d e6 c2 1d bd
       0.046756353 0.15676054 0.07734614 -0.038515948
000260 f0 bb d5 3d 2a 31 77 bd f5 d0 f8 39 9a 6d 6e 3d
       0.10436237 -0.06034962 0.0004745793 0.058209993
000270 3f f8 94 bb e6 92 32 bd 9e c0 4d bc 7d 68 01 3d
       -0.004546195 -0.043597125 -0.012558131 0.03159379
000280 a6 4c 9d 3c 29 f3 5a 3c b9 ca a2 bd d1 cd d7 3c
       0.019201588 0.013363638 -0.079488225 0.026343258
000290 70 ee 1f 3d fb 7e 9b bd 4d 0c 12 3d 19 76 dc bc
       0.03904575 -0.07592579 0.035656262 -0.026911782
0002a0 36 73 93 3d 47 6a eb 3d f1 f9 13 3e 05 ca f3 3d
       0.07199709 0.1149488 0.14450814 0.119037665
0002b0 7a ec 01 3e 0e 74 71 bc bc d5 e7 bc d2 c0 24 bc
       0.12687865 -0.014737142 -0.028300159 -0.010055738
0002c0 0c cd 6b 3d e9 6a 44 bd 3d 8f 2a bd 58 07 05 bd
       0.057568595 -0.04795352 -0.04164051 -0.032477707
0002d0 43 b9 f3 bc 89 09 29 bd 91 3f 36 3c 2d e5 85 3d
       -0.029751426 -0.04126886 0.011123554 0.065378524
0002e0 99 f4 3e bd 59 93 8b 3d 02 91 fc bb 95 e5 f1 3c
       -0.046619985 0.06815214 -0.007707716 0.029528419
0002f0 6d 56 6d bd bb ab dc bd b9 d0 74 3d 05 d7 95 3c
       -0.05794375 -0.107749425 0.059769366 0.018291006
000300 41 4a e7 bc 5c db ff 3b 93 56 67 bd 46 59 77 3a
       -0.02823365 0.007808132 -0.056479048 0.0009435605
000310 40 36 cf 3c 54 47 0d 3b 4c e0 8b bd 08 f8 e5 3c
       0.025294423 0.0021557407 -0.068298906 0.028072372
000320 f2 15 22 bc da e4 ea bb 9f 36 32 bd c2 67 81 bc
       -0.0098929275 -0.0071683945 -0.043509122 -0.015796546
000330 52 72 db bb e6 e1 ea 3a d9 92 36 bd 41 15 8e 3c
       -0.0066969777 0.0017920106 -0.04457364 0.017344119
000340 54 66 15 3d e7 5c 8c bc f0 cb 94 3c ca 75 b8 3c
       0.03647454 -0.017134143 0.018163651 0.022517104
000350 51 b8 94 bb 7b 6a c5 3c 67 16 3a bb 6b b1 b1 bb
       -0.004538574 0.024098625 -0.00283947 -0.005422761
000360 c0 ba dc bc c6 88 f4 bc e7 16 5a 3c c7 93 bd 3d
       -0.026944518 -0.029850375 0.013311124 0.09256702
000370 b1 22 aa 3b 34 5c 0e bd 21 b0 e1 bc 26 5a 8d 3c
       0.005192124 -0.0347559 -0.027549805 0.0172549
000380 e9 ef 56 3d 9b fc 75 bb 1f 44 38 bd f6 2c 0d bd
       0.05247489 -0.0037534598 -0.04498684 -0.034466706
000390 8b 72 62 3d 31 1d 82 3c 7c 59 9c 3c 1c 4d 71 bd
       0.055285018 0.01588306 0.019085638 -0.058911428
0003a0 39 70 b5 bc 83 ab c3 3c 22 0f 60 3d a6 41 b2 bc
       -0.022148238 0.023885494 0.05470193 -0.02175982
0003b0 fb a3 28 bc 46 5f 37 bd 9d c0 fb bc 24 3c 9b 3d
       -0.010293002 -0.044768594 -0.030731494 0.0757983
0003c0 99 a1 21 3d 16 1d 09 3d 62 13 b5 3c fe 55 aa bc
       0.039460752 0.033475004 0.022103969 -0.020792957
0003d0 74 59 45 3c a0 9e a3 bd bf 88 a8 bd 14 2d 81 3c
       0.012045253 -0.0798924 -0.08229207 0.015768565
0003e0 dc 70 40 3c 9b ca b3 3c 93 4c f7 bb 95 15 1d 3d
       0.011745658 0.021947196 -0.00754697 0.03835066
0003f0 d2 1b 5e bc ee 00 77 3b b0 70 42 3b 86 e3 99 bd
       -0.013556438 0.0037689763 0.0029669218 -0.075141

shared.0.bias f4 [256]
000000 75 ed 0c bc 57 68 d2 3c 1d aa 33 3d bb bc c4 3c
       -0.008601536 0.025684519 0.043863405 0.024015775
000010 e2 8d ad bb 5f 46 5f bc eb 1a 69 bb 67 5d f0 3c
       -0.0052964548 -0.013627618 -0.0035569023 0.029341413
000020 5f 92 08 3b 0f e3 7c 3b c6 67 62 bb 22 69 80 3d
       0.0020839197 0.0038587486 -0.0034546717 0.062700525
000030 d2 83 b3 bc 59 b2 31 3c c9 d8 8f 3a 67 96 df 3c
       -0.021913443 0.010845744 0.0010974641 0.027293397
000040 c3 5a df bc 00 00 00 00 43 7a 1c bd d3 a3 11 bd
       -0.027264958 0.0 -0.038202535 -0.035556626
000050 ab 7b 13 ba 5a c8 d3 3c f8 87 9d 3b af 6c 08 3d
       -0.0005626033 0.025852371 0.0048074685 0.033306774
000060 8a 4f ef 3c c1 69 3c bc 35 cd ff bc eb b7 3f bc
       0.029212732 -0.011499823 -0.03122578 -0.011701564
000070 13 23 77 3c e4 68 aa bc 11 be 91 3b e0 ac b7 3c
       0.015084046 -0.020801969 0.0044477065 0.0224213
000080 a7 21 a4 3c 59 96 48 bd bb a1 19 bc 21 47 06 3c
       0.020035578 -0.048971508 -0.009376938 0.008195669
000090 5d 3f 08 bd 21 89 15 bc cb 2e 4d bd 76 17 73 bc
       -0.033263553 -0.009126932 -0.050093453 -0.0148371365
0000a0 51 3e 18 3c e2 6f 1d bd 0f a9 f7 bc b2 8c 73 3c
       0.009292201 -0.038436778 -0.03023198 0.014865087
0000b0 64 61 5c 3c ec c4 25 3d 0a 0d 98 bb 54 97 51 bc
       0.013450954 0.040471002 -0.0046402263 -0.012792427
0000c0 1c c4 81 bc 86 94 a2 3c 26 38 a7 3c 71 fe dc ba
       -0.015840583 0.019846212 0.020412516 -0.0016860497
0000d0 67 29 b6 3c bb 6d a7 bb cb 35 b8 bc 5e 08 67 ba
       0.022236539 -0.0051095164 -0.022486588 -0.00088131975
0000e0 ac a4 6e 3c 2f ec 39 bb 97 b6 d6 3c 23 6a 8f bc
       0.014565628 -0.0028369536 0.026210112 -0.017506665
0000f0 25 6d 35 3b b7 7a ac bc ea f3 db 3c 48 24 3c 3c
       0.0027683463 -0.021054609 0.026849706 0.0114832595
000100 3c 11 4e 3c 7b 1a 22 3c 46 ec 4a bc 40 9d d9 bc
       0.012577351 0.009894009 -0.012385434 -0.02656424
000110 4d ae e1 3c 0f bb 28 bc 2b 48 30 b9 4b a6 9f bc
       0.027548933 -0.0102985045 -0.00016811553 -0.019488474
000120 49 35 82 bc 7c 62 78 3c a1 bf ba bc cd 07 60 3c
       -0.015894549 0.015160199 -0.022796454 0.013673735
000130 b3 85 73 bb ab 81 55 bc ea b2 04 bc b3 1a cb bb
       -0.0037158548 -0.0130314035 -0.008099297 -0.006198251
000140 a4 7b 41 3d 2f af 1b bb fe e9 b6 3b bc 30 93 bc
       0.047237054 -0.002375554 0.0055820933 -0.017967574
000150 a4 a3 9b 3c 3a e8 73 bc 4f f8 c1 bb ea 03 e3 bb
       0.018998928 -0.01488691 -0.0059194933 -0.006927957
000160 3f 47 b2 3c 17 09 d2 bb 2e cf 3d bc 8b aa 9c bc
       0.021762488 -0.006409775 -0.01158504 -0.01912429
000170 85 b2 bf 3c 20 62 ff bb 57 d3 c6 3c 7b 7e 41 3c
       0.023400554 -0.00779368 0.024270697 0.01180994
000180 e2 39 8a bb b8 7a 02 bd 26 00 6d bb ea 2a b5 37
       -0.004218326 -0.031855315 -0.0036163419 2.1596865e-05
000190 7c a3 4b bc 40 e9 71 bc 3a bc 30 3d 76 ff 83 bb
       -0.012429114 -0.014765084 0.043148257 -0.004028256
0001a0 21 a3 e8 bb 35 40 25 bc 02 bf 09 3c d2 d3 ef bb
       -0.0070995246 -0.010086109 0.008407356 -0.007318952
0001b0 26 05 a2 3c de 9b c0 bc 6d 19 7b bc bf 74 07 3a
       0.019777846 -0.023511823 -0.015325886 0.0005167238
0001c0 af a1 88 bc 3b f4 a3 3c ed 8f a5 3b 26 a5 3d bc
       -0.01667866 0.02001392 0.0050525577 -0.011575019
0001d0 ae e4 86 39 76 0b 47 3b 9f 8a 54 3c 01 48 b9 3c
       0.0002572885 0.0030371821 0.012972503 0.022617342
0001e0 e2 e4 ab bc 90 b9 43 ba 8d 81 e5 b9 b4 fa cc bc
       -0.020983163 -0.00074663106 -0.00043774807 -0.025021888
0001f0 d3 46 b8 3c af 04 a4 bc a9 6d 3d bb 2f 2e a5 3b
       0.02249471 -0.020021765 -0.0028904474 0.005040906
000200 7e 9d b3 3b 09 da b6 bc 60 c6 90 bb 2a 68 b9 bb
       0.005481421 -0.022320764 -0.0044181794 -0.0056581693
000210 30 50 b2 3c 66 21 47 3b 08 6b 8e bb 32 ea 4a 3b
       0.021766752 0.0030384897 -0.004346255 0.0030962345
000220 8e 19 c8 3c d7 40 53 3c 47 07 85 bc 18 1d 26 ba
       0.024426248 0.012893877 -0.016238822 -0.0006336733
000230 8f 63 2b bc 74 7e b3 bc ab d1 6a 3b 38 fa 84 3a
       -0.010460748 -0.021910883 0.0035830538 0.0010145372
000240 3e 47 21 bc 0e a6 3e 3d 82 02 22 bc 0f 41 00 3d
       -0.009843646 0.04654508 -0.009888293 0.031312045
000250 e4 b4 44 bc f1 fb f1 3b 1b 13 57 3b ef 63 3c 3c
       -0.012006018 0.00738477 0.0032817784 0.011498435
000260 20 7f a6 bc 2c d5 fc bc 65 91 4c bb 60 0e ee bb
       -0.02032429 -0.030863367 -0.0031214592 -0.007264897
000270 82 30 c7 3c e9 4b 26 b9 6e c7 7a bc 7b b2 8e bc
       0.024315123 -0.00015859272 -0.015306337 -0.01741909
000280 51 e3 55 3b f5 b1 a0 39 76 5b 85 bc 2c 0d b5 3c
       0.0032636712 0.00030650166 -0.016278964 0.022101007
000290 f4 fd 41 bb 26 82 d5 bc 0d 31 09 bc e2 8b 2c 3b
       -0.002960083 -0.026063036 -0.008373511 0.0026328494
0002a0 dd 90 5f bc 43 e8 18 bd a2 c5 9f bb 61 1b 2f 3a
       -0.013645378 -0.037330877 -0.0048758546 0.00066798
0002b0 96 c3 0b 3c 2d 85 8d bc aa 00 b3 3b 31 47 2f bd
       0.008530518 -0.017275417 0.0054627256 -0.042792503
0002c0 64 13 39 b9 41 ea 48 3c 53 93 e3 3b 71 52 91 bc
       -0.00017650198 0.012262882 0.0069450526 -0.017739506
0002d0 61 cf 98 bc 92 3d 52 bb 04 4e 21 3d 2f ac 3d bd
       -0.018653573 -0.0032080156 0.039381042 -0.046306785
0002e0 bd ba d0 3c 01 8c 53 bd 79 4a c5 3c bf 36 b3 3c
       0.025479669 -0.05164719 0.024083363 0.02187669
0002f0 91 bb 44 bb 9a 9f d8 bc 1e 89 fa 3c 90 0b f5 bc
       -0.0030019025 -0.026443291 0.03058296 -0.02991274
000300 73 d4 5a bc 33 21 71 bc 97 18 b6 3a a1 a2 a3 bc
       -0.013356316 -0.014717388 0.0013892826 -0.019975008
000310 e7 ee 03 bd 4a 5f f8 3a 74 1a 4d 3c df 79 3d 3c
       -0.032210257 0.0018949297 0.012518514 0.011564701
000320 24 c8 ab bb 8e e7 c8 3c ed 3e 93 ba 28 55 a8 bc
       -0.0052423645 0.024524476 -0.0011233963 -0.020548418
000330 76 6d 37 bc 11 c6 87 3b 16 20 fe 3a 8c ae 3a bc
       -0.011195531 0.0041434844 0.0019388224 -0.011394154
000340 23 b6 0a bc 7b 74 03 3d 48 22 87 3b b9 b2 b1 bc
       -0.008466276 0.032093506 0.0041239597 -0.021691667
000350 dd c5 bf 3a 1b 36 97 3c e0 2a fd bc bb a8 3d 3c
       0.0014631111 0.018458417 -0.030904233 0.011575873
000360 fa ed eb 3b 6a fe 5a bb 0d fe 26 3c b4 a5 55 bb
       0.0072 -0.0033415803 0.010192406 -0.0032599987
000370 2d 21 d7 bb 44 a1 7d bc 74 84 ff 3b 6b 50 c1 bb
       -0.006565234 -0.015480343 0.007797772 -0.005899479
000380 ee 6b 50 bd cb 8a ae 3c d2 51 a4 bc b6 3a 80 bc
       -0.05088418 0.021306416 -0.020058546 -0.015652996
000390 69 52 05 bd 3e 11 93 bc 47 15 64 bc d8 d8 15 3c
       -0.032549296 -0.017952558 -0.013921089 0.009145938
0003a0 12 f6 40 3c c5 b8 01 3c 76 25 02 3c cf 78 f0 3c
       0.011777418 0.007917588 0.007943502 0.029354481
0003b0 56 ab ec bb 22 63 a2 3b 73 1f e3 ba 18 71 c1 3a
       -0.0072225733 0.004955665 -0.0017328098 0.0014758436
0003c0 8a 17 2a 3c c8 e0 f3 bb c2 bf 46 3c 67 df 5a bc
       0.010381589 -0.0074425675 0.01213068 -0.013358927
0003d0 07 fe 90 3c f7 91 d7 bb 50 89 d5 3b 75 48 66 3c
       0.017699255 -0.0065786797 0.006516613 0.014055361
0003e0 7b b4 08 bd 00 00 00 00 0e 68 b6 bb 08 72 32 3c
       -0.033375245 0.0 -0.0055666035 0.010891445
0003f0 7b d2 fe 3c e4 d1 50 b9 d5 c8 d6 3c ab de ec 3b
       0.031106224 -0.00019914616 0.026218811 0.0072286925

shared.2.weight f4 [256, 256]
000000 ae d2 40 bc cf cc 5e 3e 45 7f 02 3e 7e 85 09 3c
       -0.01176898 0.21757816 0.12743862 0.008393643
000010 19 39 16 bc 2b a9 1e 3c 92 cf 2b bd 0e 60 96 3b
       -0.009168887 0.0096838875 -0.041946 0.0045890873
000020 43 b0 c5 3e 3c e9 a4 be fb 21 2c bd 46 57 52 bc
       0.3861104 -0.32209194 -0.042024594 -0.01283819
000030 97 7d d4 3d 26 84 26 bd 66 53 18 3d 53 18 0c 3d
       0.10375517 -0.04065337 0.03718891 0.034202885
000040 2e 36 c7 be 10 7c 41 bd b7 c2 e3 3e 67 53 3f 3f
       -0.38908523 -0.047237456 0.44484493 0.74736637
000050 bf b5 df bd 97 0a 04 bc 56 e5 80 3d 13 86 cc 3c
       -0.10923337 -0.008059165 0.06293742 0.024966275
000060 3d 18 ab 3e dc 48 69 3e d5 f4 4b 3e 1c 32 9e bd
       0.3341693 0.227817 0.19917615 -0.07724401
000070 46 b2 51 bd cf 80 63 3e 43 26 9e 3d 6c 34 33 3d
       -0.051195405 0.22217105 0.077221416 0.043751165
000080 61 b3 bd 3d ea 69 a0 3e 49 1b 28 bc 06 b3 d5 3d
       0.092627294 0.31330806 -0.010260412 0.10434537
000090 32 7c af bc b3 f7 8c bd 66 e9 b8 bd ed 14 86 3d
       -0.021421526 -0.068831824 -0.09028892 0.0654696
0000a0 78 8e f5 3d f5 8c 28 bd 86 1d ba 3d 9a 9f 41 3d
       0.119900644 -0.041150052 0.090876624 0.04727135
0000b0 ad db 9e 3b e2 e3 7c be 07 63 aa 3d ab 53 88 bd
       0.0048479647 -0.24696305 0.08319669 -0.066565834
0000c0 59 7f 3d 3e 34 12 af bd b2 d7 0a bd b0 e8 01 bd
       0.1850561 -0.08548394 -0.03389711 -0.03171605
0000d0 7e ad a4 bc 92 2a b8 bc 43 9f fa 3c f0 ff ad 3e
       -0.020102259 -0.022481237 0.03059352 0.33984327
0000e0 02 03 bd ba 73 0c 13 3d a0 6d cb 3d ae a4 64 be
       -0.0014420452 0.035900544 0.09933019 -0.22328445
0000f0 80 34 d3 bb 7c 2c 9e 3c f2 eb 80 3d f4 0d ff bc
       -0.0064454675 0.019308321 0.06295003 -0.031134583
000100 9e ca 59 3d 99 5e 3e 3e c1 56 20 3e 06 fc 2e 3e
       0.053171746 0.18590774 0.15658094 0.17088327
000110 c3 9f 8f 3c d3 8a 83 3e c8 66 33 be 38 2c a9 3b
       0.017532235 0.25691852 -0.17519677 0.005162742
000120 8a 60 91 3d c8 36 a3 3d 1d 9e 85 3e bc 1c 6e 3d
       0.070984915 0.07969433 0.26097193 0.058132872
000130 29 bb 17 3e 48 1e 78 bc 71 82 f8 bd 90 c6 9e 3e
       0.1481749 -0.015143938 -0.12134255 0.31010866
000140 51 c9 1c bd 6e d5 98 be d8 e2 aa 3d 08 0c 84 ba
       -0.038277928 -0.29850334 0.08344048 -0.0010074386
000150 84 82 7f 3e ad 40 b1 bb 3d f1 ec 3c 83 2a a7 3d
       0.24952132 -0.0054093213 0.028923625 0.08162405
000160 63 37 b8 3c 96 28 7d bd 38 cd e3 3d cb 7d 23 bd
       0.022487348 -0.061806284 0.11123127 -0.039914887
000170 c2 69 16 3e 5e 59 9e 3c 6d 5d 69 3d e7 ba 91 bc
       0.14688781 0.019329723 0.056973863 -0.017789317
000180 0b 0a 3c bc 72 85 c5 3e 34 e5 f5 3c 00 8b 3b be
       -0.011477004 0.38578373 0.03001652 -0.18314743
000190 1b 67 99 3d b6 76 94 bd af 7c e0 bd 35 c0 1b bd
       0.07490369 -0.07249205 -0.109612815 -0.0380251
0001a0 ca f8 a6 3c 0d d9 43 3e 2c ea 08 3d 9f 73 b3 3e
       0.020382304 0.19125767 0.03342645 0.3504915
0001b0 43 c3 c2 bb 34 dc d9 3b 58 cc 90 be 55 56 49 3d
       -0.005943687 0.0066485647 -0.28280902 0.0491546
0001c0 47 58 0f 3e fe e9 e4 bc 30 18 9c bd 18 c2 74 3c
       0.13998519 -0.027943607 -0.07621801 0.014938854
0001d0 7f 8c 35 bb 33 87 8e 3d 4a 80 28 3d 3a 9b 99 3d
       -0.002770215 0.06959381 0.04113797 0.0750031
0001e0 a0 c1 c9 bd 02 ec 9c bd 5a 74 80 bc dd 4e be bd
       -0.09851384 -0.076622024 -0.01568048 -0.09292386
0001f0 95 5a 6b bd 2f 59 d3 3d a7 a5 37 3c 4f fa af bc
       -0.057459433 0.10319745 0.011208928 -0.021481661
000200 6c 28 75 bb 97 a6 29 3d e1 b3 57 3d 39 a9 a2 be
       -0.0037408127 0.041418638 0.05266178 -0.31769732
000210 6b 1e 12 3e c5 51 8e 3d cc 95 f7 bd 97 77 12 be
       0.14269416 0.0694919 -0.12089118 -0.14303432
000220 aa 51 b7 3b 87 ac 05 be 01 4f a6 3e 41 47 ac 3d
       0.005594452 -0.13054095 0.3248215 0.08412028
000230 21 14 c0 3e c2 9c 67 3e d3 3b c9 3c 2e 33 a7 3b
       0.37515357 0.22618392 0.02456466 0.0051025366
000240 5f e1 ea bd 10 a8 05 3c 94 5b 31 bc ac fa 17 bd
       -0.114687674 0.008157745 -0.010825057 -0.037104294
000250 1f b2 8e be 3e 2a a8 3e 2f b8 9c 3d 0a 0d 0a 3e
       -0.2787027 0.32844728 0.07652318 0.13481537
000260 74 1c 9f 3e 6b c7 8d b9 6f 51 e8 bc 7c d3 e3 bc
       0.31076396 -0.00027042194 -0.028359143 -0.027810805
000270 72 30 5b 3b 65 4b 24 be a0 57 0f 3d 3a 86 bc 3d
       0.0033445624 -0.16044386 0.034995675 0.09205289
000280 4e 97 bd 3e 9b 35 80 be dd 3b 33 3d 18 10 e1 bd
       0.370295 -0.25040898 0.043758262 -0.10989398
000290 91 6f ce b9 a9 86 cc 3d 1c 7f 5d be 1d dc 26 3e
       -0.00039374505 0.09986622 -0.2163052 0.16294904
0002a0 49 a7 77 be 56 d4 60 be dd 45 1c 3f af 1e 33 3d
       -0.24184908 -0.21956 0.610441 0.043730434
0002b0 a6 d7 c2 3d aa 8d 7a be 6f 90 c8 bc 01 49 38 be
       0.09513788 -0.24468103 -0.024482934 -0.17996599
0002c0 3a 42 6b bd 97 16 82 bd b1 28 79 bd a1 df a8 3d
       -0.057436205 -0.06351965 -0.060829822 0.08245779
0002d0 b2 06 03 3d db fb 21 bb 2c 6a ab 3d 33 e3 3c be
       0.031988807 -0.0024716768 0.0836986 -0.18446045
0002e0 a2 6a a6 ba 77 6f 33 3d 3f 24 0b 3e 62 e4 30 bd
       -0.0012696574 0.043807473 0.13588046 -0.043186553
0002f0 2f f9 80 bd 47 9b a2 3d 8d 64 64 3d ea 9d 85 bd
       -0.06297528 0.07939773 0.055759955 -0.0652426
000300 e1 9b 2c 3e ad 8e 5a 3c 5d 50 4f 3d 86 65 66 bd
       0.16856338 0.013339681 0.05061375 -0.056249164
000310 2b 12 57 be 58 a0 ad 3d 64 6b f2 bd 92 eb 02 3d
       -0.21003024 0.08477849 -0.118368894 0.03196294
000320 18 93 ba 3e 23 d1 18 bb e4 ea a4 3d 9a 80 13 bd
       0.3644035 -0.0023318015 0.08052614 -0.036011316
000330 57 47 bb 3d c0 a8 25 be 32 d9 d9 bd 82 56 4c be
       0.09144466 -0.16177654 -0.1063713 -0.19954875
000340 d4 f7 15 3e db 3c 01 3a 76 8b 4f 3e 33 b0 e4 bc
       0.1464532 0.00049300276 0.20268044 -0.02791605
000350 d9 31 6f bd d6 d8 cc 3d 3b e8 97 be b4 3e 96 3d
       -0.058397148 0.10002296 -0.29669365 0.073361784
000360 0e 17 61 3d d4 bf a2 bb ec 5c 7d bc 20 38 35 be
       0.054953627 -0.0049667154 -0.015464049 -0.17697191
000370 31 33 f5 3d dd 82 4b 3c 25 ad 0b be a6 89 c3 bd
       0.119726546 0.012421337 -0.13640268 -0.09547739
000380 6a 2a 04 bf f4 20 18 bd e3 3d 85 3d 51 db 37 be
       -0.5162722 -0.0371408 0.065059446 -0.17954756
000390 00 6a 55 be 2f 5e ec bd e3 5b 90 3d 36 33 6f be
       -0.20841217 -0.115414016 0.07048776 -0.23359379
0003a0 fc f4 11 bd 73 15 b2 3d d5 be 88 3d cb 7e 6d bd
       -0.035634026 0.08695497 0.06677023 -0.057982247
0003b0 00 a9 d6 3e 2b 5f 17 bd bd e7 04 3e ef c3 34 3e
       0.41925812 -0.036955994 0.12979026 0.17652868
0003c0 f8 ab 57 3d 8d ec 9f bc 61 2d a0 bd 32 33 a0 3d
       0.052654237 -0.019521976 -0.07821155 0.07822265
0003d0 d0 6f d0 3d e3 5f 65 bc ca 63 de 3d e8 44 0e 3c
       0.101775765 -0.013999912 0.10858877 0.008683421
0003e0 fa a5 15 be f3 18 bc 3c 27 ef 45 3e 46 c8 1c bc
       -0.14614096 0.022961115 0.1932951 -0.009569233
0003f0 52 37 44 be b5 2a e7 3d 98 1d 3e 3d 0d d0 f9 bd
       -0.19161728 0.112874426 0.04641494 -0.12197886

shared.2.bias f4 [256]
000000 40 ab 66 3b 90 e3 f9 bb c7 4f dc 3c d6 d1 2b bc
       0.0035197288 -0.0076260045 0.02689351 -0.0104870405
000010 b2 97 d9 3c bd 96 70 3c 15 3d 72 bc 22 74 e8 bb
       0.026561592 0.014684376 -0.014785071 -0.0070939222
000020 90 9a 9a 3c 84 6d 3d 3d 4d e0 9f 3c a2 8c b1 bb
       0.01887253 0.04624702 0.019516135 -0.005418376
000030 bf dc 49 3d b6 41 e3 3c f3 5f c4 bb 57 45 12 bc
       0.049282786 0.027741294 -0.0059928834 -0.008927665
000040 b6 63 1e bb a9 ce 6a 3d 72 d6 f7 3b 11 c1 af 3c
       -0.002416832 0.057325993 0.0075634057 0.021454366
000050 a9 3a 30 3c 2a 00 9b 3b 50 3e b9 3c df 1e 75 bb
       0.010756173 0.004730244 0.02261272 -0.0037402434
000060 a8 8e 2b 3d c4 45 73 3d a7 e6 15 3d 3d f4 e3 3c
       0.041884094 0.059392706 0.03659692 0.027826423
000070 dd 69 08 3d 60 8d a3 bb 5e bd 85 bc e3 fa 3f 3d
       0.033304084 -0.0049912184 -0.016325649 0.046870124
000080 55 fd 00 3d 93 f1 8f bc c8 03 85 3c 41 7d 14 bc
       0.031491596 -0.017571246 0.016237155 -0.009063066
000090 b9 08 0f 3d cd 5b ed bb 7b 66 68 bc 8f c1 a1 3c
       0.034920428 -0.0072436095 -0.0141845895 0.019745616
0000a0 9e b5 cb bb d0 bf 1c 3d 71 f9 03 3d 5f 87 80 3d
       -0.006216719 0.038268864 0.032220308 0.0627582
0000b0 e8 57 42 3c f7 95 37 bc a0 72 fb 3b 58 06 0e bc
       0.011861779 -0.011205188 0.0076735765 -0.008668505
0000c0 d5 f7 fd 3c 62 2f 9d bb 28 54 07 bd 88 f8 12 bc
       0.031001965 -0.0047969082 -0.033039242 -0.008970387
0000d0 98 07 22 3d 21 0c 48 3c ec 92 13 bd dc 3c 09 3d
       0.039558023 0.012209923 -0.036028787 0.033505306
0000e0 3e 5c 7d bb 0b cf ba 3c 0d 4b 93 3b 4c 6e 54 3d
       -0.0038659717 0.022803804 0.0044950307 0.051863
0000f0 33 a8 15 3d 53 57 88 3c 76 bf 05 3d d7 ca 16 3c
       0.03653736 0.016643202 0.032653295 0.009203634
000100 5d 25 10 bc e9 84 da bb 10 84 73 3c e1 48 84 3c
       -0.008797971 -0.006668676 0.014863029 0.016148033
000110 a4 f5 07 bc 78 04 6b 3c b6 c2 99 bb 9c 0d 03 3c
       -0.008298311 0.014344327 -0.004692401 0.00799885
000120 2d e7 8d 3d dd 8e f4 3c 67 23 b7 bb 35 c1 4b 3b
       0.06928859 0.029853279 -0.005588937 0.0031090502
000130 96 ce 09 3d 7d 6a f7 3a 7e d3 f6 bb b5 05 c7 bb
       0.03364428 0.001887634 -0.007532536 -0.0060736784
000140 28 b6 4f bc d8 a2 24 3d 80 28 50 3d e6 f7 6a 3d
       -0.012677707 0.040194362 0.050819874 0.05736532
000150 5a 2c 44 3d 1a 2a 1b 3d 87 83 58 bc e6 96 1f bb
       0.04789386 0.037881948 -0.013214952 -0.0024351417
000160 f7 87 f8 3c 45 d7 2f 3d 9c 63 44 bb 72 6e 7c bb
       0.03033827 0.042929906 -0.0029966598 -0.003851798
000170 81 8a 35 3c d1 94 bb bb 17 18 1c bb ba 83 1e bd
       0.011080385 -0.0057245274 -0.002381807 -0.038699843
000180 23 8d 81 bc b2 96 96 3b 9e 2e 41 bc 0b 69 08 bc
       -0.01581437 0.004595601 -0.0117909 -0.008325825
000190 53 20 43 3d 57 23 8b 3d 86 4a b1 3c 65 a7 0d 3c
       0.04763825 0.0679385 0.02164198 0.008645867
0001a0 00 00 00 00 c4 3e d3 3c d8 d0 50 3d 55 5a 2f bc
       0.0 0.025786765 0.05098042 -0.010702689
0001b0 81 50 01 bc 73 fb 24 bc 19 5c b7 3c bd 5f 92 3c
       -0.007892729 -0.010069716 0.022382783 0.017867917
0001c0 c0 28 90 3c bb 4f 53 bd be 7b 60 3d 0d 25 20 bb
       0.017597556 -0.05158971 0.05480551 -0.0024436146
0001d0 a8 44 f6 ba f2 9f a7 bb 30 aa 12 3b 00 1b 74 bb
       -0.0018788772 -0.0051155025 0.0022379272 -0.0037247539
0001e0 08 8e e9 3c b8 f0 0c 3d 3a 28 03 bd a1 89 04 3d
       0.028510109 0.034409255 -0.032020785 0.032357816
0001f0 0d 7e 78 bc 96 2a a3 3b d4 ce 48 bb f3 09 1c bb
       -0.015166772 0.004979442 -0.0030640857 -0.002380964
000200 7a 32 28 3d 75 b5 eb bc 48 4a 57 bc 96 f2 bc 3c
       0.041063763 -0.028773049 -0.013140269 0.023064893
000210 39 84 a2 bb 84 d8 84 bb e9 27 1e bc 0c 28 b3 bb
       -0.00495961 -0.004054131 -0.00965307 -0.0054674204
000220 00 00 00 00 08 5e fc 3c 19 e1 6f 3a 09 55 a6 bb
       0.0 0.030806556 0.00091506686 -0.005076055
000230 ee 0b ad bc b5 9e 22 3c 85 c3 9d 39 3b c8 0d 3d
       -0.021123853 0.009925534 0.00030091047 0.034614783
000240 c2 4d 17 bc e9 90 02 3d c1 39 d5 3c 1c 8a f2 3c
       -0.0092348475 0.03187648 0.026028516 0.029606871
000250 ee e2 e6 bb 06 bc 1e bc 76 69 94 bb 99 f0 6d 3d
       -0.007046095 -0.009688383 -0.0045291735 0.05809078
000260 02 4e 09 3d 53 6e de bb 02 54 71 bb 7a f3 14 bc
       0.03352166 -0.006788054 -0.0036823754 -0.009091252
000270 b2 b7 33 bc 63 40 19 3d 2b 57 46 3d 00 00 00 00
       -0.010969089 0.03741492 0.048422974 0.0
000280 0f 39 b1 3c 80 b5 90 3d 29 66 8b bb 67 71 15 3d
       0.021633653 0.070658684 -0.004254122 0.036485102
000290 c9 00 0d 3c b2 e1 2d bc 6a 1c a5 3c 5a fd ee 3c
       0.008606144 -0.010612892 0.02015515 0.029173542
0002a0 fd 01 47 3b 59 9e c5 3b 44 0b a2 39 57 78 5f b8
       0.0030366175 0.0060308394 0.0003090744 -5.327942e-05
0002b0 73 23 ce 3b 3e bd 58 3c ce dc bf bb cf fa 7e 3c
       0.006290847 0.013228713 -0.0058551794 0.015562727
0002c0 b4 a6 1d 3c f4 71 e4 bb 89 a8 19 3d 00 00 00 00
       0.009622265 -0.006971592 0.037514243 0.0
0002d0 46 cb 95 3c 9c b6 4d bc 2c 93 17 3d 39 c5 bf bd
       0.018285405 -0.0125557445 0.03700559 -0.09363789
0002e0 fa ba 04 bc 50 04 35 3c c4 c3 89 bc 49 33 4c 3d
       -0.008101219 0.011048391 -0.016816981 0.049853597
0002f0 01 0c ac bb 00 00 00 00 0c 99 85 3b 97 e7 27 bc
       -0.0052504544 0.0 0.0040770825 -0.010248086
000300 27 e9 56 3c a5 a7 df 3c 67 57 ea 3c 8d 29 aa 3c
       0.013117111 0.027301619 0.02860613 0.020771766
000310 0f 50 20 bc f0 1b 0e 3d 0e 73 43 bb a2 28 2f 3d
       -0.009784712 0.034694612 -0.0029823217 0.04276336
000320 ac a0 1f 3d df e3 52 bc e5 61 05 3d 1e ee 91 3c
       0.038971588 -0.0128717115 0.032564063 0.017813738
000330 f1 82 0f bd 1f a4 34 3b 1b 1b 37 bc dc 0e 75 3c
       -0.035036985 0.0027563644 -0.011175896 0.014957156
000340 43 25 51 3c ec a7 b8 3c 37 59 92 bc 59 59 ca 3c
       0.012765232 0.022541009 -0.017864807 0.024700807
000350 23 bf fc ba 43 f6 32 3b 48 37 8a 3d 42 be 68 3d
       -0.0019283037 0.0027307428 0.06748825 0.05682207
000360 04 08 3b bc 3a 50 3d bc dd ac 39 bc d5 0b 45 3c
       -0.011415485 -0.011554772 -0.011332718 0.012026747
000370 19 2e 9d 3b 14 c9 48 3d 02 05 33 bb 4b 99 8f 3b
       0.004796755 0.049019888 -0.0027316217 0.0043822876
000380 09 9f 57 bc 5f 10 00 3d c6 03 0f bc df cd 35 bb
       -0.0131604755 0.031265613 -0.008728927 -0.0027741117
000390 81 f3 21 bc 35 c8 8f 3c 98 f2 bc bb 9b 2c 19 3d
       -0.009884716 0.01755152 -0.005766224 0.037396055
0003a0 93 2f 22 bc 76 ef 85 bb 4f b8 3e bd e4 04 0d 3d
       -0.009899038 -0.004087384 -0.04656249 0.034428492
0003b0 e2 aa af 3c a5 1f 50 39 35 b8 94 3d 42 9a 43 3d
       0.021443788 0.00019848214 0.07261697 0.047754534
0003c0 90 fe 19 3d 84 2b 9a 36 73 7a 8d bb d1 b2 51 3d
       0.037596285 4.5946235e-06 -0.0043175756 0.051195923
0003d0 9a 58 68 3c ac df e6 3c 53 22 9e 3c 10 1c ee 3c
       0.0141812805 0.028182827 0.019303476 0.029066116
0003e0 2d 51 ba bb e6 b3 60 3c f4 90 65 bc da 11 d4 3b
       -0.0056859464 0.013714766 -0.01401161 0.0064718546
0003f0 0d 84 d8 bb a7 5f 08 3d f4 bf ec 3c d7 4f 1e bc
       -0.0066075386 0.033294346 0.028900124 -0.00966259

skill_head.weight f4 [3, 256]
000000 c5 c5 67 be 57 52 19 be 62 b5 90 be 98 cd c9 bc
       -0.22634037 -0.14972816 -0.28263384 -0.024634168
000010 62 7f a1 bd 86 9a a0 bd 12 4c e1 bd f3 b6 d1 3b
       -0.078856245 -0.07841973 -0.110008374 0.006399983
000020 b7 b2 01 be b4 53 77 be e0 03 bb bd 94 22 2f be
       -0.1266583 -0.24153024 -0.091315985 -0.17103034
000030 09 eb f8 bd 59 47 13 be b4 c0 b0 bd 5f 92 ab 3c
       -0.121542044 -0.14382686 -0.08630505 0.020943819
000040 7e 9a e0 3c 46 2a 6e bd ee 75 68 be 77 c6 66 be
       0.027417418 -0.058145784 -0.22701237 -0.22536646
000050 8d c1 79 be be 54 58 be 12 66 bc bd d7 70 b6 bc
       -0.2439024 -0.21126077 -0.09199156 -0.022270603
000060 1f da b6 bd 62 d4 8f bd 9f b9 fb bd 86 6c fe bb
       -0.08928322 -0.07022931 -0.12291264 -0.007764402
000070 16 58 15 be e3 5a 86 3c 90 5b df bd ab af 22 be
       -0.14584383 0.01640076 -0.10906136 -0.15887325
000080 ae e0 78 bd 66 f1 c5 bc 64 ca db bd fc 3d a3 3c
       -0.060761146 -0.02416296 -0.10731962 0.019927017
000090 48 f3 10 be 30 b5 66 be aa 33 73 be d2 a9 5f bd
       -0.14155304 -0.22530055 -0.23750177 -0.054605313
0000a0 90 6b 07 bc 1a 26 08 be 0f 83 d1 bd 1c fd 2e bd
       -0.008265391 -0.13295785 -0.102300756 -0.042721853
0000b0 52 b7 8a be 71 c4 1f be 4b e4 0b be 8a af 8b 3c
       -0.27092987 -0.1560228 -0.13661306 0.017051477
0000c0 bd 99 1c be 4f ee c9 3c 13 17 a1 bd 51 20 14 be
       -0.15293022 0.024649767 -0.07865729 -0.14465453
0000d0 ec ca 56 bd 7f 9b 4d be b7 54 9b bd 19 19 3e be
       -0.052439615 -0.20078848 -0.075845174 -0.18564261
0000e0 20 56 3d be 5e b5 09 be e0 86 7e be 47 1d b1 39
       -0.18489885 -0.13448092 -0.24856138 0.00033781884
0000f0 6b 72 26 be c7 ad af bd 1d d7 10 be 8e 3c 3e bd
       -0.16254584 -0.08578067 -0.14144559 -0.04644447
000100 cb 69 4d bc 31 7b f6 3b cc 0e 47 be 6d 1b 6a bc
       -0.01253743 0.00752201 -0.19439238 -0.014288765
000110 5e d7 86 3c 2f 1e cb bd 96 d6 56 be 29 67 82 be
       0.016460117 -0.099178664 -0.20980296 -0.2546933
000120 66 64 b9 3b e9 b8 71 3a dd be ee bc 32 b5 3b be
       0.0056577204 0.0009220974 -0.029143745 -0.1833084
000130 93 da 76 be 98 a0 c2 bc 78 21 38 be b9 b8 de 3a
       -0.24106817 -0.023758218 -0.17981517 0.0016992308
000140 cb e1 93 3c 58 37 8d be 8f a2 00 be ef f5 86 be
       0.018052002 -0.27581286 -0.12562011 -0.26359507
000150 fa 76 1a be 60 b0 2d be e8 bf 2e be 13 63 29 3d
       -0.15084448 -0.16961813 -0.17065394 0.04135425
000160 91 23 2c bd d3 7f b9 bd fa 89 2c 3d 86 fe 5f bd
       -0.042026106 -0.09057584 0.042123772 -0.05468609
000170 a6 0b e7 bd ce b0 32 be 43 59 12 3d f2 c2 6d be
       -0.11281519 -0.17450258 0.035729658 -0.23218897
000180 b0 5d ce bd d0 e2 7d be 28 0a a6 3c 1c 9c c1 bc
       -0.10076463 -0.24793553 0.020268515 -0.023634009
000190 72 eb c7 bc 42 2d 47 bd 23 67 a9 be 5f ac 3f bd
       -0.024404261 -0.048627146 -0.330865 -0.046795245
0001a0 a5 1c 07 3d e2 0a ba b9 ef 31 06 be 81 16 12 3b
       0.032986302 -0.00035484793 -0.13104986 0.0022291245
0001b0 e9 cd 9a bc 73 c3 a5 bb 09 bb d0 bd a1 24 fd bd
       -0.018897014 -0.0050586998 -0.10191924 -0.12360502
0001c0 a6 c5 6b be df 7d 18 be 4b 90 27 be c5 cf 25 be
       -0.23024616 -0.14891766 -0.16363637 -0.16192539
0001d0 68 07 04 3d a7 f6 19 be f1 86 3b be 6d 3c 6d be
       0.032233626 -0.15035497 -0.18313195 -0.23167582
0001e0 8c 1f b0 bd 48 c9 06 3d c6 a4 84 bd be 06 eb bd
       -0.08599767 0.0329068 -0.064767405 -0.11475895
0001f0 cf 25 73 bc 7c 20 81 bd 85 8a 50 bd ac b1 1f 3d
       -0.014840557 -0.06305024 -0.050913353 0.0389878
000200 21 d2 82 be 00 32 a0 bd e4 61 3e be 70 36 6d be
       -0.2555094 -0.07822037 -0.1859203 -0.23165298
000210 95 2c 6a bd 22 88 e7 bb 4b a1 05 3d 73 dd bd bc
       -0.057171423 -0.007065789 0.032624524 -0.023176884
000220 35 11 99 3c 85 00 1f bd 3b f4 1e be 47 2f 22 be
       0.018684963 -0.038818855 -0.15522854 -0.15838347
000230 9a 48 85 3d 56 ed c4 bd 96 5d 5e be d6 50 93 bd
       0.06507988 -0.09615581 -0.21715388 -0.071931526
000240 aa 58 0e 3d 36 2f 5c 3c 57 2a 80 be 55 28 f7 bd
       0.034752525 0.01343899 -0.25032303 -0.120682396
000250 4d 9e 45 bd bf e9 71 bc 86 80 20 bd 3b 6a d3 3c
       -0.04824667 -0.014765202 -0.03918507 0.02580749
000260 7d 43 74 be 4d 37 6f 3c 6a 56 48 3c a7 0d d1 3c
       -0.2385387 0.014600587 0.012227634 0.025519205
000270 b6 0a 4f be 8c 19 51 bd ef 2a 11 be 6e 4b 13 bd
       -0.2021893 -0.051049754 -0.14176534 -0.035960607
000280 08 5d e0 bb 6f c5 e8 bd b7 9a 6b 3c d4 55 6a be
       -0.0068470277 -0.113657825 0.014380149 -0.22884303
000290 c6 e2 b0 bd 0e 81 c2 3c 31 ca 2e be 21 48 18 bd
       -0.086370036 0.023743179 -0.17069317 -0.037178162
0002a0 4b a0 eb bd d1 18 ed bd cb d3 a4 bd 19 0b 2c be
       -0.11505183 -0.11576999 -0.08048209 -0.16801108
0002b0 9c 13 41 be 95 74 53 bd 53 62 2e be 56 b1 87 be
       -0.18855137 -0.051624853 -0.17029695 -0.26502484
0002c0 63 83 93 bd 21 8b d8 bd ef b3 02 be 41 10 e6 3c
       -0.072027944 -0.10573412 -0.12763952 0.028083922
0002d0 62 a0 81 bd 98 23 39 bc d7 09 30 be c6 23 3c be
       -0.06329419 -0.01129999 -0.17191254 -0.18373021
0002e0 2e aa 46 bd 60 e5 58 be 33 29 4a be 90 3a 36 be
       -0.04850214 -0.2118125 -0.19742279 -0.17795777
0002f0 ba ed 3c 3d 44 df 00 3c e0 f7 95 bd fe 12 83 be
       0.04612515 0.007865731 -0.07322669 -0.25600427
000300 c3 3e c1 bc eb 58 64 be 38 18 1b be c2 40 62 bc
       -0.023589497 -0.22299545 -0.15145957 -0.013809385
000310 fc fe 05 3d 78 89 58 be 5c ec d9 3c 90 ae 52 be
       0.032713875 -0.2114619 0.026601963 -0.20574403
000320 8e 5a 61 be 86 0a 02 bd 7e de 0b be 7e 05 c6 3b
       -0.220072 -0.031748317 -0.13659093 0.006043135
000330 ed 2b 38 be bb 99 60 be 43 cc 1b 3d 28 f2 3e be
       -0.17985506 -0.21933644 0.038036596 -0.18647063
000340 fb 4a 45 be e1 f5 5e bd 71 aa e6 3c c2 0f af bd
       -0.19266884 -0.054433707 0.028157445 -0.085479274
000350 9d 87 8e be 88 e9 f2 bd 6f b9 0c be 9b e4 85 bc
       -0.2783784 -0.11860949 -0.13742612 -0.01634436
000360 9c a7 c0 bd 44 d7 72 3d ce 84 06 bc 2e 9f e5 bd
       -0.09406969 0.059287325 -0.008210374 -0.11212002
000370 c5 cf ce bd 7b f0 84 be 85 df 43 3c fe 36 cd bd
       -0.10098223 -0.25964722 0.011955147 -0.100202546
000380 97 7f 2b bd c4 2e 6a be 55 ef 95 be a3 67 a7 3b
       -0.041869726 -0.22869402 -0.29284158 0.00510879
000390 e9 b4 d0 bd c8 bf 26 be 60 ee 36 be 04 b2 02 be
       -0.10190756 -0.16284096 -0.1786437 -0.1276322
0003a0 43 e1 8a bc 3c ab 10 3d 6e 71 23 be 77 a0 a4 be
       -0.016953116 0.03531955 -0.15961239 -0.32153675
0003b0 88 b8 4f bd 6f 28 3e be c9 aa 2c bd 83 5b 04 3c
       -0.050713092 -0.18570112 -0.04215506 0.008078459
0003c0 0f 10 b0 bd c3 29 78 be 47 72 8e 39 af 15 e7 bd
       -0.08596813 -0.24234681 0.00027169494 -0.11283433
0003d0 dd 59 56 be df f0 74 be 4f 21 22 bd 5e 4c be bc
       -0.20932718 -0.2392001 -0.039582547 -0.023229774
0003e0 01 32 e4 ba 0f e1 09 be cf 62 41 bd 2d 6d c3 bd
       -0.0017409922 -0.1346476 -0.04721337 -0.09542308
0003f0 77 90 86 bb 5d a3 84 be 4f a6 4d bd 6d 48 d1 bd
       -0.004106577 -0.25905886 -0.050207432 -0.10218892

skill_head.bias f4 [3]
000000 bc 03 f3 bd 23 7a ff 3d 6d fa b6 bd
       -0.11865947 0.124744676 -0.08934484

param_head.weight f4 [6, 256]
000000 0c 0a 90 3c e4 9f f8 3d 4d cc e0 3d 69 96 97 3c
       0.017582916 0.12139872 0.10976467 0.018504338
000010 15 a5 0e bd 05 0c c0 bb 24 ef b3 3d 31 70 9e bd
       -0.034825403 -0.005860808 0.08785847 -0.077362426
000020 fa 7d 16 3c 72 7e 6a bd b1 a2 8d b9 4f 3b 90 3d
       0.009185309 -0.057249494 -0.0002701483 0.07042562
000030 1f 4a e3 3c 6b 0c 83 bc 36 94 ac 3c f2 3c a1 bd
       0.027745305 -0.015997132 0.021066766 -0.078729525
000040 4b 4b 22 3d 00 75 7f 3c 3f 59 4f 3d 92 1e 04 3e
       0.039622586 0.01559186 0.05062222 0.12902287
000050 0d fa 23 3d 41 9b 71 3d 66 1b 68 3c e8 22 44 bc
       0.04003339 0.058985952 0.014166689 -0.011971213
000060 21 ef d5 3a a4 ed 74 bc 4d 56 6d 3d 8d 40 23 bd
       0.0016321876 -0.014949236 0.05794363 -0.039856482
000070 53 b3 b6 3b e9 69 8a 3c 4c f0 47 3c ce cb ef bb
       0.0055755763 0.016896205 0.012203287 -0.0073179966
000080 19 18 0c bd 62 ad cf bc 95 76 ef bc f6 3a 14 3d
       -0.03420267 -0.02535123 -0.029231349 0.036189042
000090 e8 d2 3f 3d 97 f6 ea 3d 20 bb af 3c b3 6b dc 3c
       0.046831995 0.114728145 0.021451533 0.026906824
0000a0 71 4e cd bb 76 ab 5d 3d f4 88 f8 bb ee 28 15 3d
       -0.0062654545 0.054118596 -0.0075846855 0.036415987
0000b0 6e b9 73 bc 06 34 0e 3e 10 af df 3c 39 01 0f bd
       -0.014875753 0.13887033 0.027305156 -0.034913275
0000c0 f8 05 0e 3d 2a 4a a9 3c 04 35 6c 3d bc d3 c6 3d
       0.03467366 0.020665247 0.057667747 0.09708354
0000d0 21 d6 20 3d 62 cb 09 3d 43 7e c4 bc 05 15 8a 3b
       0.03926671 0.033641227 -0.023985988 0.0042139315
0000e0 41 3b f6 3d 82 ef dd 3d 3c ba a1 3d 71 de f2 3d
       0.120230205 0.10836698 0.078968495 0.118588336
0000f0 53 92 ed 3d 15 7d 32 3d 2a 8d 66 3d 96 79 1a bc
       0.11600175 0.04357632 0.05628697 -0.009428402
000100 87 12 ba 3b d3 41 94 3c 1d 15 57 bd 8c 8d 9c bc
       0.005678478 0.018097794 -0.05251037 -0.019110464
000110 b5 30 da bb 67 68 b0 3d 90 78 df 3d 13 49 c3 bc
       -0.0066586384 0.08613663 0.10911667 -0.023838555
000120 bb 75 a5 bc ec d1 5e bc 0c 25 d3 b8 6e b8 90 3c
       -0.02019774 -0.013599854 -0.000100681646 0.017666068
000130 43 71 1c 3e 2c a7 07 3c 82 18 90 3d 3e 66 c7 ba
       0.15277581 0.008279603 0.070359245 -0.0015212966
000140 00 2f 46 bc 9b 35 d8 3d 37 39 31 3d f3 4b da 3c
       -0.012096167 0.105570994 0.043267455 0.026647544
000150 3e a6 26 3d 28 81 8a 3d 3d 44 31 3e 07 cd 9d 3d
       0.040685885 0.06762916 0.17311187 0.077051215
000160 f0 7f 3f 3d f7 41 80 3d 9e f9 92 3c 08 6e c0 bb
       0.04675287 0.06262582 0.017941292 -0.0058724917
000170 f9 55 da 3d d7 be b3 3d a1 a8 9c 3d 94 81 12 3d
       0.10660929 0.08776634 0.07649351 0.035768107
000180 32 b7 d6 3d 87 c2 c1 3d 4a 02 74 3c e3 7c 93 3a
       0.104841605 0.09460931 0.014893124 0.0011252429
000190 cd ad f5 bc 78 8b 38 bd f8 99 df 3d ff a5 e1 bc
       -0.029990101 -0.045054883 0.10918039 -0.027544973
0001a0 ec 2d 1e bc fe 48 37 bd e6 6b e3 3c b1 db ae bb
       -0.009654503 -0.044747345 0.02776141 -0.005336248
0001b0 65 43 c8 3c 3e 2e f8 bc 12 fb 8e 3d ab c0 26 3c
       0.024446199 -0.030295487 0.069814816 0.010177772
0001c0 af da e1 39 fe 99 29 bd 08 76 9f 3d e7 6e 00 3d
       0.00043078276 -0.041406624 0.077861845 0.031355765
0001d0 a8 2d a7 3c 68 90 fc 3d de ab 5c 3d 8d af 9c bc
       0.020407513 0.12332231 0.053874843 -0.019126678
0001e0 94 c4 a5 3c 64 e4 d5 3c 0b 81 a2 bd 5f 4d 66 3c
       0.020235337 0.026109882 -0.07934769 0.014056533
0001f0 80 21 6d 3c 13 7f a2 3d cf ea da 3c e8 d7 40 3d
       0.014473319 0.07934394 0.026723294 0.047080904
000200 98 6c 7b 3c aa 0d 93 3d 12 26 01 3e e3 db 6a 3d
       0.015345715 0.071803406 0.12612179 0.057338607
000210 5c 8d 69 bc a8 33 05 3c 53 85 c0 3c 70 95 97 bc
       -0.014254894 0.008129992 0.023501074 -0.018503875
000220 24 81 6f 3b 02 da bd bc 34 29 7b 3d 5d 7c e2 3d
       0.003654548 -0.023175243 0.06131859 0.11058877
000230 34 ed a6 bc 72 98 8a 3d 4a 27 d2 3d 1c d9 52 3d
       -0.02037678 0.06767358 0.102614 0.051476583
000240 92 96 27 3d 2c 64 98 bd ef 4d d5 3d ae 4c 50 bc
       0.04091508 -0.07440981 0.10415255 -0.012713594
000250 cb 61 16 3d 0b 62 3a 3d ea 1a e0 bc d6 ec 47 3c
       0.036714356 0.045503657 -0.027356584 0.012202462
000260 52 5c af 3d f3 52 3a bc 30 0b 6d 3c 0d 54 eb 3c
       0.085625306 -0.011372316 0.014467999 0.028726602
000270 42 88 18 3d b4 25 91 39 d8 57 7b 3d bd 80 2c 3b
       0.03723932 0.00027684646 0.06136307 0.0026321851
000280 75 ef 16 3b 35 05 a2 bb 3e ef 02 bd d8 37 95 3c
       0.002303091 -0.0049444684 -0.03196644 0.018215105
000290 7a 58 a0 bb 2c 11 13 bc e5 33 2a 3d 72 3d 42 3d
       -0.0048933597 -0.008976262 0.041553397 0.04742188
0002a0 ec 25 30 3d ad 64 0d 3d b7 c1 96 3d 91 b7 a0 3d
       0.043004915 0.03451984 0.07361167 0.078475125
0002b0 5e 4c 76 3d 98 26 06 3b 11 f7 c6 3c 17 eb bf 3d
       0.060131423 0.002046978 0.024287732 0.09371012
0002c0 61 54 97 bc 37 97 8a 3d bf 0b b3 3d 34 68 92 3c
       -0.018472852 0.06767123 0.08742475 0.017871954
0002d0 10 ed 18 bd 67 89 a5 bc 07 1a 54 3d 4a ba ad 3d
       -0.037335455 -0.02020712 0.051782634 0.084827974
0002e0 1b 91 a3 bd e0 4f cf 3c 72 c3 5f 3c 2f 0e 00 3e
       -0.07986661 0.025306642 0.013657438 0.1250541
0002f0 67 92 6a 3c 30 17 53 3c 5c 8b 1e 3d 1f b7 23 3d
       0.014317132 0.012883946 0.038707122 0.03996956
000300 79 63 e6 bb cd 70 de bc 1f b5 15 3d b4 b3 31 bb
       -0.007030901 -0.027153397 0.036549684 -0.0027115168
000310 bb 63 0f 3d 73 d6 a1 3d 59 dc ab 3c 98 67 1c bd
       0.03500722 0.07902231 0.020979093 -0.038184732
000320 32 6a b2 3d e6 c4 21 bc ab 96 6b 3d 41 d3 30 3c
       0.087116614 -0.009873604 0.057516735 0.010792554
000330 bf 52 13 3d f1 44 38 3d 38 d4 d0 bc f8 cd 08 3c
       0.035967585 0.044987623 -0.025491819 0.008349888
000340 c0 0a b0 3d ac 14 1b bd b7 f3 c5 bb 5d b1 88 3d
       0.085958004 -0.03786151 -0.006041016 0.06674454
000350 3e 10 f7 3d 19 1d 84 3d 36 7a a4 bc aa 6b 02 3d
       0.12063645 0.064508624 -0.020077806 0.031840958
000360 c3 11 ca 3d 55 cb de 3c ed 20 06 bd 49 c7 6c 3d
       0.09866669 0.027196566 -0.032746244 0.05780724
000370 5a c5 38 3d 23 ce e9 3d b2 ae 7a 3c 29 9e 0e 3e
       0.045110084 0.114162706 0.01530044 0.13927521
000380 28 8f da 3c 61 3f 56 bc b4 11 61 3c 4a af 0c bc
       0.02667959 -0.013076634 0.013737131 -0.008586714
000390 2a e1 2e 3d 02 0d 88 3d be 54 31 3d bb 69 17 3d
       0.042695202 0.06643106 0.043293707 0.036966067
0003a0 f2 f7 02 bd c5 db 99 bc ab 6d d4 3c 09 45 73 3c
       -0.03197474 -0.018781552 0.0259312 0.014848002
0003b0 ae f7 f4 3d f6 70 3d bc d8 f7 19 3d 23 0d ff 3c
       0.11961304 -0.0115625765 0.037589878 0.031134194
0003c0 23 b1 8c 3c b9 0c 8f 3c 4b 22 53 3c d3 ed 31 3d
       0.01717431 0.017462121 0.012886594 0.043439697
0003d0 f3 56 00 bc ea 20 d0 ba f5 d9 72 3c d2 1b ae 3c
       -0.00783323 -0.001587895 0.014822473 0.0212535
0003e0 08 cc 97 3d 4b 2d a6 3c 53 ea 82 3c 36 63 be 3c
       0.07411963 0.02028527 0.015980875 0.023240667
0003f0 2f 22 3b bd 9d 72 7b 3d 35 e9 41 3d e4 4e ae 3d
       -0.045686897 0.0613886 0.047341544 0.08511141

param_head.bias f4 [6]
000000 68 1e f5 3c 59 03 62 3c a4 ed ca 3c 26 1f dc bb
       0.029921725 0.013794743 0.024771519 -0.0067175804
000010 81 b1 26 3d 9a 9c e1 bb
       0.040696625 -0.0068851234
