models/maddpg_best/comm.pth (torch, 24675 bytes, 7 tensors)

msg_encoder.0.weight f4 [64, 32]
00000000: 3999 983d cc21 0e3e 3509 1dbd 5129 093e
00000010: 7b7a e9be fc5e 31bd 0991 b2bd 98bf f5bd
00000020: 9c14 8bbd f69f 3cbd 9e51 3abd 8fe5 93be
00000030: f682 b93c adc9 843d 5f23 d6bd f658 82bd
00000040: f993 1b3e 62c5 96bd 76b3 ee3c 5fa1 a5bc
00000050: 9ef1 29be 203d 0fbe 5d44 973e d7d2 6b3e
00000060: 1850 df3d 9dc1 173e 8aca 82bd cb74 74be
00000070: f6f7 d93b 7931 843d 7c6d a23e c0a9 303e
00000080: e5a1 a2bc 7325 7f3e 958c a03c c5d6 c83d
00000090: fff7 d33d c4c0 fa3c 9d59 55bd 6cd2 4d3e
000000a0: 5247 c63c e84d 2cbd 90a8 debd cdb1 6f3e
000000b0: f4eb a3bc 72e9 d63c 29b0 2d3e 9d8a 18be
000000c0: 3320 c73d 9138 f43d e782 90be 601a e53d
000000d0: ca22 8c3e 9582 2abe 8820 f83d 3f06 eb3e
000000e0: b94d eebe cfa1 8abe c9b3 8e3c a161 6a3e
000000f0: 3c34 48be ff16 db3c 93da e2bd da28 233e
00000100: 3049 cf3d b0ec 0f3e 0b0c 3e3e 2c88 663d
00000110: b4ac 0abc 4d09 e0bb 26bb d8bc c1b9 7f3c
00000120: a831 85be da23 bfbc 6393 4e3b 5c1a babd
00000130: 6263 593e 85ad 113e 3116 e13b cfb0 9a3b
00000140: 2d7d 2d3e 6eae 11bd 00e9 043f ea1c 703e
00000150: a212 3bbe f13c 853e 8b92 1d3c c6c0 95be
00000160: 5240 7d3d ddcd 1b3e 7b07 2bbc dc71 89be
00000170: 7337 313e 4383 91bd 067c c4bb 2ee0 523e
00000180: a8ad 663d 615d 253e 517f 59be 070f 203d
00000190: f169 81be 97d0 613e cf4b f33d e5da f4bd
000001a0: 5291 563d e068 263e 955f 05be 01e6 53bd
000001b0: c535 c53b ca06 af3d 79a2 2dbd fa81 013d
000001c0: f494 1abe 8919 65bd e2c8 94be a631 08be
000001d0: 1c65 c2bb 6a5a 16bf 958a 943e 2e2c 873b
000001e0: 5eb3 23bf e58d 30be 1f4f c0bd 31ce c3bd
000001f0: b567 9ebe 317c 873d 7b64 873d 2b9f 0b3d
00000200: e4c4 38bd bb57 49be e7a8 78be f602 1bbd
00000210: d8d7 a73d f289 e1bd 5c09 15bd b8e8 7a3e
00000220: bc3b 9d3e ed5c a33d 69cf e5bd 2a42 85bd
00000230: 6944 8bbd d83e 883d a099 67be 0f79 863d
00000240: 842e bebd f551 363d 81d8 89be 8639 4abe
00000250: e154 7bbe 1b5b a0be 2895 f33c 7fce 883a
00000260: f02c 44bd cc3e db3c 30d7 52bd ab40 b4bd
00000270: ca43 d33d 0fb8 da3d 2283 a9bd 283a 41bd
00000280: cd4a ae3d 1c7c eabc 6222 01be 6c6b 22be
00000290: db47 133e ff16 033d 25e6 173e b983 34be
000002a0: 7499 943e 8f8b cabd 42fb 49be 853a 993e
000002b0: 97f6 41bd 32ee e93d 4432 1c3e 1bd3 b23d
000002c0: c2d6 7bbd 2949 afbe 1657 05bf 1cf7 fd3d
000002d0: 78ec f5bd 129d b5be ccef d83d f1a1 893e
000002e0: 86f9 adbe aac6 ea3d e05f debd d8e7 e13d
000002f0: ba7e 53bd 4d3e a4bc f9a9 3abd c260 b2bc
00000300: 21c7 84bc c77e 3c3e 57f7 d93d 95e0 ad3b
00000310: 2da4 e13d 2776 ab3d 2ae8 393e ba5f 3a3d
00000320: 999e 3f3e 92bc c0bc 0c06 7abc 82e4 0f3d
00000330: 98dc d13c d582 a5bc bce1 533e 3809 113e
00000340: 48a6 0ebd 085b 86bd 61ae e4bc fb43 0abe
00000350: 5e87 033e 2385 1f3e 5e52 29be b8de 223e
00000360: d090 efbe c420 3b3d bdcd 413e eab4 06be
00000370: 6fb5 82be 8d2e 09be efe4 79bd 4cd8 dcbd
00000380: c969 e63d 82c0 093e aaf9 4d3d 0428 51bd
00000390: c5cc e23e ce3a a3be dc88 733d 9f35 b2be
000003a0: 0e80 3abe 1fc9 5e3c 2d8b 8e3e 60dc b93e
000003b0: 58cd 22bd ffb6 1f3e 9acb 1cbe 3fd0 2e3d
000003c0: 8632 a83d 0b18 4b3e a996 063d aa6f 90bd
000003d0: 982a 7abe 5598 263e 258d 56be cb7a 04be
000003e0: d02c eabe abd6 11bd a737 0d3e 01bf 10be
000003f0: 7d49 83bd 5eed 503e a090 d8bd 8ee3 573e
0.074511 0.1388008 -0.03833886 0.13394667 -0.45601258 -0.043303475 -0.087190695 -0.11999434
-0.0679104 -0.04605099 -0.045487992 -0.28886077 0.022645455 0.06483779 -0.10455965 -0.06364624
0.15193166 -0.073618665 0.029138308 -0.02021855 -0.16596076 -0.13988161 0.29544345 0.23029648
0.109039485 0.14819951 -0.063862875 -0.23872678 0.0066518737 0.06454749 0.31724155 0.17252254
-0.019852588 0.2491663 0.019598285 0.09806589 0.10350036 0.030609496 -0.052087415 0.20099801
0.02420393 -0.042066485 -0.108719945 0.2340767 -0.020009972 0.026234362 0.16961731 -0.14896627
0.097229384 0.11924852 -0.2822487 0.11186671 0.27370292 -0.16651376 0.1211558 0.45903203
-0.46543673 -0.27076575 0.017419713 0.22888805 -0.19551176 0.026744364 -0.11076846 0.15933552
0.10121381 0.14055133 0.18559282 0.056282207 -0.008464027 -0.0068370462 -0.026456427 0.015608252
-0.26014447 -0.023332525 0.0031520955 -0.09087059 0.21229318 0.14226349 0.0068691005 0.0047207843
0.16942282 -0.03556674 0.5191803 0.2344853 -0.18268827 0.26023057 0.009617458 -0.29248637
0.06182892 0.1521525 -0.010438795 -0.2684468 0.17306308 -0.07105114 -0.00599623 0.2059333
0.056317955 0.16148902 -0.21239974 0.03907683 -0.2527614 0.22052227 0.11879694 -0.11955813
0.052384682 0.16250944 -0.13024743 -0.05173302 0.0060183727 0.08546217 -0.042391274 0.031618096
-0.15095884 -0.055932555 -0.2905951 -0.1330019 -0.0059324633 -0.5873171 0.2901198 0.0041251397
-0.6394557 -0.17241628 -0.09390091 -0.09560812 -0.30938497 0.066154845 0.06610962 0.03408734
-0.045109645 -0.19662373 -0.24283181 -0.03784462 0.08195466 -0.11012639 -0.03638588 0.24502838
0.30709636 0.079767086 -0.11221201 -0.065067604 -0.068001576 0.066526115 -0.22617197 0.06566059
-0.09286216 0.044511754 -0.26922992 -0.19748506 -0.24544097 -0.31319508 0.02973421 0.0010437517
-0.04789442 0.026763342 -0.05147475 -0.08801397 0.10315664 0.10679638 -0.08276965 -0.047174603
0.08510361 -0.028623633 -0.12610772 -0.1586129 0.1438288 0.032004353 0.14833887 -0.17628373
0.29023325 -0.098899 -0.19724753 0.2992746 -0.047354307 0.11422385 0.1525355 0.087316714
-0.061484106 -0.34235504 -0.5208601 0.12400648 -0.120079935 -0.35471398 0.105926126 0.26881364
-0.33979434 0.114636734 -0.108581305 0.11030549 -0.051634528 -0.020049239 -0.045572255 -0.021774653
-0.016208233 0.18407737 0.106428795 0.0053063133 0.11017642 0.08372145 0.1815497 0.04550145
0.18712844 -0.023527417 -0.015260231 0.03513003 0.025617883 -0.020203987 0.2069158 0.14163673
-0.034826547 -0.065603316 -0.027915182 -0.13502495 0.12844607 0.15578131 -0.16535327 0.15905273
-0.4679017 0.045685545 0.18926139 -0.1315495 -0.25529048 -0.13396664 -0.061009344 -0.10783443
0.11250646 0.13452342 0.050286926 -0.051063552 0.44296852 -0.31880802 0.05945669 -0.34806535
-0.18212911 0.013597756 0.27840558 0.36300945 -0.039746612 0.15597151 -0.15312043 0.042679068
0.082127616 0.1983339 0.032858524 -0.07052548 -0.2443031 0.16269048 -0.2095228 -0.12937467
-0.45737314 -0.035605114 0.13790761 -0.14135362 -0.06410501 0.20403048 -0.1057446 0.21082899

msg_encoder.0.bias f4 [64]
00000000: 8fac 83bd 9543 10be 5a16 b73d 699c 22bc
00000010: 644b 4a3c 7cc3 43be c03e 343e 51b2 e13c
00000020: 5a4b ba3d 12d8 143e a79e 63bd 8b16 ac3d
00000030: e51a 12be 0599 273e 4af7 99bd 3e16 8fbd
00000040: f868 17bd 9d0b 9bbd 2a81 323e 0a8f 73bd
00000050: d65e 373e 2306 8dbd fec0 963c a137 3e3c
00000060: 5cbf f6bd 1aa5 553d 9b6a 52bd c96d 193e
00000070: a330 133e c4af aa3c 9419 ad3d 56dd 093e
00000080: 5f20 3ebd f622 fd3c 948c 263e 22ec 023d
00000090: 802f b8bd 1e67 ecbc 8020 8f3c 64a0 1ebe
000000a0: 11b4 07be 1ddc 183d da8d 31be 645a 0a3e
000000b0: a5db b1bd bff8 9dbd 0020 34bd d5a1 593b
000000c0: 05bb 88bd 0a17 05be 5c1a 29bd 696c 193b
000000d0: b433 e43d 10ba d5bd 0e37 553e c2db 013d
000000e0: aa20 e1bd 70e9 dbbd 3081 d03c f5d2 04bd
000000f0: ce49 843d 3189 bf3c d934 e5bd db9b 35bd
-0.06429397 -0.1408828 0.0893981 -0.009924986 0.012347076 -0.1911754 0.17602062 0.027550848
0.090964034 0.1453555 -0.055571225 0.08402737 -0.14268072 0.16366966 -0.0751787 -0.06986664
-0.03696534 -0.075705744 0.17432085 -0.059462585 0.17907271 -0.06885936 0.018402573 0.011609943
-0.12048218 0.052159406 -0.0513712 0.14983286 0.14374022 0.020835765 0.08452144 0.13463339
-0.04641759 0.03090046 0.16264564 0.031963475 -0.08993435 -0.028857764 0.017471552 -0.15490872
-0.13252284 0.03731929 -0.17339268 0.13511044 -0.08684472 -0.0771346 -0.04397583 0.0033208032
-0.06676296 -0.1299707 -0.041284904 0.0023410565 0.11142674 -0.10435879 0.20821783 0.031703718
-0.10992558 -0.10737884 0.025452226 -0.032427747 0.064593896 0.023380848 -0.111917205 -0.04433809

msg_encoder.2.weight f4 [16, 64]
00000000: cc3f e53b e752 27bd 8303 1f3c 85b4 143e
00000010: 2d5a 54bd b2f0 3cbd 6c1e 1d3e 6bc9 c23d
00000020: eb50 82bd ef28 53bd 92f0 1c3d 4447 d73c
00000030: a189 7bbf 82e6 2f3e 489c 963c 3cb9 3dbe
00000040: 6d7a dabd bf2b df3e 642b a6be b19f 25be
00000050: 2b2b 093e 274f 0abe d15a 1abe 444f 9f3c
00000060: 557f e9bc f9ff 1b3e 8d58 2cbe 4f25 ebbd
00000070: abae 54be e6f1 2abd c025 123e f78b af3d
00000080: 304c 573e 4aa2 f3be f1d4 57be 6e85 673e
00000090: 95eb f83d c561 65be 167c ff3d 8967 733e
000000a0: ea77 223e 91fc 003d 8f7f 13bd 6854 34bd
000000b0: 208b 10be 287d 22be fbbe 323e f966 ef3b
000000c0: b6ed 3b3e 47a4 c3be 2d9f 7bbe 16e1 34be
000000d0: a74b 0e3e cd4a 253e 36ab 1b3e 6ab5 dabd
000000e0: 0ab4 50be 9d24 083d 876e 0a3e fa61 c7bd
000000f0: caea 3e3d 3b8a fc3c 8046 8fbe 4dbc 19be
00000100: 5c0e 13bd d37f 513e 6e13 06be 6a3b 253e
00000110: ce1d cc3d c514 7f3e 6a00 bdbc 2f98 3a3c
00000120: b309 02be e133 f13d 5a14 ae3d c104 29be
00000130: 6b14 8fbc dbc9 88bd 7efd 1dbd be0d 393d
00000140: 2295 42be feb4 c33d 2bdb 22bc 4e64 7bbe
00000150: 608f 6abd 46c5 933c 3f88 c23e da0c 19bf
00000160: 342f 0c3e a161 d0bd dc1b 853e add3 ccbd
00000170: eee2 e6bd d778 113d a75d cabd 76be 0d3d
00000180: 40fc 76bd ffc3 fb3e d851 0b3e 26c0 81bd
00000190: b9c0 8f3d 1352 1ebe 2b90 8bbd 8076 d5bd
000001a0: 09d9 03be 22e3 93bd be53 8ebd e3e8 d23e
000001b0: ed54 be3d 73b2 3e3e 5644 27be adda e0bc
000001c0: 8da5 08bd 9f0b bebc 3f45 08bd 0476 2c3e
000001d0: bdd9 733d bbbe f0bd d937 b5bd 760a ea3c
000001e0: ffd7 bc3d 6427 b83d d20d c6bd 25a9 f0bd
000001f0: ba4f 793e e169 81bd 6bc4 33be 1d69 c23e
00000200: de18 1ebe 9271 b1bd e87d 60be 32c5 a53c
00000210: 6e86 7d3d 81d2 333e 40d8 243d 9f0a fabb
00000220: 4a42 9b3c e419 6dbd 4061 373d d12c d8bd
00000230: 39d2 273f f114 003e bbd8 2fbe a2aa 693d
00000240: d26c 1bbe dae1 de3d 0d54 6c3e 2aac 93bd
00000250: 192a 42bd 5fa9 f3bb c8e0 233e 9585 0cbe
00000260: 7db3 e73d a764 ce3c 76b9 0ebf e072 45be
00000270: ed48 07be 97ca 35be 2974 f93d 0b22 26be
00000280: b0bb 503d 65e0 803e 2676 27be 29b7 3fbd
00000290: eefe 1e3d 6e95 f9bd c96c 06be be66 1f3d
000002a0: 8add 0ebe 6e83 65bd 7f4f d93c 465d b43d
000002b0: 7cc1 943e 2665 fcbb 341d d2bd de0f d73d
000002c0: 9f58 7dbd 341e a53c 296c eb3d c466 e23c
000002d0: 31ca c8bd 4c4a 9d3d ef90 1abd 7ccd 4c3b
000002e0: 8217 1dbd abe2 4f3e 4d0a 92bd 1ecc adbd
000002f0: f4ed 8cbd cb82 82bc 3fdc 8f3d 0f5f ff3e
00000300: 92c1 afbd 8961 d63e 5c3e fcbd ef10 4bbd
00000310: 0c58 90be 1a70 813e 5fe4 f53d 8ac4 89bd
00000320: 24d4 b8bd 51ca 73bd 47e6 2ebd 8efa debd
00000330: f9cb 7dbf a034 6b3e 78b0 3fbd f82d c2ba
00000340: aefc ecbd e460 c0bc c19c a8bd 05bb 93be
00000350: a2ae b3bd 226f 96be e4a2 c43d 2c8a 403f
00000360: 2aea cc3c c059 293d 9587 ad3e 3ee3 4dbd
00000370: 8ab8 5dbe ed91 9e3d b129 0e3b 3dc1 a43a
00000380: 4c25 0b3e 81a8 ed3e c29a b03e b4ab c23d
00000390: 47fd 36be 4300 703e 3ec9 00be 24d1 89be
000003a0: bee6 ea3d 3f92 0d3e 168b b8bd fa9d 853e
000003b0: 17a4 203e bc8f 323e b099 44bd 23e9 9fbc
000003c0: 2f87 f9be 6247 6ebe 7a66 44be c165 b1be
000003d0: 63c8 77bd b96c 90bd 7936 193e cf86 b8bc
000003e0: 1cda 97be 4bf5 0d3e 4f09 be3b cc2c 483d
000003f0: 76fb 32be ad54 793e eb79 eb3e c7a5 5e3e
0.0069961306 -0.040850546 0.009705427 0.14521988 -0.05184381 -0.046127982 0.15343636 0.09511074
-0.0636309 -0.05155271 0.038315363 0.0262791 -0.9825688 0.17177776 0.018385068 -0.18527693
-0.10667882 0.43588063 -0.3245498 -0.16174199 0.13395374 -0.13506757 -0.15073706 0.019446976
-0.0285031 0.15234365 -0.16830654 -0.114817254 -0.20769756 -0.0417346 0.14272213 0.08571618
0.21025157 -0.47584754 -0.21077324 0.22609493 0.12154309 -0.22400577 0.124748394 0.23769964
0.15866056 0.031490866 -0.03601032 -0.04402581 -0.14115572 -0.15868056 0.17455666 0.0073059765
0.18352398 -0.3821127 -0.2457244 -0.17663988 0.13896047 0.16141815 0.1520203 -0.10679133
-0.2038118 0.033238042 0.13518725 -0.097354844 0.04661063 0.030827632 -0.27983475 -0.15013237
-0.035902366 0.20458917 -0.1309335 0.16135946 0.09966622 0.24910267 -0.023071487 0.011388822
-0.12699012 0.11777473 0.084999755 -0.1650572 -0.01746579 -0.06679126 -0.038571827 0.04517912
-0.19002202 0.09556006 -0.009939949 -0.24549982 -0.05726564 0.018038403 0.37994573 -0.59785235
0.13689882 -0.10174871 0.25997818 -0.100013115 -0.11273752 0.035515632 -0.09881144 0.034605466
-0.060299158 0.4917297 0.1360544 -0.063354775 0.07019181 -0.15460996 -0.06814607 -0.10422993
-0.12875761 -0.072210565 -0.06949566 0.41193303 0.09293542 0.1862276 -0.16334662 -0.027448023
-0.033361007 -0.0231989 -0.033269163 0.16841894 0.059533823 -0.11755129 -0.08848543 0.028569441
0.092208855 0.08991888 -0.09670605 -0.11751012 0.2434682 -0.06319023 -0.17555396 0.3797082
-0.15439174 -0.0866424 -0.2192303 0.020235632 0.06189578 0.1756077 0.040245295 -0.0076306607
0.018952508 -0.05788602 0.04477048 -0.10555423 0.6555515 0.12507989 -0.1717252 0.057047494
-0.1517823 0.108829215 0.23078938 -0.07210572 -0.04740343 -0.007435962 0.16003716 -0.13722833
0.113135315 0.02519448 -0.5575174 -0.19282103 -0.13211413 -0.17753063 0.12180359 -0.16223924
0.050960243 0.251712 -0.16353664 -0.046805535 0.03881734 -0.121867046 -0.13127436 0.038916342
-0.13951698 -0.056033544 0.026527165 0.08806853 0.29053867 -0.0077024875 -0.10259476 0.10501073
-0.061852094 0.020156004 0.11495239 0.027636893 -0.0980419 0.07680187 -0.037735876 0.0031250408
-0.038352497 0.2030131 -0.07130871 -0.08486198 -0.068813235 -0.015931508 0.070244305 0.4987721
-0.085818425 0.41871288 -0.123165816 -0.049576696 -0.28192174 0.2528084 0.12006449 -0.0672694
-0.090248376 -0.059519116 -0.04270008 -0.10887633 -0.9913936 0.22969294 -0.046799153 -0.0014814725
-0.11571632 -0.023483701 -0.082330234 -0.28853622 -0.08773543 -0.29381663 0.096013814 0.75210834
0.025014002 0.041345358 0.33892503 -0.050265543 -0.21652427 0.07742677 0.002169233 0.0012569797
0.13588446 0.4641762 0.3449307 0.09505406 -0.17870055 0.234376 -0.12576768 -0.26917374
0.11469792 0.1382532 -0.090109035 0.2609709 0.15687595 0.17437643 -0.04799813 -0.019520348
-0.4873595 -0.23269418 -0.19179717 -0.34647945 -0.060493838 -0.07051987 0.14962186 -0.02252522
-0.29658592 0.13863103 0.0057994495 0.048870847 -0.17478737 0.24348707 0.45991454 0.21742927

msg_encoder.2.bias f4 [16]
00000000: 39b9 2fbd a34f 5dbd 4cf2 b23d 3dab 0b3e
00000010: 200d b1bd 5bbb 1cbd 85e5 2d3e 1e91 263e
00000020: a9ba 673c 8bf1 9b3d 8365 98bd 976a 783d
00000030: 6b9f 363d 5580 a03d 0c14 b3bd 0c11 20bd
-0.04290125 -0.054031026 0.08737621 0.13639541 -0.086450815 -0.038264614 0.16982086 0.16266295
0.014143624 0.0761443 -0.07441237 0.060648527 0.044585627 0.078369774 -0.08744058 -0.039078757

msg_attention.0.weight f4 [64, 32]
00000000: 62aa 303e b54e 19be 2c62 8c3b 952a 21be
00000010: 58d7 28be 6bce 033e 3de2 e43d e283 55bd
00000020: 6c9f 11bd dc9e acbc 4a40 443c 3916 b2bc
00000030: 5066 bdbc 1cc6 f23d 8add 32bd f2a6 633c
00000040: e292 febd 9e8c 9dbd 9279 29be c11a 23be
00000050: 2635 0a3e 081f f3bd 4c6a 98bd d9ae 1e3e
00000060: 9b64 e6bd 3ebf 84bc fcc5 323d ffae b3bd
00000070: 18e7 ae3d c7cc 73bc b211 2dbd adb3 c13d
00000080: 14f3 0e3e b42a fcbd 7743 0a3c ddef c6bd
00000090: 63c4 8d3d 3367 9f3d 20f5 f83c 26b6 2fbe
000000a0: 148f e3bd 4424 0a3c 5e55 163e d60c abbd
000000b0: 77b0 303e ff57 33be 8147 2f3e 0490 9ebd
000000c0: 49b1 633d 7559 b33d f982 02bc 8b7d ec3d
000000d0: 2c2f c53d 6b5d d23d 3099 1a3d 4334 783d
000000e0: 83da 8c3c 7613 a1bb 8415 d4bd 1bab e63d
000000f0: 6346 873d e80d 40bd f627 853d e4d6 793d
00000100: e01e 3c3d a7b2 05be a691 273d 1dcf e83c
00000110: 0ebf 973d 25e3 053d b708 2ebe 0d90 9cbc
00000120: 7a72 32be 311c d3bd fe57 0e3e 9a05 f23d
00000130: 9467 303e c50a 27be 15d8 003e 1df6 90bd
00000140: db74 0fbe 2985 d6bd c1d0 14be 6135 693b
00000150: f0a5 6e3c 46cc 05be e4f9 923d a854 99bd
00000160: 0b6b cdbc e661 403c 3039 913d 8a4b e13d
00000170: 7958 83bd e6f6 273d e5f3 6ebc 2caa 633d
00000180: ad04 f83d b0fb 93bc 7456 183e 2d64 8d3d
00000190: 9b1a aabd 2a83 a9bd 7b2a 8fbd ad81 e1bd
000001a0: 6579 d4bc a49f 0d3d cf6c bd3c 81d3 113d
000001b0: c775 74bb 41e6 e7bd e714 a4bd 019b 84bd
000001c0: afcc 333e 5375 af3d 28f0 8e3c e091 0ebe
000001d0: ffd3 2dbd 31e2 6f3c 9102 5abd 0e2b a4bd
000001e0: 5b54 6ebb 2b6b 2bbe 65a5 be3d 2bda 8a3c
000001f0: 6627 ff3d ea27 b83c 4091 c73d ddfe f7bd
00000200: df70 2d3d 3ba7 b9bd 5e29 263e d732 943c
00000210: e653 a53d fdfb 303e f571 283d b80d cfbd
00000220: 4c8e 153c b60d 213e 1f15 2e3e 861f 193d
00000230: 4550 cebd 48bd 9abd df78 243e 0950 263e
00000240: cd9b 6d3d 1329 21be 7e6d 2bbe 44c7 603d
00000250: a0fa 21be ac61 30be 46a6 ef3d 0430 b5bd
00000260: 9bc2 d1bd b561 f73d 17b1 863d b907 613c
00000270: 2579 1f3e 3bc5 2c3e d3a8 95bd 5102 e83b
00000280: d25d 793d 2074 1f3e 4cf6 78bd f912 bdbd
00000290: 76ca 2a3e f274 afbd 9485 b9bc 060a fcbd
000002a0: 5545 19bd a6f5 d3bc b06c b4bd d766 dd3d
000002b0: 204a 61bd 24b2 eb3d 33ab 073e f2c0 313e
000002c0: d697 fd3d 5d49 633d 8d52 243e 1344 a1bc
000002d0: ac58 ff3d c7c4 2dbe fdcc 9bbd 4571 243e
000002e0: 200d eebd 3907 143d e64d 0a3d b05f 0f3e
000002f0: 2cfd 0a3c 1840 a23d 0a99 9d3b 2309 0d3d
00000300: ab98 c4bd 33bc 683d 21b5 0dbe b250 573d
00000310: 24d0 16be 63e5 a53d 2a25 9abd 1609 8abc
00000320: 8b34 d1bd 8196 9ebd c47f 283e e177 cebd
00000330: 2b19 233e 5db7 26be 414e 303e eb8e 5cbd
00000340: 44ae d3bd 9922 9fbd 58a0 2d3e bb60 0d3d
00000350: 6c07 e4bd 7683 123d 6174 19be e3c4 f63d
00000360: ecb4 d23d 1255 28be 9dca cfbd 714c 9a3d
00000370: 11a7 b73d 0b5d ed3c c9cb dabd 499b 213e
00000380: e1bb 19be cf4b 60bd 70c3 a23d db5e 0ebe
00000390: bac1 e1bd 3c5c cc3d 1662 153e 5249 933c
000003a0: c1a0 5b3d 3e57 d83d 7dae 303e ef4d 1abe
000003b0: aba0 e33a 1919 d5bd ce05 86bd 45c4 b43d
000003c0: 78e9 18be 871d 8a3d 74dc 04bd 6da8 26be
000003d0: 4767 3a3c ddb1 41bd dd1d a63d 3bbb 14be
000003e0: e679 723d 4ec8 9fbd db37 6dbd ebb3 30bd
000003f0: 6f8c 12bc 3015 c0bd 987e 9ebd b262 48bd
0.17252496 -0.1497143 0.004284164 -0.157389 -0.16488397 0.12871711 0.11175964 -0.052127726
-0.035552427 -0.021071844 0.011978218 -0.021739112 -0.023120075 0.118541926 -0.043668307 0.013894783
-0.124303594 -0.07692836 -0.16550282 -0.15928175 0.13496837 -0.11871153 -0.074421495 0.15496387
-0.11249658 -0.016204473 0.043645844 -0.08773612 0.085401714 -0.014880366 -0.042253204 0.094580986
0.13959914 -0.123128325 0.008438936 -0.09713719 0.069222234 0.077833556 0.030390322 -0.17159328
-0.11111274 0.008431498 0.14681002 -0.08352058 0.17254816 -0.17514037 0.1711712 -0.077423126
0.055588994 0.08757297 -0.007965797 0.11547383 0.09628138 0.10271724 0.037743747 0.060596716
0.017194038 -0.00491565 -0.10355666 0.112631045 0.06605222 -0.046888262 0.065017626 0.06099595
0.045927882 -0.13056432 0.040910386 0.028419072 0.07409488 0.032687325 -0.16995512 -0.019111658
-0.17426482 -0.103081115 0.13900754 0.11817475 0.17227012 -0.16312702 0.12582429 -0.070781924
-0.1400942 -0.10474617 -0.14532758 0.0035584795 0.01456593 -0.13066205 0.07176569 -0.0748685
-0.025075456 0.011742091 0.07090986 0.11000736 -0.06413359 0.041006945 -0.014584516 0.05558221
0.12110267 -0.01806435 0.14876729 0.06903873 -0.08305856 -0.08276971 -0.069905244 -0.11011062
-0.025936792 0.034576073 0.023123173 0.035602096 -0.0037301646 -0.11323214 -0.08011799 -0.06474877
0.1755855 0.085673 0.0174485 -0.13922834 -0.042438503 0.014641331 -0.053225104 -0.080160245
-0.0036366198 -0.167401 0.0930889 0.016949734 0.124586865 0.02247997 0.09744501 -0.12109158
0.04234397 -0.090651 0.16226718 0.018090649 0.08072643 0.17283626 0.041124303 -0.101100385
0.0091281645 0.15727887 0.17000245 0.03738358 -0.10073904 -0.07555634 0.16061734 0.16241468
0.05800991 -0.15738325 -0.16740987 0.054877535 -0.15818262 -0.17224759 0.11701636 -0.08847049
-0.10242196 0.12079183 0.06576746 0.013734751 0.15573557 0.16872112 -0.07307591 0.0070803543
0.06088049 0.15571642 -0.060781762 -0.09232134 0.16678795 -0.085672274 -0.022646703 -0.12306599
-0.037419636 -0.02587397 -0.08809793 0.10810631 -0.05500233 0.11508587 0.13248901 0.17358759
0.12382476 0.055489887 0.16047116 -0.01968578 0.12468085 -0.16969596 -0.07607458 0.16058834
-0.11623597 0.0361397 0.033765696 0.14001346 0.008483212 0.07922381 0.0048095034 0.03443254
-0.095994316 0.056820106 -0.13838626 0.05256719 -0.14727837 0.08100393 -0.0752662 -0.016850036
-0.102151 -0.0774355 0.16454989 -0.10081459 0.1592757 -0.16280885 0.17217351 -0.053847235
-0.10335973 -0.07770271 0.16955698 0.034516077 -0.11134228 0.035769902 -0.14985801 0.12049272
0.10288414 -0.16438702 -0.10146067 0.07534111 0.08967412 0.02897503 -0.106834 0.15781893
-0.15013076 -0.054759797 0.07947433 -0.13903372 -0.110232785 0.0997853 0.14588198 0.017979298
0.053620104 0.10563515 0.17254062 -0.15068792 0.0017366608 -0.104051776 -0.06544076 0.08826498
-0.14932811 0.06743913 -0.032436803 -0.16275187 0.011377162 -0.047288764 0.08111165 -0.14524548
0.059198283 -0.07801877 -0.057914596 -0.043140333 -0.008944615 -0.09379041 -0.077389896 -0.04892225

msg_attention.0.bias f4 [64]
00000000: 506b ea3c 8b0f 663d 424a 32be feea 3bbd
00000010: 79f2 973c 0da8 0a3b 9116 1fbe 3f4e bd3d
00000020: fba2 c7bd 9fd1 bebd 8ce4 00be b857 b2bd
00000030: 59e3 843d cffc e8bb 13b9 093e 9730 32be
00000040: 9228 b5bd d4d3 11be 7eb2 343e ec9e 0f3d
00000050: df4b b9bd f8f0 4ebd 9b6e 05bd c520 463b
00000060: 7707 143e 5abf d43c 370b bfbd 4980 9e3d
00000070: 7bcd 91bd 0b19 5eba f60b 283e 5860 10be
00000080: e5ef 053e a845 e63d 7a71 303e e979 28bd
00000090: c3bf 1fbe 2700 153e 4fae 55bc e122 55bd
000000a0: cb60 263e d0de 08be e9df 743d 0d12 29bd
000000b0: 3fc6 913d 2a1b 2b3e a264 e7bc 72f2 183c
000000c0: 02a7 0a3e ed8b cb3d 6ad9 febd ee75 bc3d
000000d0: 5052 933d f9ac 793c ed6a eebd 0024 c53d
000000e0: 8eae 5d3d e750 c93c 0b12 1e3e eac0 de3d
000000f0: 1cf9 2f3d dee1 d6bd 8d97 c63d 7ab7 323e
0.028615624 0.056167167 -0.1741114 -0.045878403 0.018548237 0.0021157295 -0.15535952 0.0924344
-0.09747883 -0.09317326 -0.12587184 -0.08708137 0.064886756 -0.0071102153 0.13449506 -0.17401348
-0.08845629 -0.14240962 0.17646214 0.03506367 -0.090476744 -0.050522774 -0.032576185 0.0030231935
0.14455973 0.02597015 -0.09328311 0.07739312 -0.071192704 -0.00084723596 0.16410813 -0.14099252
0.13079794 0.112437546 0.17230788 -0.041131888 -0.15600495 0.1455084 -0.013042047 -0.052035216
0.16247861 -0.13366246 0.05978385 -0.04127698 0.071178906 0.16709581 -0.028246228 0.009335147
0.13540271 0.09938798 -0.12443812 0.09202181 0.07193434 0.015238994 -0.11641488 0.09626007
0.054121546 0.02457471 0.1543657 0.10876639 0.04296218 -0.104922995 0.09696875 0.17452803

msg_attention.2.weight f4 [1, 64]
00000000: 6c5d 0bbd 5024 90bd f8f2 8d3d 0008 e03d
00000010: 6254 e7bd 1ad1 e3bd ae9d b63d 18df 263d
00000020: da0a b2bd 8c4b 403d 40b0 d93d 2045 423c
00000030: 0058 d6bc 9aa4 ffbd 90a3 373d a8da fd3c
00000040: 6c53 e73d 2205 cdbd f0f8 eebd b010 6fbc
00000050: 8036 a13a 4094 af3d 8c5b 4b3d a074 f23c
00000060: ac22 123d 88ae eb3d 3647 b8bd 8af2 fe3d
00000070: 00b2 e13b c25f b43d 40c7 4e3c 2078 8cbb
00000080: f0c2 f2bd a8e0 8e3c e0dc a0bd 2857 96bd
00000090: c6fc 883d a8cb 8d3c a0e7 b73b 406d d9bd
000000a0: c0d6 213c 2c7e 0b3d 6032 913c 4055 613b
000000b0: bc9d 1b3d 524d bdbd 14a8 f53d dcc9 da3d
000000c0: 8c99 ffbd 88a4 d6bc 84ed f6bd 78b5 aebc
000000d0: a2bd 98bd c069 693c be29 a3bd c4c2 52bd
000000e0: 1cf6 773d cac4 d83d 78d1 a2bd a4fe dc3d
000000f0: a80e 6abd 007b 0c3c 6847 92bc 40b1 00bd
-0.03402464 -0.07038176 0.06931108 0.10939026 -0.112953916 -0.11123867 0.08916794 0.040740103
-0.08693476 0.046947047 0.1062932 0.011857301 -0.026165009 -0.12482567 0.04483372 0.030988052
0.11295208 -0.10010745 -0.11668575 -0.014591381 0.0012299567 0.08573198 0.049647853 0.029596627
0.035677597 0.115078986 -0.089979574 0.124486044 0.0068876743 0.08807327 0.012620747 -0.004286781
-0.118535876 0.017441109 -0.078546286 -0.073408425 0.06688838 0.017309025 0.0056123286 -0.10616541
0.009877861 0.034055874 0.017724216 0.0034383088 0.037992224 -0.09243263 0.11994949 0.10683033
-0.124804586 -0.026201501 -0.12057021 -0.021326765 -0.074580446 0.014246404 -0.07966946 -0.051455274
0.060537443 0.105844095 -0.07950109 0.10790756 -0.057142884 0.008574247 -0.017856315 -0.03141904
