models/maddpg_best/critic_1.pth (torch, 488333 bytes, 13 tensors)

encoder.0.weight f4 [128, 37]
000000 09 45 d3 bc 5d a6 14 bd b2 db 0c bc 7e f5 75 bd
       -0.025789754 -0.03629147 -0.008597301 -0.060048573
000010 a6 89 f0 3d e0 da 90 3d db 37 56 3d f7 4a 67 be
       0.11745004 0.07072997 0.05229936 -0.2258719
000020 bd 6e 81 bd 53 91 5f 3d b8 22 96 3d 2c fc 7a bd
       -0.0631995 0.05458195 0.07330841 -0.061275646
000030 f8 c9 f6 bd f9 af 8c bd 17 a4 27 3d 94 96 1f 3e
       -0.12050241 -0.068695016 0.040927973 0.15584785
000040 dc 00 d7 3d 69 74 a1 3d 42 51 42 3e 5e 5b e7 bc
       0.10498211 0.078835316 0.1897631 -0.02824181
000050 c4 43 4c be dc 58 80 bd a1 2a d4 3c 0a 96 28 3e
       -0.19947726 -0.062669486 0.025899233 0.16463485
000060 90 96 39 3b 46 68 c4 bc c9 5a 39 3d f0 56 8f 3c
       0.0028318502 -0.023975503 0.045252595 0.01749751
000070 5e 78 7d bd a0 9b 81 bc 78 dc 88 bd 3c 2e 16 bd
       -0.06188237 -0.015821278 -0.06682676 -0.036665186
000080 8f 18 bb bd 30 d1 3e 3e 67 80 84 3c d7 5f 87 bd
       -0.091355436 0.18634486 0.016174508 -0.06610077
000090 72 9a 8d 39 b5 45 be bc b9 16 e3 3d bb e7 b1 bb
       0.00027008686 -0.023226598 0.110883184 -0.0054292358
0000a0 59 85 96 3b df 8f e5 bd 4b ff 22 3e 62 23 00 3c
       0.004593533 -0.11209082 0.15917699 0.007820936
0000b0 41 eb 3b 3d 24 1c 39 3d c4 12 bb bc b8 f6 81 be
       0.045878652 0.045192853 -0.022836097 -0.25383544
0000c0 2c 46 64 bd 97 a3 3c be 82 ca 01 bd d8 fe 89 bd
       -0.055730984 -0.1842178 -0.031687267 -0.06738061
0000d0 7d 5d 1d bd f7 61 be bc df 43 be 3e f8 16 5f be
       -0.038419235 -0.023240073 0.37161157 -0.21786106
0000e0 50 19 ce 3b 8b f9 78 3d 68 11 34 3e d0 11 1c be
       0.0062896386 0.060784858 0.17584765 -0.1524117
0000f0 66 f0 42 bc dd 7c 0f 3d 58 28 64 3c b3 cf 9d 3d
       -0.011898136 0.03503119 0.013925634 0.07705631
000100 f0 d0 51 3c cb 06 72 be a8 ef 15 3d b7 35 56 bd
       0.012806162 -0.23635404 0.036605507 -0.05229732
000110 e9 91 dc 3c 36 ac 43 3e f5 94 3c 3e f4 2e e4 bd
       0.026925044 0.19108662 0.18416198 -0.11141768
000120 ca 5b 99 3d 32 87 8a 3d 31 5a e1 3c 5b dc 9d bb
       0.074882105 0.06764068 0.027508827 -0.004817528
000130 4c c7 b0 3c 50 28 74 bd 79 57 04 3e 13 75 79 bc
       0.021579407 -0.059608757 0.12923993 -0.015225667
000140 6a b8 0d bd 85 2d b7 3d 25 f7 7b be 85 9c bc bd
       -0.0345997 0.08944229 -0.24605997 -0.09209541
000150 f0 af f1 bd 68 ca ff bd 8e 49 24 be 35 e7 30 be
       -0.118011355 -0.12489778 -0.16043684 -0.17275698
000160 45 69 69 3d a5 7f 59 3d b9 5c f8 3d 13 15 a2 3d
       0.05698516 0.053100247 0.121270604 0.07914176
000170 dc 73 cb 3d 41 47 b9 3c 55 f5 92 bd 96 ca 9b 3d
       0.09934208 0.022616984 -0.071756996 0.076069996
000180 57 fe 93 3c 01 9e ae bb f1 b0 5a 3e 32 b3 28 3d
       0.018065615 -0.005328894 0.2135656 0.04118652
000190 07 f1 f8 3b 68 38 ff bd cb 83 b1 3d 72 ce 0c bd
       0.007597092 -0.124619305 0.08667716 -0.03437657
0001a0 cc 28 06 3e 2a d0 9a 3c 53 43 5d be 53 e7 99 3c
       0.131015 0.018898088 -0.21607713 0.018787062
0001b0 5d 73 25 bd 68 bd 5b bc 19 91 2f 3d d5 f3 10 3d
       -0.040393222 -0.013411857 0.042862985 0.035388786
0001c0 d6 2a 3a bd bc ef 8b 3d 7d fe a5 3c bc 84 0e bd
       -0.045451008 0.06832835 0.020262951 -0.034794554
0001d0 71 09 04 bc d6 b4 35 bd bc 59 37 be 1e 1d ad 3e
       -0.008058892 -0.04436191 -0.17905325 0.33811277
0001e0 83 c7 fc bb 3e 9a aa bd 68 b7 3f bc 6a e9 f1 bd
       -0.0077142133 -0.083302006 -0.011701442 -0.11812098
0001f0 25 22 26 bd 37 88 45 bd 8a b5 77 3c c9 d7 1e bd
       -0.040559907 -0.048225608 0.015118966 -0.038780008
000200 d7 f3 eb 3d 88 41 00 3f cc 59 88 bd fd 9f 03 ba
       0.11521118 0.5009999 -0.066577524 -0.00050210935
000210 de e9 0d bd 75 a4 e3 bd ae 4c 3b be 37 82 f3 bc
       -0.03464686 -0.11115352 -0.1829097 -0.029725177
000220 2b 6d c6 3d eb fd eb 3d 17 80 73 bd 04 c4 16 bd
       0.09688791 0.115230404 -0.059448328 -0.03680803
000230 83 74 d4 3d d1 2f d9 3c f5 f2 d7 3c e5 e8 b7 3d
       0.10373785 0.026512058 0.026360968 0.08979968
000240 db af 09 bd 0b 86 37 3d b5 a8 ad 3d 36 4c 30 3e
       -0.033614974 0.044805568 0.08479444 0.17216572
000250 ba b7 da bc c7 69 f1 3d a0 96 94 bd 39 7b 21 3d
       -0.026698936 0.117877536 -0.07255292 0.039424155
000260 bc 85 8a 3d c9 37 92 3d 47 ee a2 3c 1e b0 90 bd
       0.06763789 0.071395464 0.01988901 -0.07064842
000270 0f 77 de bb 34 d0 65 3d 12 28 80 bd e5 4f 4a be
       -0.0067890952 0.05610676 -0.06257643 -0.1975704
000280 37 60 50 3d db 99 93 bd 7b fb 10 bd 61 f2 1b 3c
       0.050873008 -0.0720708 -0.03539608 0.009518237
000290 4c 5f 14 be 7c ca 2f be de 76 75 3e 46 1d 9e bc
       -0.14489478 -0.17167085 0.23971125 -0.019301068
0002a0 b4 ce da 3d cf 99 c4 bd f1 bc 3a 3d 39 f8 fe bd
       0.10683957 -0.09599649 0.045590345 -0.124496885
0002b0 b1 ab fd 3d 9c 56 09 ba f3 59 1b bd 84 84 5e bc
       0.12386263 -0.0005239041 -0.03792758 -0.013581399
0002c0 36 27 c0 bd d2 b0 1e 3b d6 53 0d 3d ec f3 c4 3c
       -0.09382479 0.002421428 0.03450378 0.024042092
0002d0 14 16 93 3d 4b 09 29 3e f4 98 2d 3d 4d ff c4 bd
       0.071819454 0.16507451 0.042382196 -0.09619007
0002e0 27 b5 b8 3c cb b0 01 3d ed 8d 91 bd 53 67 61 3c
       0.022547318 0.031662744 -0.07107148 0.013757545
0002f0 74 0b 34 3d f8 b9 b7 bc d4 31 ce 3d 84 51 9c bd
       0.043956235 -0.022427544 0.10068098 -0.07632735
000300 67 e8 83 bc 39 2a 2b be 31 5d 3e be ac 90 0d 3e
       -0.016102029 -0.16715325 -0.18590237 0.13824719
000310 82 11 1d 3e 30 c1 51 be 7f 26 a8 3d d0 ff c4 bd
       0.1533871 -0.20483851 0.082104675 -0.09619105
000320 1e 9d 3b 3c bc 6f 38 3d 1e 2a a8 bd d9 85 a3 3d
       0.011451034 0.045028433 -0.08211158 0.07984514
000330 75 e2 1b bb a1 c1 4a 3e 8b 38 99 bd 71 ae 8e 3d
       -0.0023786102 0.19800426 -0.07481488 0.06966866
000340 c2 27 92 3d 46 c6 ef 3d 85 56 15 3d ed ac 86 bc
       0.071364895 0.117077395 0.036459465 -0.01643988
000350 2c de e9 3d 0a dc 45 3e ca 42 e1 3c 90 f5 77 3d
       0.11419329 0.1932222 0.027497668 0.06053692
000360 65 62 7a bd ed 57 44 3d 31 de 31 3d ae 93 0d bd
       -0.061128993 0.047935415 0.04342479 -0.034564666
000370 b3 53 64 3c 0d 85 63 be 9a 2f ed 3d 6b bd 6c bd
       0.013935971 -0.22218724 0.11581345 -0.05779783
000380 ee d1 e4 bd b2 56 7a bd eb c9 b1 3d 97 8d ca 3b
       -0.111728534 -0.061117835 0.08681091 0.0061814296
000390 80 d0 6a 3d 44 5c 29 bd 32 1e 8b 3e 60 f8 b6 3c
       0.057327747 -0.041347757 0.27171475 0.022335231
0003a0 58 61 c8 3c 1b 26 87 3d 93 57 94 3d 4b 3f e2 bd
       0.02446048 0.06599065 0.07243266 -0.110472284
0003b0 8f 02 a1 3d a0 84 ab bd 6a d3 95 bd f9 b6 af bd
       0.07861816 -0.083749056 -0.07315715 -0.08579821
0003c0 59 5f 89 3e 5b f4 9c 3c 55 5f 7d 3d c8 86 3d be
       0.26830557 0.019159487 0.061858494 -0.18508446
0003d0 c9 08 e2 3c b8 1f 1d 3e a2 4d 3e bd ea e5 5f 3d
       0.02759208 0.15344131 -0.046460755 0.054662623
0003e0 9c a0 0c bd a1 d0 2b be 48 e1 35 3c 9b 74 f7 bb
       -0.034332857 -0.16778804 0.0111010745 -0.0075517423
0003f0 7d f2 0b bd 96 6a 03 bd dd b9 09 bd 32 61 0c 3e
       -0.0341668 -0.03208407 -0.03362452 0.13708952

encoder.0.bias f4 [128]
000000 d1 35 6b bc d3 f9 1a 3b 4a 8f f2 3c 52 70 83 3b
       -0.014356093 0.0023647442 0.029609341 0.0040111924
000010 fd 00 d3 3c f1 8c 19 3b ce e5 31 bc 25 3c 68 bc
       0.025757307 0.0023429955 -0.010858012 -0.014174496
000020 f5 51 2b 3b 70 3c c5 3a 89 12 42 bc f2 c1 48 3c
       0.002614138 0.0015047919 -0.011845239 0.012253271
000030 f3 43 a2 3c 8a 46 06 3d 6a 8c c9 bc a8 d8 55 3a
       0.019807791 0.032782115 -0.024603087 0.00081575895
000040 20 d3 28 3c ce 45 62 bc 0b c9 52 bc 74 28 5d 3c
       0.010304242 -0.013810588 -0.012865315 0.013498414
000050 22 2a 06 bc 25 ef 26 3c 6d a6 58 bc 65 cb 59 bc
       -0.008188756 0.010188852 -0.013223273 -0.013293122
000060 ce 38 b1 bc e7 3f de bc bd 2b 1f bb 03 79 b7 bb
       -0.021633532 -0.02713008 -0.0024287545 -0.0055991425
000070 c5 be 9f bc 31 5b 25 3b 5a 91 0c bd d1 22 7e bc
       -0.019500146 0.0025231356 -0.034318306 -0.015511231
000080 39 a4 31 3c f2 fa 4e bc ee c8 7c 3c a8 98 42 bc
       0.010842376 -0.012633072 0.015428765 -0.011877216
000090 ef fa d5 bc 06 74 1a bc 40 8f 10 3c 93 37 2c bc
       -0.026120631 -0.009427076 0.008823216 -0.010511297
0000a0 a3 d1 ab 3c 8f 17 5d bc d4 33 d1 3a 00 00 00 00
       0.020973986 -0.013494386 0.001596088 0.0
0000b0 52 9e 5e bc 07 aa bf b9 66 1b 4c bc 59 28 59 3c
       -0.013587551 -0.0003655704 -0.012457704 0.013254249
0000c0 02 b9 14 bd 6c 4e 5e bb 41 ee 1f bd 20 9e 32 3c
       -0.03630925 -0.0033921255 -0.039045576 0.010901958
0000d0 2f 47 86 bc 6b 28 ce bb 17 05 d4 bb 7f ea 6c 3c
       -0.016391365 -0.0062914393 -0.0064703333 0.014460205
0000e0 ab 0a 6d bc 5f cb 0b bd 4f 29 49 bc 1e 8e 05 bd
       -0.0144678755 -0.034129497 -0.012277915 -0.032606237
0000f0 7b 1d a7 bc 79 20 dc bc c9 b8 61 bb 21 ca 9d 3c
       -0.0203998 -0.026870953 -0.0034442416 0.019261422
000100 cb 49 2c 3a f3 6d 44 3c a7 7a 3f 39 a9 02 9e bc
       0.00065722753 0.011989105 0.00018260871 -0.019288378
000110 20 d4 34 bc 20 f6 9a b9 ca 9e 80 3c 17 58 14 bc
       -0.011036903 -0.00029556546 0.015700717 -0.009054205
000120 e0 15 f2 bc 81 5a ce bc 14 32 f2 ba 5e 9d ef 3c
       -0.029551446 -0.02518964 -0.0018478059 0.029249843
000130 13 49 82 bb a1 3d 66 bc 26 e6 06 3a a3 b1 fc 3a
       -0.0039759963 -0.014052779 0.0005145989 0.0019279014
000140 60 d2 b2 3b dd 16 15 bd 21 bf cd 3c a3 fd c2 bc
       0.0054572076 -0.036398757 0.025115551 -0.023802584
000150 a3 96 e0 bc e4 3c 20 bc 80 bf 64 ba 8f a9 77 bc
       -0.02741558 -0.009780142 -0.00087260455 -0.0151161095
000160 05 63 0c bd 8c 21 e1 bc c7 3f 09 bc 93 ef 70 bc
       -0.03427412 -0.027481817 -0.008377022 -0.014705556
000170 21 60 4e bc 78 b0 00 bc 28 30 be bb 42 8d 7a bc
       -0.012596161 -0.007854573 -0.0058040805 -0.015292468
000180 6d e0 92 bb 13 34 8f bc d5 73 58 3c ab 2f 49 3c
       -0.00448232 -0.017480886 0.01321121 0.012279431
000190 ca 51 79 bc 90 b1 3d 3b df 75 67 bc a5 d8 3a bc
       -0.015217254 0.0028944947 -0.014127224 -0.011404191
0001a0 04 6c 1f ba 7c 0c 5b bc 5d d8 5e bc b2 76 89 3c
       -0.0006081464 -0.013369676 -0.01360139 0.016780231
0001b0 6e eb 23 bb 4e 8d 9d 3b f8 b8 b6 3c ab 04 05 3b
       -0.0025012153 0.0048081046 0.022304997 0.0020296972
0001c0 4a 43 9d 3b 09 8b 50 bd 58 0c 33 3c f7 88 8e bc
       0.0047992812 -0.050913844 0.010928236 -0.017399294
0001d0 47 eb 01 bd 9c 2f be bc fa 34 98 bc 4d 70 70 3b
       -0.03171852 -0.023216061 -0.018579949 0.003668803
0001e0 7f d4 c0 bc b6 57 a8 3b 14 72 95 bc b7 11 0a bd
       -0.023538826 0.005137409 -0.018242873 -0.0337083
0001f0 53 3f 90 bb da 2e e6 bc 67 13 07 bd c9 ad 81 bc
       -0.00440208 -0.028098512 -0.032977488 -0.015829938

encoder.2.weight f4 [128, 128]
000000 dc a1 b9 bd 2c 14 18 3c 46 ff 18 bc fc 02 31 3e
       -0.09064075 0.009282153 -0.009338206 0.17286295
000010 4a 14 3e be 00 d1 7b bd cc 22 9c 3d 54 e6 c4 3e
       -0.18562427 -0.061478615 0.076238245 0.38456976
000020 97 73 d6 bd 31 94 d7 3c 18 93 69 3e f9 9c 0d be
       -0.10471266 0.02631578 0.22810018 -0.13829412
000030 0e 7a 9b bc b2 9a a9 3d 70 af 1d bb 1d 9e 13 bd
       -0.018979099 0.08281459 -0.0024060868 -0.03603946
000040 0b 94 f9 bd 2f 1a df bd 3d 22 f8 3d 91 b1 a2 bc
       -0.1218644 -0.10893666 0.121159054 -0.01986006
000050 20 c2 f9 3b d5 ab fd 3d a9 09 bd bd 29 3c 12 3e
       0.0076220185 0.1238629 -0.09230358 0.14280762
000060 9f 71 00 be bd 77 2f be aa 94 e0 3d 84 8a 03 be
       -0.12543343 -0.1713552 0.109658554 -0.12845808
000070 15 51 8f 3d 61 d4 9e 3e 68 7f b8 bc 33 87 f5 3d
       0.06997887 0.31021407 -0.02252169 0.11988678
000080 3e fe cd bd 39 bc bd bc 34 76 5e 3e a7 17 81 3d
       -0.100582585 -0.02316104 0.21724778 0.063033395
000090 7e 48 3e bc a3 65 e0 bc 14 0f 02 be 98 df 54 3d
       -0.011613963 -0.027392214 -0.12701064 0.051971048
0000a0 cb c6 8f 3d 56 62 95 3c 13 8f 76 3d c0 57 49 bd
       0.070203386 0.018235367 0.06019504 -0.04915595
0000b0 b7 bf 19 3e 7a d5 e4 3d b8 0e 9e bc a7 6b 4e bc
       0.1501454 0.1117353 -0.019294128 -0.0125989085
0000c0 b0 83 e1 3d b4 cc 37 be ee a4 c6 3d 7c 4e 9c 3d
       0.110114455 -0.17949182 0.096994266 0.07632157
0000d0 04 b2 cf bd 23 b6 0c 3e 26 ac a1 bc 52 f9 f2 3c
       -0.10141376 0.13741355 -0.019735407 0.0296599
0000e0 cb ad de 3c 8f cd 71 be bd bd 1a 3e a0 57 68 bc
       0.02718248 -0.2361357 0.15111442 -0.014181048
0000f0 ca 42 17 bd b2 84 00 3e 29 9b 07 be 32 d0 57 3d
       -0.03692893 0.12550619 -0.13242783 0.052688785
000100 89 56 4a be f7 ad 1e be 3c ed 84 3d 77 e6 1c 3d
       -0.19759573 -0.1549605 0.06490561 0.038305726
000110 10 f2 de bd 57 e1 ed bd 61 e4 e1 bd a9 be 58 3d
       -0.108860135 -0.11615246 -0.11029888 0.052916203
000120 58 d9 c7 bd 00 23 06 3e c1 1b a0 3d 27 57 12 3e
       -0.09758252 0.13099289 0.07817794 0.14291058
000130 ee 6b ad 3d 94 0f 6d bd 7b f8 ad 3d 9f 9d 48 be
       0.084678516 -0.057876185 0.084946595 -0.19591378
000140 72 e5 af bd 32 e1 2f 3c 3d 70 cd 3d 70 42 cd bb
       -0.08588685 0.010734843 0.100311734 -0.0062640235
000150 16 ff 24 bd 81 42 f9 bc 0b 03 c8 3d c9 97 1e bc
       -0.04028233 -0.03042722 0.097662054 -0.009679743
000160 78 67 be 3d 52 e5 e8 3b 8b 13 da 3d 13 5d ec bd
       0.09297079 0.0071074152 0.10648259 -0.1154119
000170 45 d0 15 3e 5e e3 52 3d 06 89 b5 3d 70 70 fc 3d
       0.1463023 0.051486365 0.08864026 0.12326133
000180 71 ea 07 bd f2 48 18 3e 5d 78 9a 3d d1 31 0c bc
       -0.033182565 0.14871576 0.07542489 -0.008556799
000190 01 2a 69 bd 64 3f 34 bd fd b0 2a bd d2 a5 4d be
       -0.056924824 -0.044005767 -0.041672695 -0.20082787
0001a0 99 f2 94 3d ac 54 86 3c ab d9 91 bd 4e 7b 8f 3d
       0.07272834 0.016397797 -0.07121595 0.070059404
0001b0 22 5c 8e 3c 50 6f ac bd ae 13 ed bd 67 56 8c 3d
       0.017377917 -0.08419669 -0.11576019 0.068524174
0001c0 9c cd 90 3d 65 1d 60 3d e7 bd de 3c 17 37 e2 bd
       0.07070467 0.054715533 0.027190162 -0.11045664
0001d0 98 8e a7 bd 35 5c 93 bd 5a 6f 46 be 53 a1 0b be
       -0.081814945 -0.071953215 -0.19378415 -0.13635759
0001e0 95 a3 4e 3d 76 9d 86 3c 95 bc 3a be fd ce 1e 3b
       0.050448973 0.016432505 -0.18236001 0.0024232261
0001f0 a6 b5 27 bc 84 af 83 3d 1a 9e 05 3e 3f 42 c0 3c
       -0.010236179 0.06429961 0.13048592 0.023469089
000200 46 51 5c bd 6b a5 d4 3d 09 d2 c1 3d 22 05 3f bd
       -0.053788446 0.103831135 0.09463889 -0.046635754
000210 af 1a b3 3d cb b8 0c bb bc dc 85 3d a9 f1 3c be
       0.08745324 -0.002147245 0.06536242 -0.18451561
000220 7c c5 e0 bd 3e 87 7d bd d6 a4 62 be 27 7d 3f 3d
       -0.10975167 -0.061896555 -0.22133192 0.046750214
000230 1e 3a 02 3e 0f a2 6e 3d a5 4d 88 3d d4 b5 d3 3d
       0.12717482 0.05826002 0.066554345 0.10337415
000240 4d a8 fa 3c d7 c8 f5 3c ae 8d d2 bd a7 45 ca 3d
       0.03059783 0.030002994 -0.102809295 0.098765664
000250 ef e4 1f bc 9e 01 12 3e 6a 1f e0 bc 5b 18 1c bd
       -0.009759172 0.1425843 -0.02735873 -0.038109165
000260 1e 91 05 3e c8 50 4c bc ba ce 34 3d b3 1b a0 3b
       0.13043639 -0.012470432 0.044142462 0.0048861145
000270 84 fd ea bd f4 b1 83 bd ee 86 15 3d a8 37 67 3e
       -0.114741355 -0.06430426 0.036505632 0.22579825
000280 f4 6d cf 3d 71 e6 35 3c 33 8a bc 3c aa bb 9e bd
       0.10128394 0.011102305 0.023015117 -0.07750638
000290 55 ef a9 be ea bc 80 3b 7e b7 17 3d df 81 c1 bc
       -0.33190408 0.0039287703 0.037040226 -0.023621498
0002a0 4e 0e 7d bb d2 84 8c 3d 6b 15 e1 bb 41 ed 52 3c
       -0.0038613263 0.06861271 -0.0068690083 0.012873949
0002b0 a1 ca 08 be 23 31 88 bd 93 60 a2 3d 75 d9 22 bd
       -0.13358547 -0.06649997 0.07928576 -0.039758164
0002c0 23 3f 94 bd 55 ec 23 3d 52 90 c4 bc a6 73 a7 be
       -0.07238605 0.040020306 -0.023994599 -0.3270542
0002d0 e5 8e c8 bd bf 1c 64 3d 2a d6 1f bd 0a 2d 83 bd
       -0.0979288 0.055691477 -0.039022602 -0.06405075
0002e0 97 f4 e9 bc c3 eb b7 bd 7f 4e 21 3e 8f ab f1 bd
       -0.028559012 -0.08980515 0.157526 -0.118003
0002f0 83 16 1d bf 5f 10 78 3d 99 84 08 3d f2 96 af bc
       -0.61362475 0.060562488 0.03332958 -0.021434281
000300 a3 7b a5 bc b9 7c f3 bd 9b c2 31 bb 11 79 e2 3c
       -0.020200556 -0.11889023 -0.002712405 0.02764562
000310 77 29 c4 3d 73 f0 b9 3d 24 e8 21 be e0 5f 84 3d
       0.09578221 0.09079065 -0.15811211 0.06463599
000320 f2 b5 16 3e 51 e8 48 3e 17 dc 06 bd 6d f5 9f bd
       0.14717844 0.19619872 -0.032924738 -0.07810483
000330 06 0e 12 3e 1b 70 86 3c dd 00 64 be eb 44 a1 bd
       0.14263162 0.016410878 -0.22265954 -0.07874473
000340 8f 03 ce 3b b6 4a 05 bd 12 33 42 3d 51 f7 11 3e
       0.0062870453 -0.032541953 0.047411986 0.142545
000350 88 af 82 3c e3 ae 0c 3d 25 25 a4 bd cc b5 a9 bd
       0.01595284 0.034346472 -0.08014897 -0.08286628
000360 63 fc 12 3d ce e4 02 3e af 77 c1 3c 52 f2 64 3e
       0.035885226 0.12782595 0.02361664 0.22358063
000370 2b c5 aa bd 18 fb 0d 39 79 fb 31 bd da 12 3d 3e
       -0.08338388 0.00013540348 -0.043452714 0.18464223
000380 9d 28 ec be b6 4d 4f bc 29 c8 35 3e 2a 90 f8 3c
       -0.46124735 -0.012652805 0.17752136 0.03034218
000390 14 01 5d 3e 8e 1e 4e 3e c9 1a 5e 3e c3 48 9d 3e
       0.21582443 0.20128843 0.21689905 0.30719575
0003a0 ff ae 88 bd 23 ae 61 3c f2 38 14 3d 12 20 38 3d
       -0.06674003 0.013774428 0.03618712 0.04495246
0003b0 f9 7a 73 bd 0f 90 e3 bd 72 32 80 be d0 04 82 3d
       -0.059443448 -0.11111461 -0.25038487 0.06348574
0003c0 aa a6 0f be e6 d4 cc bd ec 45 21 bd 3b b6 9b 3e
       -0.14028421 -0.10001545 -0.039373323 0.30412468
0003d0 2f 02 92 b7 db fb d4 3b bc b6 02 be da b2 9e 3d
       -1.7405573e-05 0.00649975 -0.1276502 0.07748957
0003e0 d8 76 81 bd 81 fd 54 bd 19 e1 9c bd 2c 5e 10 be
       -0.06321496 -0.051999573 -0.076601215 -0.14098424
0003f0 9e c2 28 be 89 5b f7 3d e4 a4 a5 be 91 a1 bb 3d
       -0.1648049 0.12078006 -0.32352364 0.09161676

encoder.2.bias f4 [128]
000000 de 97 f4 ba 96 a2 ce 3b f4 2c 37 bc ef 0f 01 bc
       -0.0018660983 0.006306003 -0.011180151 -0.007877334
000010 8d 00 27 3a b6 95 f6 bb 1f c9 8a 3b 6d ba 35 3b
       0.00063706265 -0.007525171 0.0042354013 0.0027729527
000020 63 f6 cf 3c d3 bf 5d bc 4b 4a 1b bc cd ce 1e 3c
       0.025386041 -0.013534504 -0.009478162 0.00969286
000030 4b 2b 15 3c 3c df 25 3b 25 fe 35 3b a6 f9 e6 3b
       0.00910456 0.002531006 0.002776989 0.0070488034
000040 f9 e8 70 bc bd f7 24 bb 9e f5 95 bb 2d 9d ab bb
       -0.0147039825 -0.0025172078 -0.004576399 -0.0052372427
000050 b4 a4 c5 bb b3 7d 4d bc a6 7e 3f 3c c4 37 95 bc
       -0.006031597 -0.012542176 0.01168791 -0.018215068
000060 80 0f 83 3a 8d 41 96 3a fd c3 3e 3b 6f 59 cf ba
       0.0009999126 0.0011463627 0.0029108517 -0.00158195
000070 b6 8e 5a 3b b6 08 89 3c 68 29 8b 3c a8 69 c3 bb
       0.0033349223 0.016727787 0.016987517 -0.005963523
000080 d4 76 91 3b ca f9 bf 3b 80 69 b1 3b 9f d3 dd 3b
       0.0044392142 0.0058586346 0.005414188 0.006769612
000090 60 24 44 3c 5f 48 91 bb fa a2 cd b9 01 0c 10 3c
       0.011971563 -0.004433676 -0.00039222074 0.008791924
0000a0 9e 18 86 bc 92 e4 71 3c a3 aa 96 bc 78 57 5f 3c
       -0.01636916 0.014763968 -0.018391913 0.013631694
0000b0 c8 37 61 bb 01 67 09 3c c6 d6 07 bc c1 ff b3 bb
       -0.0034365524 0.008386374 -0.008290952 -0.0054931347
0000c0 21 af 5a bc 55 2f a1 ba 97 17 84 3c 48 39 37 3a
       -0.013347418 -0.0012297431 0.01612453 0.00069894316
0000d0 1a 82 24 bb 59 bd 88 3c 59 8e aa 3c 10 ad 29 bd
       -0.002510196 0.01669185 0.02081983 -0.04142481
0000e0 98 11 82 3c 49 8c d5 ba d5 d2 20 3b 5d 16 42 bc
       0.01587753 -0.0016292419 0.0024539728 -0.011846152
0000f0 1b d0 cc 3b 4a ff 01 bc 8c 9c c6 3b 14 00 d2 3b
       0.006250394 -0.007934401 0.0060611423 0.0064087007
000100 f6 70 0c 3b 71 e8 b0 3b 69 4d fc 3b 83 be 03 bd
       0.0021429635 0.005398803 0.0076996577 -0.032164108
000110 31 8b 59 bc e7 ea 3a bc c2 1f f4 3b cf a8 3b 3c
       -0.013277815 -0.011408544 0.007450075 0.011453821
000120 5e ea e0 bb 61 a8 d2 bb f8 48 2e 3c 68 c4 b9 3c
       -0.0068638762 -0.0064287637 0.010637514 0.022676662
000130 ea 00 3e bb fd 33 88 3c c3 49 77 3c 19 e2 a5 3c
       -0.0028992244 0.016626352 0.01509327 0.020249413
000140 5d f3 4e 3b b9 65 a9 3c 4c 95 88 bc 68 af 91 3a
       0.0031578161 0.020678388 -0.016672753 0.0011114897
000150 35 eb c0 3b 3c 3f 90 bb 78 db cf bb a2 b0 be 3b
       0.005887414 -0.0044020694 -0.0063433014 0.005819396
000160 39 fd 2d bc 00 de 99 3b 95 c0 32 3b 9c 8a 66 bb
       -0.010619455 0.004695654 0.0027275432 -0.0035177832
000170 8e d4 73 3c 4e ec f7 3c d9 d6 8d bb 82 4d 41 bc
       0.01488222 0.030264046 -0.0043285904 -0.011798264
000180 44 01 8e 3b 91 25 1d bc 61 4f 60 bb a0 a6 5b bb
       0.004333647 -0.009591476 -0.0034227 -0.0033516064
000190 9b ac 79 bb 28 98 0f 3c b1 b0 c3 39 07 c5 03 bd
       -0.0038097266 0.008764304 0.00037324944 -0.03217032
0001a0 59 6f 1e bc cb f1 a3 ba 43 b7 48 3c 0f b4 59 3c
       -0.009670102 -0.0012507973 0.012250724 0.013287558
0001b0 ab 49 f0 3c a6 25 d4 3b aa 8e a0 bc 54 fa cb 3a
       0.029332003 0.0064742146 -0.019599278 0.0015562274
0001c0 fb f5 34 3b d4 26 87 bb a5 10 d2 3c e1 db de bb
       0.0027612436 -0.0041245017 0.025642702 -0.006801114
0001d0 6a 3f 40 3c 73 14 55 ba 78 3d 3f bc 11 66 7d bc
       0.011733869 -0.00081283523 -0.01167237 -0.015466229
0001e0 d5 27 c1 3c 19 4c cb 3b d6 91 99 ba 23 99 bd 3b
       0.023578564 0.00620414 -0.0011716436 0.0057860776
0001f0 0f 0c f3 ba 1b 00 9f 3c 09 ac ee 3c ec 2f 59 3c
       -0.0018543022 0.01940923 0.029134767 0.013256054

attention.in_proj_weight f4 [384, 128]
000000 a2 f1 a6 3b 19 6b 06 be 44 02 ab 3e 57 d6 6d be
       0.005094723 -0.13126792 0.33400166 -0.23226295
000010 c9 5e 4c 3f 5d 3c ab 3d 78 ba 07 3e 71 e7 02 3b
       0.7983213 0.08361123 0.13254726 0.0019974376
000020 3e ad 66 3e 70 ef bf be 1f 2c 29 bd 4b cb ee be
       0.22527024 -0.37487364 -0.041301843 -0.46639475
000030 70 ab ea be 6a 2c 67 be f2 3b 8c 3e 58 61 0f 3f
       -0.4583392 -0.22575536 0.27389485 0.5600791
000040 11 b4 7f 3e c3 39 62 be ed 17 9d be f8 12 00 bf
       0.24971034 -0.22092347 -0.30682316 -0.50028944
000050 6b 73 58 bd dd d0 b9 bd ff 76 97 bd 50 4e 0f 3e
       -0.052844446 -0.09073041 -0.073957436 0.13994718
000060 da 20 8d be 87 e8 dc bd 30 e9 04 3f fb 3c a7 be
       -0.27564126 -0.107865386 0.51918316 -0.32663712
000070 40 e1 09 3f 7b 05 90 3d 69 e4 11 3d 20 86 c4 3d
       0.5385933 0.07032295 0.03561822 0.09595895
000080 46 03 ab 3e bb 48 2e bd 34 c0 1a be 55 05 19 bf
       0.33400935 -0.04254983 -0.15112382 -0.5977376
000090 8e e6 97 bf 24 09 99 be 47 cc 1b bd a7 62 b2 3e
       -1.1867235 -0.29889786 -0.03803661 0.3484089
0000a0 d3 82 7c 3f 2a f2 91 3e bb f2 7a be 45 5f 48 be
       0.9863712 0.2850507 -0.24506657 -0.19567592
0000b0 be 44 fc be 60 15 cc 3e bd e7 99 bf ea f5 37 3e
       -0.49271196 0.39860058 -1.2023846 0.17964903
0000c0 c4 e4 de be 1c 9c a5 3e e6 97 a3 be 8b a1 e0 be
       -0.4353391 0.32345665 -0.31951827 -0.43873248
0000d0 ce 4d af 3e e9 48 16 3f e8 ee 91 bd 77 dc 40 be
       0.34239048 0.58705 -0.07125646 -0.188341
0000e0 ef e8 92 3e ca 7f 9c be e6 ef 83 3d fc f5 07 bf
       0.2869334 -0.30566245 0.06442241 -0.5310972
0000f0 d1 80 60 3d 76 03 4f 3e 24 a5 d4 bc 67 7a 8f be
       0.05481035 0.20216164 -0.025957651 -0.28023073
000100 15 22 15 bf e9 a6 fd 3c 5d bb 29 3e 4c 29 20 3f
       -0.5825513 0.030963378 0.1657538 0.62563014
000110 6f da 81 be 64 51 e8 bd b8 30 a1 be 76 9c f4 bc
       -0.25361964 -0.11343649 -0.31482482 -0.029859763
000120 5c e2 db 3e b8 d6 0b be 89 43 51 3d ef d7 d2 3e
       0.42946136 -0.13656127 0.051089797 0.4118037
000130 eb dd 76 be c5 c3 a0 be 2d eb 39 bc 64 0d 5d be
       -0.24108092 -0.3139936 -0.011347574 -0.2158714
000140 5f 09 3c bd 48 4c 9d 3e 1c 39 c4 bd 01 37 cd 3e
       -0.045907374 0.3072226 -0.09581205 0.40081027
000150 a0 96 9b be e5 cc 18 bf b6 08 b9 3e 22 82 04 3f
       -0.30388355 -0.59687644 0.36139458 0.51761067
000160 fc f6 a8 3d eb 68 11 bf c4 f9 51 be 68 33 96 3e
       0.082502335 -0.5680072 -0.20505434 0.29336095
000170 bb ae e5 3d 82 19 a3 3e a9 c7 81 3d 71 26 2d bd
       0.11214968 0.31855398 0.0633691 -0.04227299
000180 c2 dc a8 bd a2 19 1b be 9b 82 bf 3e db 84 67 3c
       -0.08245231 -0.15146497 0.37404332 0.014130796
000190 8e f4 fa 3c 1c 4a 86 3e e8 b3 8d bd 57 2a 68 bd
       0.03063419 0.26228416 -0.0691908 -0.056681003
0001a0 2a 8f 78 3e 45 20 44 be ee 4d de 3e e6 bb fd be
       0.24273363 -0.19152935 0.4341883 -0.49557418
0001b0 d0 cf 84 3e 69 75 cf be 73 de 9c bd de f4 88 3e
       0.25939798 -0.40519264 -0.07659616 0.2674932
0001c0 34 d9 44 be 5d 37 e5 be b7 a6 6a bd d8 c4 cc bd
       -0.19223481 -0.447688 -0.057287898 -0.099984825
0001d0 48 e1 05 3f 46 39 0a be ca 7e 65 be ea f9 50 bd
       0.52296877 -0.1349841 -0.22411647 -0.051019587
0001e0 ed 9b 32 3e 8e 7f b2 3e a7 a2 ef be 4f 00 4f be
       0.17442293 0.34862942 -0.4680378 -0.20214961
0001f0 51 fe 93 be 9e a6 2c be 26 99 37 be 9b 6a cc be
       -0.28904966 -0.16860434 -0.17929515 -0.39925084
000200 5e c1 03 3d a7 1d a7 be 4f f5 4f 3e 64 80 01 bd
       0.03216683 -0.3263981 0.20308422 -0.031616583
000210 e5 9c 75 3f 04 c2 b8 3e 31 38 8f 3e 5e 4c 00 be
       0.9594253 0.36085522 0.27972558 -0.12529132
000220 54 aa 78 3c 51 12 23 bf 50 4c b5 bd 4c fd 81 be
       0.015177328 -0.63699824 -0.08852446 -0.25388563
000230 9d d9 0b bf 21 69 8b bd 8b 57 b5 3e e2 0c 0f 3f
       -0.54628927 -0.06807161 0.35418352 0.5587903
000240 78 02 ea 3e ac 66 9a be 3c e1 a6 be 19 84 58 be
       0.45705009 -0.30156457 -0.32593715 -0.21144141
000250 8f 44 1e 3d 3b 10 cf 3c 99 a1 35 3d 50 d6 8c 3d
       0.0386396 0.025276294 0.044343565 0.06876814
000260 a2 62 97 be ed ef 93 3c 17 bf 24 3f 93 45 62 be
       -0.29567438 0.018058741 0.6435408 -0.22096853
000270 15 45 ff 3e 3f 4d 35 bc 19 59 9d 3e 20 de 01 3e
       0.49857393 -0.01106578 0.3073204 0.1268239
000280 f7 19 d1 3e fb 19 dc bc cb 60 33 be 47 07 1d bf
       0.40840122 -0.026867857 -0.17517392 -0.6133923
000290 a0 c8 82 bf aa 51 6b be 77 09 69 be 6a f3 1f 3e
       -1.0217476 -0.22980371 -0.22757517 0.15620199
0002a0 11 ab 20 3f 22 bc a4 3d bb 48 c0 be ae 75 37 be
       0.62761027 0.08043696 -0.3755549 -0.17915985
0002b0 b0 c5 5e be a4 d1 20 3f ac 8c 91 bf 0e 01 02 3e
       -0.217551 0.62819886 -1.1371055 0.12695715
0002c0 be 3f a5 be f6 d9 19 3e 3a 60 d2 be bf d9 f2 be
       -0.32275194 0.15024552 -0.4108904 -0.47431752
0002d0 e1 d3 e0 3d 0a ad a3 3e f0 30 7d be 76 60 42 be
       0.10977913 0.31967956 -0.247257 -0.1898211
0002e0 00 93 10 3f 67 22 0e bf 24 92 9d 3e 9d 7c 01 bf
       0.56474304 -0.55521244 0.3077556 -0.5058077
0002f0 56 2b 9a be 14 34 cd 3e ea 3a 2f be 21 8a 82 be
       -0.30111188 0.40078795 -0.17112318 -0.2549601
000300 2c 09 2d bf dc 60 c5 bc 5a 55 43 3e 2f 41 08 3f
       -0.6759212 -0.024094038 0.19075528 0.5322446
000310 09 a3 09 3e 76 8a 12 be ec e9 78 be 6e 47 84 bc
       0.13441099 -0.14310631 -0.24307984 -0.016147342
000320 73 97 da 3e 1e 63 d7 be b4 27 8b be a4 01 11 3e
       0.42693672 -0.42067808 -0.2717873 0.14160782
000330 45 4c c2 be 46 b4 b2 be 9a 85 2e be 09 6d 99 bd
       -0.37948814 -0.34903163 -0.17043152 -0.074915
000340 57 08 38 be 52 ce 85 3e 41 ad 56 bc 2c 0f 9e 3e
       -0.17971931 0.26133972 -0.01310283 0.3087095
000350 0d dd 13 be 4a 98 30 bf 23 c6 98 3d e2 74 13 3f
       -0.14439793 -0.68982375 0.074596666 0.57600224
000360 55 ab 0a 3e ab 9c 11 bf e9 fb e6 bd 88 fb 6e 3e
       0.1354192 -0.5687968 -0.11278517 0.23338139
000370 bf 53 2d bc c5 b1 84 3e e6 3b 2c 3e 2f 00 ed be
       -0.010579049 0.25916877 0.16819724 -0.46289203
000380 88 d9 a2 be a8 ed d6 be 2d 35 ca 3e 26 1f 1e bd
       -0.31806588 -0.41978192 0.39493695 -0.038603924
000390 ff 84 fa bc 35 9f d8 3e f9 47 9d 3e fc 83 93 3d
       -0.030580996 0.42308965 0.30718973 0.072029084
0003a0 c0 4f 77 3e ed eb 7d bd c9 bd 21 3f c3 f8 2f bf
       0.24151516 -0.061992574 0.63180214 -0.68738955
0003b0 45 e7 b5 3e 9c 56 15 be d9 23 14 3e 14 f4 b3 bb
       0.35528007 -0.1458382 0.144668 -0.005491743
0003c0 37 c8 0c bf b6 3b 8f be fc 52 4e be dd 01 d4 bd
       -0.54993004 -0.27975243 -0.20148844 -0.10351918
0003d0 28 0f dd 3e 40 a7 13 bf 5f 4a ab be ea 03 9e 3d
       0.43175626 -0.5767708 -0.33455178 0.0771559
0003e0 4d 24 97 3e c5 17 e6 3e b4 c7 4c be ed 2b 01 3d
       0.29519883 0.4494001 -0.19998056 0.03153603
0003f0 5f de 89 be 4b 8c 45 be 7b 7c 84 be 5c 5e 58 be
       -0.26927468 -0.19291799 -0.2587622 -0.21129745

attention.in_proj_bias f4 [384]
000000 cc 9d 94 be 15 6b ac be cc 3d 94 be 3a 64 b6 be
       -0.2902664 -0.33675447 -0.28953397 -0.35623342
000010 ac 92 90 be 4b 6a bb be 83 d2 76 be 14 71 a0 3e
       -0.28236902 -0.36604533 -0.24103741 0.31336272
000020 d3 fd eb 3e 73 55 ad 3e 92 13 9c 3e 4b 7a a9 be
       0.4609209 0.33854255 0.3048368 -0.33101115
000030 39 4e 86 3e 8e 19 9c 3e b1 5d b0 be c2 e7 a0 be
       0.26231554 0.30488247 -0.3444648 -0.31426817
000040 b3 db b5 3e 44 0f 9b be 63 86 a6 be 82 8a 99 be
       0.3551918 -0.30285084 -0.32524404 -0.29988486
000050 b6 a0 d5 3e bb b3 b0 be 4f 95 a4 be a2 6d 8e be
       0.41724175 -0.34512123 -0.32145163 -0.27818018
000060 ee 95 8d be e4 45 a9 be 8e 3c b0 3e 89 f6 be 3e
       -0.2765345 -0.33061135 0.344212 0.37297466
000070 d4 97 a7 be 6e 58 82 be 80 a1 93 be b3 1b d3 be
       -0.32733023 -0.25458091 -0.28834152 -0.4123207
000080 bd d0 b1 be c7 ef 96 be c5 d2 b1 3e 42 9b a0 be
       -0.34729567 -0.2947981 0.34731117 -0.31368452
000090 0d 21 7b be cb ab a4 be 5d e7 b0 3e c4 b8 81 be
       -0.24524327 -0.32162318 0.34551516 -0.25336277
0000a0 04 4c 86 3e 25 97 82 3e 3e c7 95 3e 9c 48 c7 be
       0.2622987 0.2550594 0.29253572 -0.38922584
0000b0 1d 6b ac be 02 a5 9d be 4a b2 8a be 88 dd 8c 3e
       -0.3367547 -0.30789953 -0.2708915 0.27512765
0000c0 00 b6 a0 be 3c b1 ca be 79 d2 99 3e 2d cf 83 be
       -0.31388855 -0.39588344 0.3004339 -0.25744
0000d0 77 30 7a 3e 45 b9 91 3e 8a 09 b2 3e f5 42 a6 3e
       0.2443255 0.28461662 0.34772903 0.3247296
0000e0 01 d5 9f 3e 9e 7c a7 be b7 60 a2 3e 75 db 81 be
       0.31217197 -0.32712263 0.31714413 -0.25362745
0000f0 66 be 92 be 77 68 92 be d4 57 c4 3e 09 d2 9f 3e
       -0.28660887 -0.28595325 0.38348258 0.31214932
000100 67 54 28 bf 54 00 06 bf df e6 28 bf 54 86 1c bf
       -0.6575379 -0.5234425 -0.6597728 -0.6114247
000110 27 be 3a bf 42 d0 57 bf 21 ee 39 3f fc 53 30 bf
       -0.729464 -0.8430215 0.7262898 -0.6887815
000120 aa 8c 0d bf 7d e4 42 3f f2 b9 45 3f 48 87 18 3f
       -0.5529276 0.76129895 0.77236855 0.5958142
000130 84 90 24 bf 4c d1 2a 3f db 49 e2 be 2c 3e 27 3f
       -0.64283013 0.6672561 -0.44196972 0.6532924
000140 82 0e 9c 3e 9d 2f 11 bf e2 66 32 bf 86 45 0c 3f
       0.3047982 -0.5671328 -0.69688237 0.54793584
000150 65 9d 17 bf 98 c5 3b bf 3e 18 1b 3f 72 0f 0a 3f
       -0.5922454 -0.7334838 0.60583866 0.5392982
000160 8e cf 5f bf ed 5c 35 bf a8 78 3b 3f 30 7f 3b 3f
       -0.8742608 -0.7084492 0.7323098 0.7324095
000170 64 d7 13 bf 78 46 09 3f ca 47 16 bf fc 18 cf 3e
       -0.57750535 0.5362315 -0.5870329 0.4044875
000180 55 e4 5b 3f 0c 51 82 3f 11 17 35 3f 80 28 f0 be
       0.8589528 1.0180984 0.7073832 -0.469059
000190 e8 90 15 bf 33 d5 20 bf 4b c7 38 bf ac ed 3d bf
       -0.58424234 -0.62825316 -0.72179097 -0.74190784
0001a0 61 6d 6f bf 35 da 4e bf 02 e0 57 bf b2 4e 2d bf
       -0.93526274 -0.8080171 -0.84326184 -0.67698205
0001b0 f8 98 e3 be 83 89 55 3f 55 ad 2b bf 45 c2 0b bf
       -0.44452643 0.8341295 -0.6706136 -0.54593307
0001c0 1a 92 fc 3e b3 6b 12 3f 09 b6 12 3f 70 c4 06 3f
       0.49330217 0.57195586 0.57309014 0.5264349
0001d0 e7 5d 2a bf 93 30 22 bf 73 d6 27 bf 89 37 da be
       -0.66549534 -0.6335537 -0.655616 -0.42620495
0001e0 31 57 21 bf 1d 2a 2c bf fb c6 15 bf 56 29 09 bf
       -0.6302367 -0.6725176 -0.58506745 -0.535787
0001f0 51 e8 21 3f f7 f4 1a bf e6 22 ff 3e 93 e6 0e bf
       0.6324511 -0.60530037 0.49831313 -0.5582058
000200 7d d5 59 39 e5 a8 22 39 55 62 1f 39 74 78 46 39
       0.00020774263 0.00015512442 0.00015200053 0.00018927624
000210 85 fe f0 38 74 b7 89 39 ef 1f 14 39 5d da 59 b9
       0.000114915 0.0002626736 0.00014126276 -0.0002077608
000220 13 7b 38 b9 52 20 69 b9 fb 94 25 b9 06 11 3d 39
       -0.00017593456 -0.00022232652 -0.00015791126 0.00018030786
000230 b0 31 80 b9 9a c7 ce b8 b5 70 83 39 01 10 4e 39
       -0.00024451083 -9.860024e-05 0.0002507024 0.00019651653
000240 aa d4 53 b9 01 d8 91 38 39 5c 69 38 9a 75 cb 38
       -0.00020201752 6.954373e-05 5.5637418e-05 9.701699e-05
000250 81 69 4c b9 3f c2 13 39 9f 3d 71 39 bc 5b ac 38
       -0.0001949426 0.00014091375 0.00023006507 8.218686e-05
000260 c3 69 55 39 6d 7f 6f 39 69 2c 81 b9 8c ea 67 b9
       0.00020352662 0.00022840286 -0.00024637886 -0.00022117252
000270 3f 37 37 39 c3 c9 2c 39 e5 f0 8d 39 05 3b 52 39
       0.00017472821 0.0001647836 0.00027073096 0.00020049147
000280 66 33 69 39 60 0a ab 38 3d b3 58 b9 18 ab 0a 39
       0.00022239759 8.155848e-05 -0.00020666137 0.00013224443
000290 53 91 cf 38 33 5c d2 38 57 8c 98 b9 c5 6f 86 39
       9.897598e-05 0.00010030754 -0.0002909626 0.00025641746
0002a0 97 5b 15 b9 b8 ad f5 b8 27 19 e8 b8 c7 92 28 39
       -0.00014243867 -0.00011714868 -0.00011067307 0.00016076407
0002b0 25 db 84 39 d7 14 0e 39 e1 3c 3e 39 a3 78 3c b9
       0.00025340277 0.00013549939 0.00018142491 -0.00017974018
0002c0 a3 cc fe 38 5d 9b 83 39 60 55 34 b9 b8 65 0c 39
       0.000121497804 0.00025102022 -0.00017197942 0.00013389334
0002d0 0e ef 63 b9 16 a6 04 b9 fd ef 25 b9 bf 30 70 b9
       -0.00021737462 -0.00012650373 -0.00015825029 -0.00022906343
0002e0 9d c6 33 b9 87 bf 81 39 0e 72 de b8 e2 e9 03 39
       -0.0001714476 0.00024747496 -0.00010607029 0.00012580262
0002f0 60 7d d1 38 bf ed 2c 39 b7 97 43 b9 18 ab 39 b9
       9.9892495e-05 0.00016491766 -0.00018653167 -0.00017706712
000300 a4 50 1c 3a 3e d6 ed 39 3e 6c 43 3a 16 fe 25 3a
       0.0005962944 0.00045363785 0.0007454789 0.0006332112
000310 4c e9 2c 3a f4 71 65 3a 18 33 4e ba 53 18 25 3a
       0.0006596043 0.0008752637 -0.000786589 0.0006297875
000320 57 76 08 3a 95 e1 4e ba 96 79 55 ba ab 63 14 ba
       0.00052056223 -0.0007891891 -0.0008143423 -0.00056606036
000330 22 65 33 3a 8c a6 32 ba b7 4a bb 39 13 26 5b ba
       0.0006843378 -0.00068149786 0.00035723086 -0.00083598605
000340 13 ec 80 b9 38 8d cb 39 64 92 41 3a 03 57 d2 b9
       -0.00024589951 0.00038824393 0.00073841796 -0.0004011915
000350 91 9c 39 3a 52 85 27 3a 98 a8 1c ba 56 02 cd b9
       0.000708052 0.00063904107 -0.000597605 -0.00039102387
000360 fd 6e 43 3a b8 75 2c 3a b3 bf 1a ba 26 3d 57 ba
       0.0007455198 0.0006578821 -0.0005903199 -0.0008210711
000370 c9 36 16 3a 15 09 08 ba 7d 1b 0f 3a cf da f7 b9
       0.00057302095 -0.00051893416 0.0005459113 -0.00047274536
000380 93 64 6a ba 84 49 a6 ba a6 dc 47 ba 59 0e c1 39
       -0.00089413783 -0.0012686704 -0.0007624127 0.00036822518
000390 f1 84 0a 3a b7 35 13 3a b6 e6 47 3a f7 db 24 3a
       0.0005284092 0.0005615609 0.0007625626 0.0006288881
0003a0 e3 96 6b 3a 8d 32 58 3a 42 68 51 3a f6 98 1c 3a
       0.00089870224 0.0008247279 0.0007988253 0.00059737207
0003b0 7b 9f ee 39 5f ed 6b ba 8e c3 0f 3a 58 c5 0b 3a
       0.0004551372 -0.00089999096 0.0005484157 0.0005331836
0003c0 61 85 01 ba a1 2f 0c ba 6a 38 19 ba 73 76 ff b9
       -0.00049408345 -0.00053476734 -0.0005844893 -0.00048725642
0003d0 6b 7d 04 3a 12 2e 03 3a f6 79 19 3a 68 70 f0 39
       0.0005054089 0.00050041184 0.00058546604 0.00045860116
0003e0 3a 12 3b 3a da 9e 58 3a a7 59 29 3a e0 fc 13 3a
       0.00071362 0.0008263417 0.00064601976 0.00056452863
0003f0 7b 3d 06 ba 1a 75 09 3a fe 3a da b9 18 3b 1f 3a
       -0.00051208556 0.0005243585 -0.00041624153 0.00060741743

attention.out_proj.weight f4 [128, 128]
000000 a7 32 1f bc 3b fa be bd bd fd ee bc 06 46 47 3e
       -0.009716666 -0.093250714 -0.029173726 0.19460306
000010 ab 1a 59 bd 0f 16 35 bd 0c 8f cc bb fe a5 1f bd
       -0.05300395 -0.04421049 -0.0062426385 -0.03897666
000020 ce 3e b1 3d 02 49 c4 3c 05 84 27 3c bd 75 1f 3d
       0.08654557 0.023960594 0.010224347 0.038930643
000030 05 16 17 3c 43 26 64 3d b4 66 d4 3c 6e f2 c2 bd
       0.009221558 0.05570055 0.025927879 -0.09518896
000040 47 5d 64 be fe 0b 3b bd c7 9d 0d bc 61 93 a6 3d
       -0.22301207 -0.045665734 -0.008643574 0.08133579
000050 ad 5b 02 be 4c ea 8f bd e3 04 88 3d 91 67 a7 bd
       -0.12730284 -0.070271105 0.06641557 -0.081740506
000060 f4 40 b2 3d c5 0a 41 bc f9 69 ba bc 2d d2 40 3e
       0.08703795 -0.011782353 -0.02275561 0.18830176
000070 37 df e1 3d fd 3f d1 b8 23 84 98 bc 6b 4f 55 bd
       0.11028903 -9.977815e-05 -0.018617695 -0.052077692
000080 c3 26 43 3d f3 15 4b 3d bb ce e9 3a 0b cb 28 3d
       0.047644388 0.04958148 0.00178381 0.041209262
000090 26 f3 d4 3c a0 65 a0 3c b9 00 a4 bd 42 4e 79 3d
       0.025994848 0.019579709 -0.0800795 0.060865648
0000a0 41 d7 3e be 1d d6 8b bd 9a 39 d2 bd 80 0c 4e bd
       -0.186368 -0.06827948 -0.10264893 -0.05030489
0000b0 79 54 3e be cf 7c 1e 3d 88 2c 3b 3d e2 1a 31 3e
       -0.18586911 0.038693246 0.045696765 0.17295411
0000c0 a6 d1 d0 3d cb b6 8f bd bc e7 ad 3a 61 75 ee 3d
       0.10196237 -0.07017287 0.0013267915 0.11643482
0000d0 8b f2 a3 bd 25 4b ce bd be 58 13 bd ec d0 34 bd
       -0.08005246 -0.100729264 -0.035973303 -0.044144556
0000e0 34 33 ce bd 78 17 b7 bd 28 89 d9 bd 5d 3c 04 b9
       -0.1006836 -0.08940023 -0.106218636 -0.00012610988
0000f0 d8 cd bc 3c 62 0a 31 3c a9 a0 ad 3d 70 dd a0 bc
       0.023047373 0.010805698 0.08477909 -0.01963684
000100 1e 2b 41 bd bd 52 08 3e 99 2c fe 3c 1c d2 22 3d
       -0.04716026 0.13312812 0.031027125 0.039751157
000110 d2 5a 8c bc 47 b5 ce 3c 6e 40 19 3d dc e6 fb bc
       -0.01713315 0.025232924 0.03741496 -0.03074973
000120 1f 3c cf 3d 78 46 9f bc 7f 82 44 3d e3 73 d3 3d
       0.10118889 -0.019442782 0.047976013 0.10324838
000130 41 12 42 3c 77 77 86 bd c2 30 f7 3d 1d 28 91 bb
       0.011845172 -0.06565755 0.12069847 -0.0044298307
000140 e8 0d 1a bd 63 b8 4c 3d 95 1f 03 be 40 5a 8b bb
       -0.03761092 0.049980532 -0.12805016 -0.004252702
000150 fb 8a ce 3d 78 e0 e2 bb 72 a8 3c be a6 5d 07 3d
       0.10085102 -0.0069237314 -0.18423632 0.033048294
000160 ed 61 bd bd a4 1e eb bd 17 d6 27 be 61 5d 47 3c
       -0.092471935 -0.114804536 -0.16390263 0.012168259
000170 3d 35 b1 bd 45 03 7c bd 7d f7 91 3c ab e2 95 bc
       -0.086527325 -0.061526556 0.017818207 -0.01829656
000180 d9 32 30 3c f6 9e 72 bd 6a cc 93 3d ee 7c a7 3d
       0.0107543105 -0.05923363 0.07216723 0.08178125
000190 8f dc 6f bc a2 28 d7 bd ff 5a ee bd b9 a8 cc bd
       -0.014639988 -0.10505797 -0.1163845 -0.09993119
0001a0 8a 2c 07 3e 00 c6 7d bc ca 0a 59 be 91 54 ee 3c
       0.13200584 -0.015489101 -0.21195522 0.029093059
0001b0 54 6b 5c 3c cd f7 e6 3c ae 5f 35 3e f8 05 4c bd
       0.013453323 0.028194332 0.1771228 -0.04981038
0001c0 c5 41 65 3d e2 0c 06 3d 4e 7b 47 bd 62 7b 27 be
       0.055970926 0.03272713 -0.048701577 -0.1635566
0001d0 7d 51 b9 bc f8 a4 72 bc 6c 51 4c bd 1d 98 ed bc
       -0.022621864 -0.014809839 -0.049882337 -0.029003197
0001e0 af 06 98 bd 87 4d 02 3e 75 47 36 3e 74 a3 e8 3c
       -0.0742315 0.12724887 0.17800696 0.028398253
0001f0 78 df 05 bd 40 45 e5 bd 0b cb 5d bc bf c2 14 bd
       -0.03268382 -0.11194849 -0.013537179 -0.036318537
000200 2c de 1a 3e 70 77 ce bc 60 32 be bc 4e 92 53 3d
       0.15123814 -0.025203437 -0.02321738 0.0516532
000210 a6 95 11 bd 44 37 43 bc 66 d6 e3 3d 31 81 2a 3e
       -0.035543106 -0.011915032 0.11124878 0.16650845
000220 a8 d3 b7 bd fb bf 08 3e 28 2f 37 3e 53 a6 bb bd
       -0.08975917 0.13354485 0.17889082 -0.09162583
000230 39 35 04 3c e1 0b 09 3c a8 8b 6f 3d 89 84 55 be
       0.00806933 0.008364649 0.058482796 -0.2085134
000240 d6 d8 35 be 53 81 f5 3d ad b2 e9 bd 59 cc 9a bd
       -0.17758498 0.11987557 -0.11411033 -0.075585075
000250 f3 4a 37 bd 2c ec a8 bd 39 03 01 3e 2b 0c 88 3c
       -0.04474921 -0.08248171 0.12598886 0.016607365
000260 93 27 ad bd 27 1f 84 3b 4d d0 e7 bd 6f ae 6c bd
       -0.08454814 0.004032034 -0.11319027 -0.05778354
000270 d1 07 ed 3c f8 5f 70 bd 8f ec b5 3d 6e 62 bf bc
       0.028934391 -0.058685273 0.088830106 -0.023362365
000280 ed c5 cf 3d 26 b2 07 3e c9 6f 2c 3d cf 38 f1 3c
       0.10145173 0.13251552 0.042098794 0.029446034
000290 bf 42 f1 3d a2 a6 92 3d e8 d3 6b bd 17 c7 f4 3c
       0.11780309 0.07160689 -0.057575136 0.02988009
0002a0 a6 86 17 3e 17 9e fe bd 69 84 b4 bd e5 95 a6 bd
       0.14797458 -0.12432497 -0.08814318 -0.08134059
0002b0 3d fc 8e 3d 83 94 c2 3c ac 57 95 3d e9 09 b2 bd
       0.069817044 0.023752457 0.07292113 -0.086932965
0002c0 e3 15 cf 3d 38 13 5f 3b f1 1e c7 bd 51 c0 42 bd
       0.101115964 0.0034038555 -0.097226985 -0.04754669
0002d0 36 21 9c bd e6 e0 f6 bd 74 c2 6c 3e c6 ba fd 3b
       -0.07623522 -0.12054615 0.23121053 0.0077432124
0002e0 b7 74 65 bd 28 68 03 bd 96 62 c0 bd 12 e5 3a 3d
       -0.05601951 -0.032081753 -0.09393804 0.045628615
0002f0 dd 0c af 3c 8d 64 59 3c af f9 67 bd 15 90 89 bc
       0.021368438 0.013268602 -0.0566346 -0.016792336
000300 37 ff 06 3e d4 42 e0 3d 12 da 80 bd 18 7f 18 3b
       0.13183294 0.109502465 -0.062915936 0.0023269113
000310 07 be 08 bd 65 b3 19 bd b8 0f f0 bc 46 17 2a be
       -0.03338435 -0.0375246 -0.02930437 -0.1661044
000320 1b 62 eb bc c5 1a ad bd bd 8c c9 bc 87 ae 2a bc
       -0.028733304 -0.084523715 -0.024603242 -0.010417587
000330 48 71 f6 3c 2c 03 99 3d 25 a3 08 3d b9 34 b2 bd
       0.030083314 0.07471308 0.03335871 -0.08701462
000340 4f f9 34 bd 09 81 bd 3d 8b 98 76 be 99 0c 9a 3b
       -0.04418307 0.09253127 -0.24081628 0.004701209
000350 3b 9c 99 3c 14 73 64 3d c4 c9 b3 bd c3 4e 62 be
       0.018751254 0.05577381 -0.08778718 -0.22100358
000360 d1 1a d4 3d 42 bd 87 bd f8 48 16 3c 6e ce fc 3d
       0.10356677 -0.06627895 0.009172671 0.12344061
000370 b7 4f 6f be 28 d9 b6 3d ec 6e a4 bd 5e 43 5d 3a
       -0.23370253 0.08928138 -0.08028969 0.00084405195
000380 dc c2 2c 3d 99 68 58 bd 11 35 15 bc 5b 2a 16 3e
       0.04217802 -0.052834127 -0.00910689 0.14664595
000390 5c 4d 71 bd 79 cf 0c bd 8e 96 78 3c 30 64 28 3d
       -0.058911666 -0.03437755 0.015172614 0.04111117
0003a0 c6 5c b0 bb f3 e2 83 bd 28 ea 4b 3d 37 e1 16 3d
       -0.005382153 -0.064397715 0.049783856 0.036835875
0003b0 8a 00 e0 bd 64 ad 62 bd ff 0b f0 3d 25 63 d9 3c
       -0.10937603 -0.05534114 0.11721038 0.026536534
0003c0 02 83 b0 3c 9c 62 1e bd 45 26 b4 bc e8 d4 ab bc
       0.021546844 -0.03866826 -0.021990905 -0.020975545
0003d0 c6 a9 25 bc 96 07 1d bd 8b 02 56 be f2 d6 e5 bd
       -0.010111278 -0.038337313 -0.20899408 -0.11222638
0003e0 d9 73 0a 3d e3 f5 a3 3d 40 fa bc bd d7 98 38 bd
       0.033801887 0.080058835 -0.09227419 -0.045067634
0003f0 9f 52 7f bc 98 08 51 3d a9 5e e0 3d 83 10 88 bc
       -0.015583663 0.051033586 0.10955555 -0.016609436

attention.out_proj.bias f4 [128]
000000 a2 f4 6e bc 19 3c 56 bc f9 ad d5 3a 69 b4 30 bc
       -0.014584692 -0.013075852 0.0016302458 -0.010785201
000010 9a 06 05 3d 19 bf 7d bb 71 a4 9a 3c 9f 9d bb bb
       0.032477 -0.003871864 0.01887724 -0.005725577
000020 f8 45 e4 3b 72 22 0c bd b7 f0 08 bd e8 21 13 bd
       0.0069663487 -0.034212537 -0.03343269 -0.035921007
000030 a8 65 b3 bc 31 bf 08 bc a7 23 0c 3d 56 cc 45 3c
       -0.02189906 -0.008346365 0.03421369 0.012072643
000040 bf 3f b5 3c 1c 71 b6 bc dc f1 8a bb 76 46 86 3b
       0.022125123 -0.022270732 -0.0042402577 0.004097755
000050 bb 8e 37 bb 17 9f 67 bc 64 39 83 3a 5e 58 a5 3c
       -0.0028008658 -0.014137051 0.001001161 0.020183738
000060 19 9b 6b bc be 05 23 bc 7b 22 bc 3c 2f 56 cf 3c
       -0.01438024 -0.0099500995 0.02296566 0.02530965
000070 49 d4 0b 3d 2b 12 15 bc 87 3f f5 3b a6 e9 48 3c
       0.034137998 -0.00909857 0.0074843797 0.012262737
000080 b6 3d b6 3c fb 40 87 3c 32 d5 7d bb ca fe 83 bc
       0.022246223 0.016510477 -0.003873181 -0.016112704
000090 9d cc 16 bc 11 4d f6 bc a5 ac b8 3b 4c 07 ea 3c
       -0.009204057 -0.030066045 0.005635815 0.028567933
0000a0 ae cf ca 3b 71 44 c6 3c d5 ba fe bc 45 f4 e3 3c
       0.006189308 0.024202557 -0.031094948 0.027826438
0000b0 de 14 83 bb a6 50 f3 3c c7 42 37 bc ef 24 8c 3c
       -0.0040002903 0.029701542 -0.011185355 0.017107455
0000c0 ab db 97 bc 7e 63 dd 3b 1b 9c ce bc 8d 3e 21 bc
       -0.018537363 0.006756245 -0.025220921 -0.009841573
0000d0 00 1a 08 bc d0 d8 f9 3c 62 8a b3 bb 6a 89 3c bc
       -0.00830698 0.030498892 -0.005479143 -0.011507371
0000e0 0d b3 2d 3d c2 35 d8 bc 21 6b b7 3c 75 82 5e bb
       0.042407084 -0.026392821 0.02238995 -0.003395227
0000f0 7a fb 29 3d d2 8f 30 bb 77 6d d3 bb 9e a5 2e bc
       0.041499592 -0.0026941192 -0.006452258 -0.010659603
000100 b8 89 22 bc 31 4c c6 bc 03 d6 ff 3b 43 50 24 bc
       -0.00992053 -0.024206253 0.0078074946 -0.0100289015
000110 b5 7b 43 3c e3 2c c0 bc 9f 23 cc bb f0 04 db bc
       0.0119313495 -0.023458904 -0.0062298323 -0.026735753
000120 90 ed 23 3d 31 06 d3 bc 48 29 dc bb 2b 6c 91 3c
       0.04002148 -0.025759788 -0.0067187883 0.017751774
000130 e5 8a 5b bc 65 32 62 bc fb 38 b0 3a a5 c0 81 3c
       -0.013399814 -0.01380596 0.0013444716 0.01583893
000140 08 80 85 bc dc 64 c5 3c 81 4b 4c bc 21 62 4d 3c
       -0.016296402 0.024095945 -0.012469173 0.012535603
000150 db b2 81 3b 3d b1 ba bc 44 b2 c9 bb 05 e3 a5 3c
       0.003958089 -0.022789592 -0.006155284 0.020249853
000160 b6 27 01 3d 83 03 83 3c f0 93 04 bc 9e ca 40 3c
       0.031532012 0.015992885 -0.008091912 0.011767058
000170 f5 ea b4 3b a2 4e f1 bb 55 9c 3f bb e4 bf e2 bb
       0.005521173 -0.00736411 -0.0029237468 -0.006919848
000180 0b 65 25 bc 10 be 37 bd f6 ed b3 3c a8 a1 46 bc
       -0.010094891 -0.044858992 0.021964055 -0.012123503
000190 7d f5 8c bc 22 3a ed 3c 2e 08 e2 3c 7a 93 00 3d
       -0.017206902 0.028958384 0.027591791 0.031390645
0001a0 d4 15 a2 3c 7e c6 0f 3c 19 35 11 3c 95 92 1e 3c
       0.0197858 0.008775352 0.008862757 0.009678503
0001b0 80 5a 28 3d 53 ff c9 bc 96 0c 8a 3c d8 a8 be bc
       0.041101933 -0.02465788 0.016851705 -0.02327387
0001c0 49 dc 73 bc 01 2a 17 3b 55 8a 80 3c 2d c9 ae 3c
       -0.014884063 0.0023065808 0.015690962 0.021336162
0001d0 62 02 8b 3c 4d 6e a3 bb 08 f0 0a bd 41 a2 98 3c
       0.01696891 -0.004987514 -0.033920318 0.018632056
0001e0 1d 6f b8 3c 3a fe 0b 3c 8e 9e e4 3b 22 38 b8 bb
       0.02251392 0.008544499 0.006976909 -0.005621926
0001f0 a4 d4 97 bc af 5f b1 bb 83 8a 68 3c 9c 18 b5 bb
       -0.018534012 -0.0054130177 0.01419318 -0.0055266153

attn_norm.weight f4 [128]
000000 c0 d9 00 40 18 0b 05 40 37 be c9 3f 4f 30 2b 40
       2.0132904 2.078802 1.5761174 2.6748235
000010 67 a8 00 40 fe 40 10 40 4c f5 06 40 57 89 d6 3f
       2.0102785 2.2539668 2.1087217 1.6760663
000020 72 4b 17 40 7b 39 07 40 13 03 e4 3f 19 02 1d 40
       2.3639798 2.1128833 1.7813438 2.453253
000030 65 db f5 3f 84 7e 11 40 af 24 eb 3f 09 e9 1a 40
       1.9207579 2.273347 1.837057 2.4204733
000040 f8 88 e2 3f de af ee 3f d3 27 08 40 6c cc 1c 40
       1.769805 1.864742 2.1274307 2.449977
000050 57 8f 02 40 48 2f 0c 40 8c 6f ed 3f 07 e4 00 40
       2.0399988 2.1903858 1.8549666 2.0139177
000060 5c 4f 00 40 c5 36 0a 40 9b 7f e5 3f a5 c8 e2 3f
       2.0048437 2.1595929 1.7929567 1.7717482
000070 ce d8 15 40 ed 45 09 40 77 1c fb 3f 00 2a 2c 40
       2.3413577 2.144893 1.9618062 2.6900635
000080 c7 64 12 40 3b 35 fb 3f 1c 8d 1c 40 9c 31 07 40
       2.287401 1.962562 2.4461126 2.112403
000090 21 4b eb 3f c9 63 fa 3f e0 6b 01 40 ad 4a 1a 40
       1.8382303 1.9561702 2.0222092 2.4108078
0000a0 c4 c7 24 40 fd b1 19 40 dd 16 fa 3f de 45 f5 3f
       2.5746927 2.4014885 1.9538227 1.9161947
0000b0 51 d7 30 40 58 7f 25 40 20 9f 10 40 86 10 03 40
       2.7631419 2.5858974 2.2597122 2.0478835
0000c0 ec bb ed 3f 93 37 16 40 58 26 08 40 ae bf cc 3f
       1.8572974 2.347142 2.1273403 1.5995996
0000d0 df 39 cd 3f 65 6a ca 3f 24 8e dd 3f f4 93 07 40
       1.6033286 1.5813719 1.7309003 2.1184053
0000e0 dd 5d 08 40 47 62 0d 40 c5 7a e9 3f 05 3b db 3f
       2.130729 2.2091234 1.8240591 1.7127386
0000f0 96 91 f9 3f 5b 81 c9 3f 93 96 e7 3f 28 86 07 40
       1.9497554 1.5742601 1.8092827 2.1175632
000100 2c 96 f6 3f 11 06 11 40 69 b1 2b 40 4b 14 00 40
       1.9264579 2.2659953 2.6827033 2.0012386
000110 66 80 19 40 ff 35 c6 3f 1b 72 17 40 6b 3e 17 40
       2.3984618 1.5485228 2.3663394 2.3631847
000120 9c f5 eb 3f ae 9d fa 3f 48 f6 10 40 c0 ac 10 40
       1.8434329 1.957937 2.2650318 2.2605438
000130 83 ab 08 40 72 27 fe 3f 0a 4e 0f 40 1c 45 a0 3f
       2.1354682 1.9855788 2.2391381 1.252109
000140 85 b8 11 40 7c 91 18 40 84 a4 0a 40 1e 98 dd 3f
       2.2768872 2.3838797 2.1662912 1.7312047
000150 fc ab f5 3f b9 c0 1e 40 13 42 e3 3f d5 5e 02 40
       1.919311 2.4805129 1.7754539 2.037038
000160 f8 a5 d4 3f c6 a6 04 40 7f a5 12 40 0c d3 26 40
       1.661315 2.072679 2.291351 2.6066313
000170 22 03 fb 3f aa c5 cd 3f f3 dd e7 3f 9e 1f 31 40
       1.9610331 1.6075947 1.8114609 2.7675548
000180 41 ed 12 40 7f dc 2b 40 32 45 02 40 e1 b1 d1 3f
       2.2957308 2.685333 2.0354733 1.6382409
000190 c3 fd e9 3f ba 68 1b 40 5d 91 f5 3f a7 4e e7 3f
       1.8280567 2.428267 1.9184986 1.8070878
0001a0 d7 d3 03 40 90 07 e4 3f 3f 3f 03 40 1c dd 08 40
       2.0598047 1.7814808 2.0507352 2.1384954
0001b0 8b 05 22 40 e3 d2 24 40 50 60 f8 3f c6 39 20 40
       2.5315883 2.5753715 1.9404392 2.5035262
0001c0 64 9e 2b 40 64 f7 22 40 0e fb 0a 40 5d cc ec 3f
       2.6815424 2.5463495 2.1715732 1.8499867
0001d0 4f b9 0b 40 f2 f3 0f 40 ad 8b d6 3f b5 eb ea 3f
       2.1831853 2.2492642 1.6761376 1.8353182
0001e0 a5 3b f7 3f bd 4c d2 3f 0f 22 03 40 05 15 f5 3f
       1.9315077 1.6429669 2.0489538 1.914704
0001f0 a7 70 1a 40 5c 3d 17 40 39 88 f6 3f a0 ee fd 3f
       2.4131258 2.36312 1.9260322 1.9838448
