models/maddpg_best/critic_0.pth (torch, 488333 bytes, 13 tensors)

encoder.0.weight f4 [128, 37]
00000000: 804c 783c 4afc 8cbd a81e 49bc 58f4 ae3c
00000010: c0e5 f13b 8c0a 8ebc 9e88 063d 8fec a9bc
00000020: ec90 01bc ceff 853c c079 b23c 2847 3a3c
00000030: 41bd 853d c21e 52bd 172f babd d05a fd3a
00000040: a7b1 a2bd 7cae 6b3d 389a fd3c 67bb 32bd
00000050: bfce 243c ba00 9abc d1bf 8c3c e7f4 1fbc
00000060: c5e5 99bd 1839 9cbc 425a 12bd 5729 163c
00000070: 2674 183b cea0 33bd ddd3 ce3b c725 16bd
00000080: 675c 0ebd 0bef 403d 0f7e 9bbc 035c 3d3d
00000090: 30ba a43c e407 b63d 1731 b53d 0b36 8d3d
000000a0: 4f10 ae3c 347b d03b 49c2 a93c 7f82 193d
000000b0: 45e9 34be 5dde a93d 9003 84bd 0e74 0c3e
000000c0: 5535 dabd 2e5a c23b e8a7 793c dd23 5cbc
000000d0: c13a 263d 260d b33b 73ca f93e d697 03be
000000e0: 316c 33bc 7c57 243e b29b 80bd de27 a23d
000000f0: 86e9 833d 8cbb 7f3e c03b 383b 5f82 7cbd
00000100: 626c 93bd 3b91 71bd 7963 953d eaf7 65bd
00000110: d600 8dbd ccd9 d03d 8fa4 983d d465 473d
00000120: 2954 88bd 4a9d 803d a039 533e 3f29 053d
00000130: 3500 b3bd ad83 083c c936 73bc f6dc 0e3e
00000140: 8d1d 943d 348d 37be cd9d babe ac78 a03c
00000150: 5fbe 0c3d c63e d73d f93a 5fbd 0b10 49bd
00000160: 812a 17bd 596b 02bd eeef 11bc 0e5c 213d
00000170: a0e8 86bd f6d6 093d 247d 203e 87e2 0d3e
00000180: 7b86 d33c b0aa b2bd 9db7 be3d 984a 12bc
00000190: c2c5 85bd 29b1 5fbe 1a5a 97bc 15b9 d4bc
000001a0: 0468 763d 3958 613d df98 99be c9bd e9bb
000001b0: c6d7 6bbd 9b4a 903c c324 443d d1fc e33c
000001c0: cfbf 4cbd 2afb aebc 0f1d 7c3c 4100 06be
000001d0: 5483 2b3d 82d9 34bc 0ef8 e9bd bdde 4e3e
000001e0: 44d2 9ebe abf3 7abd 257d 74bd 7d11 78be
000001f0: 5d98 d3bc 23e1 89bd 39ae 85bd b35a 53bd
00000200: 3df7 b03e 5f55 9abe 1076 2d3c 7286 d2bd
00000210: 9a2c abbd a4c8 a33d d5ec 6bbd e525 0abd
00000220: 774b 3e3d 53bc 2fbc 525f 2dbc c72d d7bd
00000230: 2cee 883c 695b 633d eb91 673d 0d49 56bd
00000240: 3be5 463d 11c7 423d e0bd 3e3e 7e20 1cbe
00000250: cbbd 23bd ef24 8c3c 774e 063e ac1c 423d
00000260: 9586 18be e0fc 63bd 99d9 c73b f9e3 39be
00000270: 78b7 55be 98de 9e3d 6d3d bbbd 685c da3d
00000280: 198c 5abe 2265 25bd 2346 dc3d 8f9f 5cbd
00000290: bd0c 843d 45dc 79be 52e9 143e 1ea7 32bd
000002a0: ff91 bdbd a9a9 74be 0962 7d3d 9d29 823e
000002b0: f9b4 773e 5163 abbb 23a6 8ebd b045 d43d
000002c0: eae9 803d 373c 12bd 387c cf3d e5b1 62bd
000002d0: a306 5cbc a249 923d c5d2 90bc f80e 9ebd
000002e0: 8536 013d 0522 c2bd 1e17 21bd 6f52 c43b
000002f0: e8c3 b63c 01d2 653c 97d9 6b3c ae97 c4bd
00000300: 21a8 7f3c 64c9 c4bc 2b8e dfb8 0961 71bd
00000310: 8036 b93d 5a05 aa3d 1287 0a3e 2858 58bd
00000320: 38b4 2c3c 66c1 9c3d 421a 493e 110f 1ebe
00000330: 2cc5 16bd 4f04 8f3d b91e 013e 16f9 13be
00000340: 8ee0 bb3c 48ee fe3d 2bf9 683d 9a3f 85bd
00000350: 89e1 cb3d 3c79 243e bd0b a43d 8a21 07bd
00000360: 045e 073d ec52 fa3d 6bbf 093d a846 273d
00000370: 44d4 9e3d 006d f53d c6fb 14bd 5f57 b23c
00000380: 91a1 af3c 63c7 34bb 4e72 f0bd 9d73 503d
00000390: 0352 a33b c135 9dbd cf4a 153a 60d0 033e
000003a0: 515a 8fbd f4fc 833d 6c67 6fbd 5866 263d
000003b0: f489 81bc 07ca 87bc e91a cabd 50b7 22be
000003c0: dfb7 213e b1c7 b43d cc41 4c3e c828 a9bc
000003d0: 0059 d43c 93a7 75be d025 aebd 7005 65bd
000003e0: 9427 70bd a404 2d3e 164b af3c f96f 2ebd
000003f0: 2964 a93d ee35 4cbd ca5e a0bc 833d 7fbe
0.015154958 -0.06884058 -0.012275375 0.021356747 0.0073821247 -0.017339014 0.032845132 -0.020742683
-0.007908087 0.016357329 0.02178657 0.011369504 0.06530238 -0.051298864 -0.09091013 0.0019329432
-0.07944041 0.05753945 0.030957326 -0.043635752 0.010059058 -0.018799175 0.017181309 -0.009762979
-0.07514528 -0.019070193 -0.035730608 0.00916513 0.002326259 -0.043854527 0.006311877 -0.03665712
-0.03475609 0.04710297 -0.018981008 0.046230327 0.020108312 0.08888224 0.08847254 0.068950735
0.02124801 0.006362343 0.020722525 0.037477966 -0.1766711 0.082943656 -0.06445992 0.13716146
-0.106547035 0.0059311604 0.015237786 -0.013436285 0.040583376 0.005464214 0.4878727 -0.1285089
-0.010951088 0.16048998 -0.062796965 0.0791776 0.064410254 0.24973887 0.0028111786 -0.06164777
-0.07198407 -0.058976393 0.072943635 -0.056144632 -0.06884925 0.101977915 0.07453262 0.048681095
-0.06656677 0.062800005 0.20627451 0.03251004 -0.08740274 0.008332175 -0.014844605 0.13951477
0.07232199 -0.17924958 -0.36448517 0.01958879 0.03436124 0.1051002 -0.0544996 -0.049087565
-0.03690577 -0.031840656 -0.008907301 0.03939443 -0.065873384 0.03365227 0.15672737 0.13855945
0.025820961 -0.08723962 0.09312365 -0.008928917 -0.0653186 -0.21844925 -0.018475581 -0.02596716
0.06015779 0.055015776 -0.29999444 -0.00713322 -0.057578824 0.0176137 0.04788662 0.027830513
-0.04998761 -0.021359999 0.0153877875 -0.13086034 0.04187329 -0.011038186 -0.11424266 0.20202155
-0.31019795 -0.061267536 -0.05968966 -0.24225421 -0.025829488 -0.067323945 -0.06527371 -0.05160017
0.34563628 -0.30143258 0.01058723 -0.1027955 -0.083581164 0.079972535 -0.057598908 -0.033727545
0.046458688 -0.010726052 -0.010581808 -0.10506778 0.016715132 0.055507097 0.056535643 -0.05231576
0.048558455 0.047553126 0.18627119 -0.1524677 -0.039975923 0.017107455 0.1311587 0.047390625
-0.14895089 -0.055661082 0.0060989377 -0.18153371 -0.20870769 0.077573 -0.091425754 0.10662156
-0.21342506 -0.04037965 0.10755565 -0.053863104 0.06447742 -0.24400432 0.1454213 -0.043616407
-0.09256362 -0.23892845 0.06186107 0.25422373 0.2419013 -0.0052303453 -0.06965282 0.10364854
0.062946156 -0.035701957 0.10131115 -0.055345435 -0.013429317 0.071429506 -0.017678628 -0.07717699
0.031546135 -0.09479145 -0.039328687 0.005991272 0.022310212 0.01402712 0.014395139 -0.09599243
0.01560405 -0.024021812 -0.000106599495 -0.05893043 0.09043598 0.08301802 0.13528088 -0.052818447
0.010541014 0.07654075 0.19638923 -0.15435435 -0.03680913 0.06983244 0.12609376 -0.14450487
0.022934224 0.12447792 0.05687825 -0.06506272 0.09955127 0.16061872 0.080100514 -0.03299097
0.033048645 0.12222847 0.033629816 0.040838867 0.0775533 0.11983681 -0.036372922 0.021770177
0.021439346 -0.0027584664 -0.11740552 0.050891507 0.004984142 -0.07676268 0.0005695046 0.12872458
-0.06999648 0.06444731 -0.05844824 0.040624946 -0.015812851 -0.016575826 -0.09868414 -0.1589024
0.15792798 0.088271506 0.19946975 -0.020649329 0.025921345 -0.23989706 -0.08503306 -0.05591339
-0.058631495 0.16896302 0.021398108 -0.042587254 0.08271057 -0.04985612 -0.019576449 -0.24925809

encoder.0.bias f4 [128]
00000000: 0000 0000 53c4 213b 7468 68bc c326 c93a
00000010: 06aa 19bc 32af 6c3c 5858 52bc 729f 74bc
00000020: 26d5 bdbc 3a9a 6d3b 14eb 88bc dec8 603b
00000030: 618a 02bd ca21 193b ea56 77bc 2ce3 823b
00000040: 2cb5 043c 90aa 153c d732 82bc 1542 a4ba
00000050: a585 31bc 324c 65bb a6f2 8bbc 758e b73c
00000060: 7874 aebc 2bb3 7cbb 4493 ac3c 46d5 8fba
00000070: 74d9 143c 910a b8bc 8719 21bd ff18 6b3b
00000080: 07b1 4bbc 2c5f 9b3c e258 2f3a 0b94 cabb
00000090: 132b a43b 5eb1 9fbc 990e 4dbc fff4 72bc
000000a0: 0b37 cdbb 76c5 ebbb 3be8 fdbb 0d1d 2039
000000b0: 63e0 4ebc 84b7 113a 6bc1 ebbc efb5 bbbc
000000c0: f5b3 82bc fae5 de3b ac40 5ebc a136 8dbc
000000d0: 0000 0000 9766 82bb 4db7 e5bb b413 2b3c
000000e0: 9d84 18bd f450 03bd 6e79 13bc 6cf1 8e3c
000000f0: 7abd cabc 6e88 80bc d4f4 733c d4da 073c
00000100: 7455 81bd a072 833c a431 3d3c 442f 7ebb
00000110: b530 08bd 8677 fcbc d93e 8fbc 27d0 0bbd
00000120: f2b9 92bb 2a0c eebc 8dac e8ba bfb1 293b
00000130: 3481 a4bc 0b0e 6c3c eef0 30bb 92aa b03c
00000140: 0546 e4bc d17e 82bc 15af 91bb 53e9 833c
00000150: 0d8d 04bc 46df 03bd b3f0 29bc 47dd 1fbd
00000160: 57ee 7c3b ebec 483c 15f5 93bb e550 9c3b
00000170: d06a a03c 47fd abbb 8daf 7339 6e65 633a
00000180: b939 be3a 3ac4 503c d735 1b3c 4088 003d
00000190: 5ec3 22bc 954e 1bbc 0000 0000 14d4 0c3c
000001a0: e42d 16bc 98fc d1bb 66d8 a9bc c92a 1abc
000001b0: 95fc 74ba 0000 0000 aa2e 8fbc 4a78 df3a
000001c0: 3783 e53b 15f4 0a3d 077c 60bc 38fe c2bc
000001d0: 8111 2ebc 9ade 403c 668a 81bd 8dbf f4ba
000001e0: 414f 01bd 9713 babc f3ab 76bc 7aab a6bc
000001f0: 3732 a3bc b591 03bc 2179 38bc aebe adbb
0.0 0.0024683669 -0.01418506 0.0015346635 -0.009378916 0.014446067 -0.012838446 -0.014930593
-0.023172926 0.0036255256 -0.016713656 0.0034299414 -0.03187025 0.0023366087 -0.0150964055 0.003994366
0.008099835 0.009134904 -0.015893383 -0.0012531901 -0.010835086 -0.0034988043 -0.017083477 0.022406796
-0.021295771 -0.003855894 0.021066315 -0.0010973595 0.009085048 -0.022465976 -0.039330985 0.0035873053
-0.012432343 0.01896628 0.0006688965 -0.006182199 0.0050100177 -0.019493755 -0.012515687 -0.014828919
-0.006262665 -0.00719517 -0.0077486313 0.00015269611 -0.01262674 0.0005558657 -0.028778752 -0.022913901
-0.01595495 0.0068023177 -0.013565224 -0.017237963 0.0 -0.003979515 -0.0070103765 0.010441709
-0.037235845 -0.032059625 -0.009001119 0.017449103 -0.024748553 -0.015690055 0.014889915 0.008291919
-0.06315127 0.016045868 0.01154748 -0.0038785497 -0.033249576 -0.030818712 -0.017486023 -0.034134056
-0.004477733 -0.029058535 -0.001775162 0.0025893298 -0.02008114 0.014407645 -0.0026999074 0.02156571
-0.02786542 -0.015929611 -0.00444592 0.016102469 -0.00809027 -0.032195352 -0.010372329 -0.039029386
0.003859421 0.012263517 -0.0045153 0.0047703856 0.019582182 -0.005248699 0.00023239684 0.0008674477
0.0014513052 0.012742097 0.009473286 0.031379938 -0.0099342745 -0.009479185 0.0 0.008595485
-0.009166215 -0.0064082853 -0.02073307 -0.009409615 -0.0009345499 0.0 -0.017478306 0.0017049399
0.0070041674 0.03392418 -0.013701445 -0.023802862 -0.01062429 0.011771822 -0.063252255 -0.0018672809
-0.031569723 -0.02271442 -0.015055644 -0.020345438 -0.019921405 -0.008030345 -0.011259348 -0.005302272

encoder.2.weight f4 [128, 128]
00000000: 0035 adbc b880 4d3c 79f0 e1bc 2c27 313d
00000010: 610e 663d 39cb 503d 0146 c23d 828b 993d
00000020: e0ee 11be 49b9 bfbc ea71 95bd 5e5d 3f3d
00000030: 5097 b1be 35dc 883d 9bc4 7cbc 5733 62bd
00000040: ee0b 4d3d e565 3d3c e1bf 723e a3ed f9bd
00000050: b8e0 573d 85bb 00bd dc9f 3a3e 6be7 06be
00000060: 7bc7 79bd 9e51 0b3e b2da 283d aa03 043e
00000070: 8ea9 fdbd ed90 37bc 8123 72be 464d cd3c
00000080: ea16 a03c 2ec5 263e dbdd 163e 7e74 23bd
00000090: c67e 963d 7849 aa3d 227c 8a3d b4b9 153e
000000a0: 14d5 d5bd 3b4f 22bd e9c2 a23d 1456 0a3b
000000b0: 4c53 86bc 80d7 283e 4c98 c6bd b6b6 b7bd
000000c0: 4429 b7bd e0cd 483d 94a6 1cbe 375d a7bd
000000d0: e98e 823d b79e fc3d 8395 c9bd 3763 0e3e
000000e0: 3021 5b3d 85a4 09bc aed6 9d3d 4eeb 4ebc
000000f0: 11b5 bcbc 78a3 85bc cf20 913d 48ac 2f3e
00000100: e5cd 493d 8b6e b7bd 3cb5 2b3e 6e81 b23d
00000110: 66d9 45be 3303 20be eb3b 083e d760 b1bd
00000120: f036 8a3d 50df 2b3d f771 1abc 3f39 313d
00000130: bf62 ba3b 45a1 2d3e b319 4aba a4df 44bd
00000140: 545c d03d 24ad 5dbd 9557 b53d d39c 423d
00000150: fcf9 77bd 3a86 6b3e 02ff e63e 840c 0d3e
00000160: 68cd 133e 8cd1 dcbb 9ea3 debc 8cc2 e53d
00000170: 35b2 cbbc 2812 943d 08ae 55be 261c 633c
00000180: 3f5b a0bb 6bd1 c53c f95c 55bd bdde 91bd
00000190: 6466 6fbc 34be 2c3d 651d c43c 2ead 40be
000001a0: 1d45 93bd e330 92be 9399 c4bc 95e3 8abc
000001b0: c46f dc3d d1ac c6bc f7e1 b3bd 5fb0 063d
000001c0: 1426 363c 7596 30bd 00bc a9bc 225a 07bd
000001d0: 5a78 333c cedc fc3b 262b 69bc 61b0 e6bc
000001e0: 26b8 f83d 1f81 963c 4770 58be 4c10 493e
000001f0: 9421 0e3d 34a6 9dbd 6909 02be 92ee 85be
00000200: 3411 2a3d 8474 7ebd c7cc fabc 00da e5bd
00000210: 74dc e03c 2bc9 06bd 5230 9fbb 64af 34bd
00000220: efdf ec3d 3a96 12bf 73bb 59bd cb00 1abe
00000230: 4c99 523e 5412 013e 89cd 7e3d 16cf 263d
00000240: e7b7 7b3d af0e 423e 60ec 0e3e 996a 7c3e
00000250: 040b cebc ba99 bb3d a07c ccbd 2a42 b33d
00000260: 01a9 38be c986 cfbd 8288 40bc 4621 653d
00000270: 1cf7 c13d 3978 39bc a8f9 573e bdcd 9a3d
00000280: c6cd 883d 1268 1c3e cd1f e1bd 0325 093e
00000290: bf15 2c3d 8002 403e 46ec b1bc d7b5 a53e
000002a0: 3040 d3bd 9d27 2dbb 1099 3cbd d7c9 a23d
000002b0: e871 2a3d 845f 4b3e e14c bebd 49c2 ae3d
000002c0: 655f 33bd c138 f6bc 7446 22be ed33 113e
000002d0: e412 c13b 74bb 7abd 8583 82bd a6de 923d
000002e0: b558 713c 3335 923d 0ee4 87be 262c 7cbd
000002f0: 4677 01be 17af aebd e3b7 03be b844 b03d
00000300: 485f 583e 6e16 82be e798 2fbe 5f62 37bd
00000310: e696 d23e fe2f 223e 0942 453e 08e2 d73c
00000320: 161a 243d 7efd 11bd 6fdd 3a3e 3d1c 853c
00000330: 3049 743d e653 b53e e9a0 f43c 0725 553d
00000340: cdc6 61be ca50 833e 84cf 0b3d 552b e43e
00000350: c161 0cbe fbf1 4a3e 734a f23e 22b7 3fbd
00000360: ea5b 4f3e 6d26 0a3d b6ac 7dbd 4baf 273e
00000370: c2ea f4bd 7fc6 29be 233f e9bd 3bd5 f8bd
00000380: 98b6 14bd 634b 8ebd 63e0 16be ad3e 89bd
00000390: a650 b8bc f32e 253d 6c0c 863c 0a33 2f3e
000003a0: f187 72be f8b8 cdbc 3704 17bd a784 483d
000003b0: 584c 2dbe c8aa 6f3d 94f3 fabc 059f 883d
000003c0: 50f5 1e3d e12c d53d f782 793c e049 ce3c
000003d0: e677 3d3e 6bf2 163e 545d cb3c 1c60 ebbc
000003e0: 433f 59bd 8694 7c3d 5285 96bd 2ec3 c43d
000003f0: 7e81 d1bc dac1 ee3c 3d9e 783a 8f7e 1abd
-0.021143436 0.012542896 -0.027580487 0.043250248 0.056166057 0.05097506 0.094860084 0.07497312
-0.1425128 -0.02340378 -0.07297118 0.0467199 -0.34685755 0.06682626 -0.015427734 -0.055224743
0.050060205 0.011559938 0.23706008 -0.12203529 0.052704543 -0.031428833 0.18225044 -0.13174216
-0.060981255 0.13605353 0.04122419 0.12892023 -0.123858556 -0.011203987 -0.23646356 0.02506126
0.019542176 0.16286156 0.14733069 -0.039906017 0.07348399 0.08314794 0.06761958 0.14621621
-0.10441032 -0.03962634 0.079473324 0.0021108435 -0.01639714 0.16488457 -0.09697017 -0.08970396
-0.08943418 0.049024463 -0.1529792 -0.08172076 0.06374914 0.1233496 -0.0984297 0.13905035
0.053498447 -0.008401041 0.077069625 -0.012629343 -0.023035558 -0.0163133 0.07086336 0.17155564
0.049268622 -0.08956631 0.16768354 0.08716093 -0.19321212 -0.1562622 0.13304107 -0.08661049
0.0674876 0.041961014 -0.009426585 0.043267485 0.005688041 0.1695605 -0.0007709518 -0.048064843
0.1017386 -0.054120198 0.088545956 0.04751284 -0.060541138 0.23000422 0.4511643 0.13774306
0.14433825 -0.006738847 -0.027177628 0.112187475 -0.02486525 0.072300255 -0.20867169 0.013861692
-0.00489369 0.02414771 -0.05209062 -0.07122562 -0.014611814 0.04217358 0.023939798 -0.18816063
-0.07190917 -0.28552923 -0.023999011 -0.016954223 0.10763505 -0.024252327 -0.08783334 0.032883044
0.011117477 -0.043112237 -0.020719528 -0.03304494 0.010953987 0.0077167517 -0.014231479 -0.028160276
0.121444985 0.018372117 -0.2113658 0.19635123 0.03469999 -0.07697716 -0.12698902 -0.26158577
0.041520312 -0.062122837 -0.030615224 -0.11223221 0.02744887 -0.032906692 -0.004858055 -0.044112578
0.115661494 -0.5726048 -0.05315728 -0.15039365 0.2056629 0.12604648 0.062207732 0.040724836
0.06145468 0.18950914 0.13957357 0.24650039 -0.025151737 0.091601804 -0.09984708 0.08752854
-0.1803322 -0.1013313 -0.011751296 0.055939935 0.094709605 -0.011320167 0.2109133 0.07558773
0.06679873 0.15274075 -0.10992394 0.13393025 0.042012926 0.18750954 -0.02171911 0.32365295
-0.10314977 -0.0026421316 -0.04604441 0.07948654 0.041612536 0.19860655 -0.09292007 0.08533151
-0.043792147 -0.03005636 -0.15847188 0.14179964 0.0058921445 -0.061213925 -0.063727416 0.07171373
0.014730622 0.07139053 -0.2654118 -0.06156554 -0.12643155 -0.085294895 -0.12863116 0.08606857
0.21130097 -0.25407737 -0.17148171 -0.04477155 0.4113075 0.1583862 0.19263472 0.026352897
0.04006394 -0.03564214 0.18248533 0.016248817 0.05964011 0.35415572 0.029861884 0.052037265
-0.22048493 0.25647575 0.03413345 0.4456431 -0.13709165 0.1981887 0.47322425 -0.04680551
0.20249906 0.033728052 -0.061932288 0.16375463 -0.11958839 -0.16579627 -0.113889955 -0.121500455
-0.036306947 -0.069479726 -0.14734034 -0.067014076 -0.022499394 0.040327977 0.016363345 0.17109314
-0.2368467 -0.025112614 -0.036869254 0.048954632 -0.16923654 0.05851248 -0.030633725 0.066709556
0.038808167 0.104089506 0.015228978 0.02518171 0.18502769 0.14740913 0.024824776 -0.028732352
-0.053038847 0.06166508 -0.073496476 0.0960754 -0.025574442 0.02914517 0.00094840286 -0.037718352

encoder.2.bias f4 [128]
00000000: f1ad 8cbc 87a5 22bc d4e0 e43c d52b 16bd
00000010: bb3e 30bc 3127 60bc 3b9f 023c 0022 ebbc
00000020: 6632 8a3c 6588 f8bc 97b5 b5bc 725f 393c
00000030: d3a8 2f3c 2dfa 313c d82e 9ebd 163b 553c
00000040: dac9 98bc 4bc2 8abb 8801 82bc ee7c a0bc
00000050: ca8b 073d 7299 03bc 7f43 7b3c 0d5b 5bbc
00000060: ce86 1ebd 2e5a cbba 627d b83c a3ba 013b
00000070: 990b 8ebc 9bfe 423c 5661 f63b d57c 8cbb
00000080: cf41 673b eb84 ca3a 25e2 88bc 62cb 00bd
00000090: 0acb a83a cf6b 2dbd 3c0c 0ebd 95f6 b739
000000a0: e13f 813c db58 31bc b71b 3d3c 31d0 efbc
000000b0: bbc1 aa3b 7ca2 1abb 0e7a 003d 3bdd ecbc
000000c0: 3256 1b3a a134 14bc cc56 24bc ecdc 19bc
000000d0: 4572 8b3b a56a a1bc 2c3b 103c ca67 e33b
000000e0: cc81 b23c 454a aa39 4ebe 803b 18f7 983b
000000f0: 5db3 753c 2403 dcbc 7b9d b3bc ac3d 3fbd
00000100: dc42 273c ac82 ccbc afa5 89bb 887a b83c
00000110: 0188 023d 68c2 eb3a 8765 cfbc bf10 4c3c
00000120: eb2c eabc 63af 2dbb b34c d3bb 1537 36bc
00000130: d255 bfbc 7455 943c c47b b93b 9835 b7ba
00000140: 1969 cfbb e313 16bd 02b0 f53b eb87 0bbb
00000150: f95c 9c3b a52c 48bc 2761 f1bc d53d d73c
00000160: b9b1 3a3c c8db 03bc 9188 ed3b 7144 e83a
00000170: ee5c 4e3b b41c 58bc 8eca 2d3c a440 0ebc
00000180: 0ccc 8bbb e62c 053d ff99 20bc b47f febb
00000190: 2e3f d13b e3f1 9dbc 076b f13b b111 4abc
000001a0: bcdd a63c a691 5d3b 3a89 2fbc de89 d8bb
000001b0: 1d6b 3d39 59bf 3d3b ea7a bebb e27d f03a
000001c0: 6ebc 863c e59e 2e3c 4484 99bc db9f 523c
000001d0: 3c31 73bc 890b 563c 0cdd 97bb 1a4d ab3c
000001e0: 17ab 42bc 11ba 133d fa65 cf3b 8218 843b
000001f0: a7ba 423b df9a 5d3c 70ee 42bc 1b7f 80bb
-0.017172785 -0.00992716 0.027939238 -0.036662895 -0.010757144 -0.013681219 0.007972534 -0.028702736
0.016869735 -0.030338475 -0.022181315 0.01131426 0.010721403 0.010862869 -0.077237785 0.0130145755
-0.018650938 -0.0042345873 -0.01586987 -0.019590821 0.033092298 -0.00803219 0.015335917 -0.013388407
-0.03870278 -0.0015514547 0.022520725 0.0019795082 -0.017339515 0.011901523 0.0075189276 -0.004287342
0.0035287028 0.001545099 -0.016709397 -0.03144396 0.0012877893 -0.042339142 -0.034679636 0.00035088198
0.01577753 -0.010824407 0.011542252 -0.029274078 0.0052110828 -0.0023595383 0.0313664 -0.028914085
0.0005925625 -0.009045751 -0.01003046 -0.009391051 0.0042555653 -0.019704172 0.00880317 0.006939863
0.021790408 0.00032480262 0.003928936 0.0046681277 0.014996377 -0.026856966 -0.021925678 -0.046689674
0.010208812 -0.024964653 -0.004200659 0.022519365 0.031867985 0.0017987015 -0.025316967 0.012455164
-0.028585872 -0.0026502244 -0.0064483522 -0.011121531 -0.023356352 0.018107153 0.005660506 -0.0013977764
-0.0063296673 -0.03664006 0.0074977884 -0.002129073 0.0047718254 -0.012217675 -0.029465271 0.026274601
0.011394911 -0.008048005 0.007248946 0.0017720592 0.0031488496 -0.013190437 0.010607375 -0.008682404
-0.0042662676 0.03251352 -0.0098023405 -0.0077666882 0.0063857054 -0.01928038 0.007367495 -0.0123333195
0.020369403 0.0033808737 -0.01071387 -0.006608232 0.00018064347 0.0028953163 -0.0058129923 0.0018348063
0.016447272 0.010658001 -0.018739827 0.012855495 -0.014843281 0.013064274 -0.004634505 0.020910788
-0.011881611 0.03606612 0.006329295 0.004031242 0.0029713304 0.013525694 -0.011897668 -0.003921402

attention.in_proj_weight f4 [384, 128]
00000000: f740 4abe 15ba 44bf f832 12bf 3a5e c5bf
00000010: 2136 42bf df01 943f 7bd5 d5be abbf e1be
00000020: 19c9 1c3f 67e8 3abf b63f d03f 3054 803f
00000030: 424a f13e eb84 5e3e 59d1 14bf 1ff7 31be
00000040: 8ef8 b2bf f1b9 c73e 2040 44be ebdd 5ebe
00000050: 46f4 ac3f 07d9 363f 2a96 253f 1e1c 9a3e
00000060: 9b4f 9dbd 2f4f 44be 386e 8b3f 361e dbbf
00000070: 8513 d23f 4160 c93e e525 0dbf 40b4 f5be
00000080: ec42 8a3f fc28 32bf 1071 89be 17d1 943f
00000090: 1a87 b9be f550 9bbe 60a3 47bf c167 9bbb
000000a0: 77c1 073f 11f1 053f b59d debe 77e7 b53f
000000b0: 25a9 f9be c131 f03e a538 01bf 0144 7b3f
000000c0: 47ec a6be fb53 58bf f10a 85bf 888e 43bf
000000d0: a61f 3cbe 4acc 923f 1e61 acbf c7db 89bf
000000e0: 93c1 893f 1832 d2be 8de0 553f ce00 ebbf
000000f0: 9524 37be b2f5 96bb f7e8 6a3e b584 47bf
00000100: e9b6 0dbf ca7f 27bf 6d7a d73e f40c 503f
00000110: 3697 253f c40a a43f 6af1 853f fcc2 fb3d
00000120: e21f f4bf 07ea 223f f4b8 7bbf ef72 ca3e
00000130: 6f96 6a3f 4fc9 c8bf 3d0c 97bf 7cd7 e83e
00000140: 3903 5ebf c482 02bf 4a13 07bf 46fa ea3e
00000150: 5577 b6bf bacf 8e3f 00f6 99be d454 ebbf
00000160: 4a7f de3d 59f0 bf3c bc0b c43e 87af 25be
00000170: e57d dc3f 4cce 013e dc56 93bf 0a73 b8bf
00000180: 4f6b 903e 28bf 7bbf 1af9 a8bf 9d33 943d
00000190: 1006 8dbf 3471 39bf a695 b13e 0d06 f0bf
000001a0: 0589 cf3e 72eb 083f 7e95 bf3f b05d 6c3e
000001b0: fb2a d13f e066 a6bf 1d6a 373f 4e24 a23e
000001c0: b7dc 533f bc72 633f 80d2 063d c2bf 28be
000001d0: 8183 02bf ad5b adbe 6e94 78bf c5d4 fe3e
000001e0: b828 f4bd f20f bbbf 99b1 273f 40e6 c03e
000001f0: 8f43 76bf a374 7a3f f985 bdbd e3d0 a83f
00000200: 149d f9be 90ae 253f f630 233f 4aad 0e40
00000210: eb8e 963f 03d8 84bf bf24 363f 378c 923c
00000220: d1f7 4ebf bfce ab3f e563 b2bf 5995 c2be
00000230: 1cb6 a5be b91b 0bbf e574 81bd 1b9b 0e3f
00000240: 43f8 e03f bbf3 e7be 68b9 af3c 055e c53d
00000250: 03ad 27bf 4dc8 07bf c780 03bf 4365 1c3e
00000260: b0ab 543e d5c0 4fbd 4f74 efbe 8c63 633f
00000270: 5a3f e8bf dd4b c43d 385e 083f e976 303f
00000280: 16ed f0bf 286d ab3f 15a0 393e f3e8 38bf
00000290: 6c99 363f b9ee 553f 2db6 653f 6f43 4dbf
000002a0: 6a3c 4abf a68a cfbe e1b4 223f e54e 82bf
000002b0: 1185 a43f af71 cfbe 2333 583f b66f dbbf
000002c0: 672f 833f d42e 423f 6b3b 503f 9726 343f
000002d0: c87a 8a3e 7634 8fbf c5d0 af3f ef83 a93f
000002e0: bd1a 5cbf be8a 153f a367 fabe a7f1 9a3f
000002f0: 526a d93d 1da1 823f 7974 17bd b518 d73e
00000300: ee82 173f 4254 663f 531f 64bf 6173 5abe
00000310: 3a2a 9bbe b3d3 e1be ea19 77bf b1bf 9a3d
00000320: d82a d63f e1e6 2dbf 8417 3b3f 9498 85be
00000330: a2dd 2dbf 64ed ab3f 9e55 683f 5ea6 e0be
00000340: 3200 b83f ddf8 8ebd 6276 e1bc bd7d 12bf
00000350: 8d89 0b40 eca8 0ac0 c6b8 243f 9132 d63f
00000360: 4c5a 30be 79c1 37bf 57bc debe 2dfa 823e
00000370: 7c88 83bf 34aa 3cbe 0827 c73f 34c1 863f
00000380: d485 5c3e 0892 433f 1f24 c53f 5a26 6dbe
00000390: 20db 893f e3cc c43c db91 4e3e d589 bb3f
000003a0: 8666 563e fccb 04bf 6951 92bf ee91 0fbf
000003b0: bf59 dabf 9dcd 563f 10bf b33e 6d3f cf3e
000003c0: 7448 46bf f6d0 98bf 6163 3fbe f563 7fbe
000003d0: d40c e43e 3272 e6be 509d ee3e fb79 203e
000003e0: fe82 763e 324e 983f 92d3 a2bc 883e fa3e
000003f0: 7ba3 003f 7109 88bf 2341 343f f8b6 83be
-0.19751345 -0.7684644 -0.5710902 -1.5419381 -0.75863844 1.1563071 -0.41764435 -0.44091544
0.6124435 -0.7301087 1.6269443 1.0025692 0.47126967 0.21730392 -0.5813194 -0.17379425
-1.3982103 0.3900905 -0.19165087 -0.21764342 1.3512046 0.7142491 0.6468226 0.30099577
-0.07681199 -0.19170831 1.0893011 -1.7118595 1.6412207 0.39331248 -0.5513595 -0.47989082
1.0801673 -0.6959379 -0.26844072 1.1626309 -0.36235887 -0.30335203 -0.77983665 -0.004742593
0.5302958 0.52320963 -0.43479696 1.4211262 -0.4876186 0.4691296 -0.5047706 0.9815064
-0.3260214 -0.84503144 -1.0393964 -0.7638936 -0.18371448 1.1468594 -1.3467138 -1.0770196
1.0762199 -0.41053843 0.8354576 -1.835962 -0.17885049 -0.004606926 0.22940432 -0.7793687
-0.55357224 -0.65429366 0.4208559 0.81269765 0.64683855 1.2815785 1.0464299 0.1229305
-1.907223 0.6363835 -0.9832909 0.39540812 0.91635793 -1.5686435 -1.180061 0.45476902
-0.8672367 -0.5098078 -0.5276381 0.45894068 -1.4255167 1.1157143 -0.30070496 -1.8385262
0.10864122 0.023430036 0.38290203 -0.1618024 1.722592 0.12676352 -1.1510882 -1.4410107
0.2820687 -0.98338556 -1.320102 0.07236407 -1.1017475 -0.7243836 0.34684485 -1.8751847
0.40534225 0.5348426 1.4967496 0.23082614 1.6341242 -1.3000145 0.7164629 0.31668323
0.8275866 0.88846946 0.032915592 -0.164794 -0.5098191 -0.33859006 -0.97101486 0.49771705
-0.11921829 -1.4614241 0.6550537 0.37675667 -0.96196836 0.97834224 -0.09254069 1.3188747
-0.48752654 0.64719486 0.63746583 2.2293267 1.1762365 -1.0378422 0.7114982 0.017889125
-0.8084689 1.3422469 -1.3936735 -0.38004568 -0.323655 -0.54339176 -0.06321124 0.5570542
1.7575763 -0.4530314 0.021450713 0.096370734 -0.6549837 -0.5304001 -0.51368374 0.15273003
0.20768619 -0.05072101 -0.46768424 0.8882377 -1.8144333 0.09584782 0.53268766 0.6893144
-1.8822353 1.3392687 0.18127473 -0.7223045 0.71327853 0.83567387 0.89731103 -0.8018102
-0.78998435 -0.40535468 0.6355725 -1.0180327 1.2853109 -0.4051642 0.8445303 -1.7143466
1.0248841 0.75852704 0.81340665 0.70371383 0.270468 -1.1187885 1.3735586 1.3243388
-0.859783 0.5841483 -0.48907194 1.2104996 0.10615982 1.0205418 -0.03697631 0.42011037
0.5918416 0.8997232 -0.89110297 -0.21333076 -0.30305654 -0.44106826 -0.96523917 0.075560935
1.6731825 -0.6793042 0.73082757 -0.2609297 -0.6791631 1.3431821 0.9075564 -0.43876928
1.437506 -0.06981061 -0.02752227 -0.5722311 2.1802704 -2.1665602 0.6434444 1.6734182
-0.17221946 -0.7177959 -0.43503067 0.25581494 -1.0276027 -0.18424302 1.5558786 1.0527711
0.21535426 0.763947 1.5401648 -0.23159161 1.0769997 0.024023479 0.20172827 1.4651438
0.20937547 -0.51873755 -1.1431094 -0.56082046 -1.7058638 0.8390749 0.35106707 0.40478078
-0.77454305 -1.193877 -0.18690254 -0.24940474 0.44541037 -0.45009 0.46604395 0.15671532
0.24073407 1.1898863 -0.019876275 0.48875833 0.5024945 -1.0627881 0.7041189 -0.25725532

attention.in_proj_bias f4 [384]
00000000: 0c4c 72bf 437a 8e3f 17ac 74bf c860 3d3f
00000010: bef5 9ebf 6b29 533f ea31 50bf 4a8a 61bf
00000020: 2530 603f cf10 6fbf 4cc2 8abf 34bd 863f
00000030: 8db4 59bf a880 73bf eb79 91bf 1936 3cbf
00000040: 5a0f 6cbf d64d 6a3f 60d7 54bf 3a9b 61bf
00000050: 51a6 7f3f 43dd 8dbf be95 a53f bab4 6f3f
00000060: f9f7 943f 092b 97bf ffc0 64bf d948 5bbf
00000070: 6de8 5cbf eb5c 6e3f b7bb 823f 750c 953f
00000080: 739b 763f 2705 743f f1b4 34bf 77e5 953f
00000090: 3dac 203f 8381 a83f 3df3 823f 7ece 693f
000000a0: 63aa 933f 308a 3bbf 4e81 713f a385 663f
000000b0: d7df 593f 4ab1 903f 6d00 463f 650c 30bf
000000c0: 88b2 873f ad1f 613f d483 393f c528 45bf
000000d0: 031c 2c3f 974e 9b3f 5d5c 90bf 12f4 78bf
000000e0: 469b 73bf caae 9e3f 1ab0 80bf e16f 2a3f
000000f0: 5072 9b3f 851d 813f 1b38 573f a502 333f
00000100: cc89 b93f a82b a0bf 3883 dfbf 92dd 86bf
00000110: 0f70 c6bf f67b 683f 3a3e a1bf 6de1 cbbf
00000120: 83c5 d0bf 52d3 aa3f 5231 a0bf be7d 8abf
00000130: 5d44 e93f fff9 9dbf 736c 533f 4ba5 6e3f
00000140: 172e 8d3f 89c1 c93f b105 70bf 45a6 c63f
00000150: a9f2 b33f 0201 7fbf 39c3 b9bf b537 df3f
00000160: ec2d c8bf 05c5 6fbf 2c7f be3f 9404 873f
00000170: b74f b5bf 7b20 a1bf e24b 9dbf e18f ac3f
00000180: f5fe 80bf 3c51 853f 6dd4 963f 0791 d5bf
00000190: c303 a73f 76d6 b43f c177 50bf 147b b0bf
000001a0: 0a68 aebf 9ee4 713f 9ae4 aabf 8766 bd3f
000001b0: b51f 8b3f 8576 a4bf fc0d 8ebf 5389 90bf
000001c0: 1b66 9fbf c16a 9ebf ade8 533f 3dba af3f
000001d0: 7e4f edbf 9aa6 be3f 7b1b b93f 78e2 963f
000001e0: 39e2 86bf f061 a53f 643b 98bf c371 ab3f
000001f0: 7400 cd3f 79cf c13f 4c66 78bf fff0 ca3f
00000200: 9d20 00b9 2452 4d39 63e3 81b9 0138 4a39
00000210: b0cc 0db9 dcfd c139 0d91 8336 77e8 40b9
00000220: 1f6b ab39 9d2a dcb7 eaa3 43b8 d648 3ab6
00000230: ebd0 40b9 cd00 8438 5b19 0339 814a 88b9
00000240: 353f 99b9 b107 cf38 353f c4b8 0c80 26b9
00000250: e4b3 a739 16a2 feb8 bdf6 e938 9064 cb38
00000260: df4a 8bb8 9deb f1b9 6734 e8b7 8385 97b9
00000270: 5feb 12b9 3ecc 0738 9333 9939 e920 95b8
00000280: 99ad 8139 af33 7539 b14f 56b9 f1ea a138
00000290: 9344 1339 1123 1f39 9d02 1838 c03a c738
000002a0: 51d3 0b39 6cdb 7eb9 7824 90b7 2e1d cd38
000002b0: 26ec d339 dd55 bfb8 53f6 8939 278d e3b9
000002c0: 975d 4037 fef5 3a39 5274 8139 68d2 25b9
000002d0: 7acd 8439 08e5 9d38 84cf 74b9 557e 0ab9
000002e0: dfcd f7b8 732b 62b8 85d8 78b7 c59a 0139
000002f0: defb 3d39 d50e 5f39 0a7b 3638 9a32 1e39
00000300: 8e55 293a d8d9 8bb9 9776 05ba f0e2 15ba
00000310: cf7e 1fba 5a0f e439 0376 04ba 0c10 e8b9
00000320: 8792 ffb9 ff3d 023a 5dcb ceb9 6ab3 c4b9
00000330: 014f 153a 45cf b4b9 217f 2039 44be b839
00000340: 3c44 163a 0e1d e339 b720 71b9 be7d 033a
00000350: b06e db39 cefe f6b9 1129 ecb9 c511 ea39
00000360: 78cb 22ba 9f60 03ba 17f8 143a 5969 d739
00000370: a6af 05ba dc9e 14ba 2855 beb9 fb30 0f3a
00000380: 2ded d3b9 9104 4a39 dc5a ba39 fb0b 2cba
00000390: bf0f e439 68c8 0b3a d72c e2b9 c0f7 01ba
000003a0: e7f0 86b9 2dcc c139 6cb7 b3b9 0715 083a
000003b0: 170c b039 2d07 06ba 89c7 a1b9 b126 cab9
000003c0: ec1b 17ba 8df4 a6b9 beef ab39 8411 c339
000003d0: da43 15ba 682b fe39 f893 f839 f360 093a
000003e0: 6b40 f4b9 4030 fd39 f4ef ffb9 8f2c d539
000003f0: f96a 173a d7f8 1e3a 3896 7bb9 5e00 073a
-0.9464729 1.1131061 -0.9557509 0.739758 -1.2418745 0.82485074 -0.8132616 -0.8810164
0.8757346 -0.9338502 -1.0840545 1.052649 -0.85041124 -0.9511819 -1.1365331 -0.73520046
-0.92210925 0.9152502 -0.83141136 -0.8812748 0.99863154 -1.1083149 1.2936323 0.9363514
1.1638175 -1.1810008 -0.8935699 -0.8565803 -0.86292154 0.9311053 1.0213536 1.1644427
0.96330947 0.9532036 -0.70588595 1.1710652 0.62762815 1.3164524 1.023048 0.9133071
1.1536373 -0.7325773 0.9433793 0.90047663 0.8510718 1.1304104 0.773444 -0.6876891
1.0601358 0.8793896 0.7246678 -0.77015334 0.6723024 1.2133359 -1.1278187 -0.9724742
-0.95158803 1.2397091 -1.0053742 0.66576964 1.214426 1.0087134 0.84069985 0.6992591
1.4495177 -1.2513323 -1.746192 -1.0536368 -1.5502948 0.9081415 -1.2597115 -1.592817
-1.6310276 1.334574 -1.2515051 -1.0819623 1.8223988 -1.2341918 0.82587355 0.9322097
1.102969 1.5762187 -0.93758684 1.5519491 1.4058429 -0.9961091 -1.4512702 1.7438875
-1.5639014 -0.9366 1.488256 1.0548272 -1.4164952 -1.2588037 -1.2288783 1.3481408
-1.0077807 1.0415416 1.1783577 -1.6684884 1.3048023 1.4127948 -0.8143273 -1.378756
-1.36255 0.9448947 -1.3351014 1.4796914 1.0869051 -1.2848669 -1.1098018 -1.1291908
-1.2453035 -1.2376329 0.8277691 1.372871 -1.8539884 1.4894593 1.4461511 1.1787863
-1.0537788 1.2920513 -1.1893125 1.3394092 1.6015763 1.5141441 -0.9703109 1.5854796
-0.0001221918 0.00019580923 -0.00024774214 0.00019285084 -0.0001352306 0.0003700097 3.9209904e-06 -0.00018397147
0.00032695473 -2.6245887e-05 -4.664428e-05 -2.7758556e-06 -0.00018388375 6.2944e-05 0.00012502579 -0.0002599545
-0.00029229527 9.871962e-05 -9.3577815e-05 -0.00015878695 0.0003198675 -0.00012141855 0.000111562644 9.6985255e-05
-6.641982e-05 -0.00046142648 -2.7680957e-05 -0.00028900438 -0.00014011328 3.2376724e-05 0.0002922086 -7.111004e-05
0.00024734138 0.00023384274 -0.00020438318 7.7208395e-05 0.00014044558 0.00015176485 3.6242058e-05 9.5000025e-05
0.00013334794 -0.00024305069 -1.718312e-05 9.780597e-05 0.00040421 -9.123583e-05 0.00026314202 -0.0004340198
1.1465882e-05 0.00017829982 0.00024691463 -0.00015814009 0.00025330094 7.529004e-05 -0.00023346959 -0.00013207768
-0.00011816224 -5.3923064e-05 -1.4832364e-05 0.00012360055 0.00018118272 0.00021272463 4.350677e-05 0.00015086905
0.0006459587 -0.00026674452 -0.00050912186 -0.0005717715 -0.00060842646 0.00043498987 -0.00050529855 -0.00044262444
-0.00048746562 0.00049683446 -0.000394429 -0.00037517707 0.00056956714 -0.00034486703 0.00015306148 0.00035236974
0.00057322136 0.0004331846 -0.00022995738 0.00050159905 0.00041853404 -0.0004711062 -0.00045044025 0.00044645197
-0.0006210129 -0.0005011651 0.000568272 0.00041086486 -0.0005099721 -0.0005669424 -0.0003630307 0.0005462316
-0.00040421766 0.00019265922 0.0003554438 -0.00065630645 0.0004349928 0.0005332292 -0.00043139487 -0.0004957877
-0.00025737958 0.0003696395 -0.000342782 0.00051911216 0.00033578344 -0.00051127636 -0.00030856978 -0.0003855727
-0.00057643536 -0.00031844192 0.00032794283 0.00037206348 -0.00056940096 0.00048478995 0.0004741249 0.0005240582
-0.00046587302 0.0004829187 -0.0004881617 0.00040659725 0.0005776133 0.00060643017 -0.00023993186 0.0005149896

attention.out_proj.weight f4 [128, 128]
00000000: 1318 e0bd cdec 14be e4f8 87bd 9bcd 0a3d
00000010: 39b8 bbbd 1103 46bd a1bc 6d3d 083d 80bd
00000020: d129 193b 6d1a 973d 1781 37bd c5e7 83bc
00000030: 4970 453d edb8 013d b5e6 703d 2959 03bd
00000040: 1973 3c3d 6fcf 563b 83b0 6bbd 4b0d e1bc
00000050: 5551 663b 81ed 16bd 2e4d 723d d6ad a7bc
00000060: a53f 1bbd 5362 8c3d d11c 063e feee 55bd
00000070: 1062 ac3c 7704 25bc dd05 adbd 42cb f13c
00000080: ac2d 0a3e c7e5 2bbd 14f2 b5bc 02c6 8c3d
00000090: d38e 623c 7339 90bb 0587 6b3a dcf7 66bd
000000a0: bb6c 1ebc ebcd 083d b2b3 a3bd ed6b 753b
000000b0: 6b8b 40bd 7c87 ba3d 2e02 b13c fd5e 94bc
000000c0: 98e9 45bd 97e3 aabc 7e2a ef3c 78e7 a9bd
000000d0: b36f 23bd 347d 593d 60c5 07bc c2e6 80bd
000000e0: 970c b2bc ce31 39bc 8183 5bbc 6c6c 94bb
000000f0: ba12 c1bb 8d5a 1abe cb54 1b3e 31b8 23be
00000100: 2e45 09be a03c 4a3d da59 b8bd cb80 e6bd
00000110: 6ee4 97bd d242 c43d 327b fd3c 03d7 1d3d
00000120: 1f0f 7c3d 8955 ad3d 1baa 8ebd 3850 9fbd
00000130: fcb2 93bd 0515 18bc fa55 573d d919 26bd
00000140: 7eed 513d 617a 30bd 842c 743d 4bc0 f1bc
00000150: f2b8 943d 79d7 033d ec41 b7bd 61ee 803d
00000160: 3c41 71bd ba11 463d d890 11be 3ca8 683d
00000170: c244 c33d 8a68 823c cfd9 203e 5863 413d
00000180: d27a 28bc 5902 8cbc 7bc7 313d ac45 103e
00000190: b47e c13c ae1d 9ebd 740a ea3d c89c 4b3e
000001a0: de78 19ba 37d2 07bc 414f 70bd 8a7d 903d
000001b0: 9bb2 ff3c fb11 aebd f6d9 343d 69f5 813c
000001c0: 393c 03bc 947d d4bc ecbe df3b dfbe 293d
000001d0: 3458 30be 3f00 4bbd df92 b23d 1794 613b
000001e0: 7316 d83d a029 12be 0ae6 1fbd 4f2e a6bc
000001f0: 331a 393d e7eb ee3d a808 7d3d 9f35 153d
00000200: 0b5c 113e 3be0 58bd 6bd7 0cbe 9832 81bd
00000210: 2612 febd b3d6 753c 3103 41bd 63ce cd3d
00000220: eaa4 f73c 6cae 363e 60e9 713e 45af a93d
00000230: 444d 2fbd f40d 2fbc 6386 4abb c80c 0f3e
00000240: 2b11 cebd 1edf e23d 5861 c83c 9bdb 84be
00000250: f2a0 48be ccf7 91be b9b4 d5bd 6e22 b53d
00000260: fa00 23be 6fde 89bc d6d6 75bc 3c08 4cbe
00000270: bfbd bb3d e0ec 1f3e debd 0a3d 8a51 69be
00000280: dc01 19be 7d88 283d f415 31bd cc93 263e
00000290: ecd6 633c 9dce d83b 8ccb 19bd 164a 9a3d
000002a0: 0493 21be 00b3 30be 4eab fc3c bda0 cf3c
000002b0: 2d4b 4ebd df50 90bd 198e cd3d dc27 533d
000002c0: f792 2bbe d6a2 50be a1d0 913d c049 2d3d
000002d0: 79aa df3d ec7d 3d3e 6e85 68bd 00f5 8c3d
000002e0: 0a5e 983b b96c 803c ed0d 17be a776 7dbd
000002f0: 7caf 43bd 0c0d 56bd ab11 12be d72d a5bd
00000300: 608e 89bd 3cc1 76be f3a0 e23d fa8f 97bd
00000310: 8377 88bc 496c 70bb 4cb6 3bbd ef6d bb3d
00000320: bbe6 42be de72 853b f7e5 8abd a88d b2bc
00000330: e419 b7bd d9af b8bd 54b2 ac3d 8b1d 10be
00000340: 34f9 74be c523 093e 7593 4abd 72f5 433d
00000350: d64c bc3d 0073 babd 46dd 3a3e 982d 84bd
00000360: 565a 7ebe f359 a4bd 8fee 83bd 8dfa 303d
00000370: 0ca4 e93d c7c9 543e 44f8 f43a f974 583e
00000380: 6089 d0bc 95f7 00be fd13 0fbe 72d9 d2bd
00000390: 8005 da3c e871 ad3b 13b2 a03c 1ec6 8d3e
000003a0: eeaf 013d 704c 3abd 6309 e63c baf5 0cbd
000003b0: 6212 5ebe a79c 5d3e 220e 46bd 2114 053e
000003c0: f045 9abe 29c2 0bbe cf10 43be fb60 523d
000003d0: 7f56 213d 8e3c fd3d e4cd 84bd 5115 85bc
000003e0: 7239 313e d062 b8bd 90e4 13bd 582a 573c
000003f0: 192e cabc 2749 123e 134b 423d a4cd d63d
-0.10942092 -0.14543457 -0.06639269 0.033887487 -0.09165997 -0.048342768 0.05804122 -0.06261641
0.0023370872 0.07378087 -0.044800844 -0.016101727 0.048202787 0.0316705 0.05881377 -0.03206745
0.046008203 0.0032777449 -0.05754138 -0.027472159 0.0035143693 -0.036847595 0.059155636 -0.020468634
-0.037902493 0.06854691 0.1309693 -0.052229874 0.021042854 -0.010071865 -0.08448384 0.029515866
0.13493985 -0.04196718 -0.022210158 0.068737045 0.013827997 -0.0044013797 0.0008984658 -0.05638872
-0.009669478 0.033399504 -0.079932585 0.0037448362 -0.04700796 0.09107873 0.021607485 -0.0181117
-0.048318475 -0.020860476 0.029195067 -0.08296102 -0.039901447 0.05309792 -0.008286804 -0.062940136
-0.021734519 -0.011303378 -0.013398052 -0.0045295265 -0.005892125 -0.15073605 0.15169065 -0.15988232
-0.13405296 0.049374223 -0.09001513 -0.11255034 -0.074166164 0.095830575 0.030942533 0.03853513
0.061537858 0.0846358 -0.06966039 -0.077789724 -0.07211873 -0.009282355 0.052572228 -0.040551994
0.05125188 -0.04308546 0.059612766 -0.029510638 0.07261838 0.032187913 -0.089481205 0.06295467
-0.058900103 0.04835675 -0.1421541 0.056801066 0.09534599 0.015918989 0.15708087 0.047213882
-0.010283189 -0.017090963 0.04340313 0.14089078 0.023619987 -0.07720505 0.11427775 0.19884026
-0.00058544974 -0.008289865 -0.058669332 0.07055195 0.031213095 -0.08499523 0.044153176 0.015864091
-0.008009964 -0.025938787 0.0068281796 0.041441794 -0.17221147 -0.04956078 0.0871942 0.0034420544
0.10551157 -0.14273691 -0.03903774 -0.020285754 0.045191 0.116660886 0.061775833 0.03642809
0.14195268 -0.052948218 -0.1375405 -0.06308478 -0.12405805 0.015004802 -0.047122184 0.10049131
0.030230004 0.17839974 0.23624182 0.08285383 -0.042798296 -0.010684479 -0.0030902855 0.1396972
-0.10061868 0.110777125 0.02446048 -0.25948796 -0.19592646 -0.28509367 -0.10434861 0.088444576
-0.15918341 -0.016829697 -0.015004834 -0.19925016 0.091670506 0.15617704 0.033872478 -0.22785011
-0.14942116 0.04114579 -0.043233827 0.16267318 0.013906222 0.006616427 -0.037547633 0.07533662
-0.15778738 -0.17255783 0.030843403 0.0253452 -0.050364662 -0.07046675 0.100368686 0.051551685
-0.16755281 -0.20374617 0.07119871 0.04230666 0.10921187 0.18505067 -0.056767873 0.068826675
0.004649882 0.015676843 -0.14751406 -0.061880734 -0.047774777 -0.052258536 -0.14264552 -0.08065384
-0.06716609 -0.2409715 0.11065855 -0.07400508 -0.01665855 -0.0036685637 -0.04582815 0.091518275
-0.19033329 0.004072531 -0.067821436 -0.021796063 -0.08940485 -0.09017915 0.08432451 -0.1407377
-0.23923188 0.13392551 -0.049457032 0.047841497 0.09194343 -0.09103966 0.18248472 -0.06454009
-0.24839148 -0.08024969 -0.06441986 0.043207694 0.114082426 0.20780097 0.0018689712 0.21138372
-0.02545613 -0.12594445 -0.13972469 -0.10295381 0.02661395 0.0052931197 0.019616162 0.27690214
0.03166192 -0.045483053 0.028080648 -0.03441403 -0.216867 0.2164179 -0.04835332 0.1299596
-0.30131483 -0.13648285 -0.1904938 0.05136202 0.03938913 0.123650655 -0.06484583 -0.016245516
0.1730707 -0.09003222 -0.036106646 0.013132654 -0.024680184 0.14285718 0.047434878 0.104884416

attention.out_proj.bias f4 [128]
00000000: 2bf4 76bc a31f a4bc b73d f4ba 1ddb 1d3c
00000010: f78a 47bc fdf4 923c 6c63 4b3c d058 03bd
00000020: a04a 8c3c 35aa 203c dd46 b53b cd22 293d
00000030: aac4 5f3c 3b15 92bc 1c15 4bbd e21d 913c
00000040: a7f7 f9bc ed0d 9c3c 5a3f d7bc 1f82 dfbc
00000050: 43cb c43c 999f 2e3d 9f82 e23b a6c3 073c
00000060: af47 28bc 7d45 fbbc cb2b 053d 85c7 ccbc
00000070: 3258 8dbb 85a0 223d 526d d0bc 6150 cfbb
00000080: 1de1 523d 4516 d8bc cd7f 37bd 9a8f f6bc
00000090: ae43 10bd 7e1e 6d3b 2ff6 7ebc 3375 9a3b
000000a0: 63d1 d83c 9470 353c 87f5 15bd d612 753c
000000b0: a264 b13b 3d2e 3b3d 5811 e33b 26ab 60bb
000000c0: 8420 bdbc 4b59 39bb 820b abbc 2eef 82bc
000000d0: 68e3 fe3c 09a7 6fbc 64df b4bb c251 473c
000000e0: fd4d f63c 3c50 fdbc 228e 8e3c e20b a9bc
000000f0: c10e e1bc 3f2b 23ba 9d24 a5bb 035f 02bc
00000100: b3d5 8cb9 bb83 4cbb cf1b aa39 9b89 2c3d
00000110: b914 5b3d 3e64 b63c 84a3 033c 18d3 cd3b
00000120: 9816 50bb 79a3 b13c 2021 11bd a0b6 11bc
00000130: 94f8 43bb 053e 8bbc f3ef 32bd e0d0 0d3d
00000140: b84c 67ba 233f adbc 4724 babc 39a0 eebc
00000150: 1c9e 0dbb 81e3 f5bb 10f0 17bd 2451 b53b
00000160: b452 0ebd 507d b139 a706 0bbb f437 923a
00000170: 4da6 8dbc f3e2 e4bb 70d9 62bc 40f4 3c3c
00000180: e76c df3c 1f9e 16bd a38f 04bb cf0b 1abb
00000190: bd69 ddbc 655f 89bc 4233 7f3c 5ae6 7dbc
000001a0: 579f 403d ba30 063d 29d6 163d 8cba 23bc
000001b0: 5498 af3c 04ea bf3b 673f c83c 744d 103d
000001c0: bd0d e83c 4d73 acba af25 f2bc b8ca 823c
000001d0: 9369 98bc 0d25 403c ce67 0dbd f674 143d
000001e0: 513a 55bc 5997 f2bb 91c9 e33c 76dc b63c
000001f0: 9235 3ebd c07f 423d 50c6 2fbc a654 823c
-0.015072863 -0.020034617 -0.0018634115 0.00963476 -0.012179128 0.017939085 0.012413841 -0.03206712
0.017125428 0.0098062055 0.005532129 0.041292954 0.013657728 -0.01783239 -0.04958068 0.017714445
-0.030513598 0.01904961 -0.026275326 -0.027283726 0.024022704 0.042632673 0.006912544 0.008286392
-0.010270997 -0.030672783 0.032512467 -0.024997482 -0.004313492 0.039703865 -0.025442753 -0.0063267206
0.051484216 -0.026377806 -0.044799615 -0.030097771 -0.035220794 0.0036181505 -0.015561624 0.0047136783
0.02646703 0.011074204 -0.036611106 0.014958104 0.0054136077 0.045698393 0.006929558 -0.00342817
-0.023086794 -0.0028281983 -0.02087951 -0.01598319 0.031114295 -0.014627227 -0.0055197943 0.012165489
0.030066485 -0.030922048 0.017401759 -0.020635549 -0.027472856 -0.0006224401 -0.005039765 -0.007957223
-0.000268621 -0.0031206447 0.00032445646 0.04212342 0.05348656 0.022264596 0.008034591 0.006281268
-0.0031751748 0.021684395 -0.03543198 -0.008893639 -0.0029902803 -0.016997347 -0.043685865 0.034623027
-0.00088233827 -0.02114827 -0.022722377 -0.029129134 -0.0021609133 -0.007503927 -0.037094176 0.0055333544
-0.03474684 0.00033853436 -0.0021213682 0.0011155591 -0.017291212 -0.0069850623 -0.013845786 0.011532843
0.027273608 -0.03677189 -0.0020227216 -0.0023505574 -0.027027959 -0.01676912 0.015576186 -0.015496815
0.04702696 0.032761313 0.036825333 -0.009993207 0.02143494 0.0058567543 0.024444295 0.035230115
0.028326863 -0.0013156921 -0.029558985 0.015965804 -0.01860503 0.011727584 -0.034522824 0.036244355
-0.013014392 -0.007403296 0.027806075 0.02232192 -0.046437807 0.047485113 -0.010728434 0.015909504

attn_norm.weight f4 [128]
00000000: 0567 ef3f 3f94 1d40 243c 0d40 426f 1440
00000010: a2e9 f43f dad6 ca3f f093 bd3f 0daf 2140
00000020: 74ae e43f 4033 e93f a812 0240 29a6 ee3f
00000030: 8a11 1240 3d94 bf3f 127b f73f 72ea a03f
00000040: eea4 f13f daf1 fb3f 67c3 0440 63e8 1040
00000050: c960 0d40 2ad8 0640 181d 0c40 4a22 df3f
00000060: 28b2 0240 3afe f73f a97b e93f fe6d 2240
00000070: 9b38 c53f 8d4d 0d40 2193 1140 148a 0740
00000080: 02f8 0c40 f63c b53f 872b 0f40 d8ea 0240
00000090: 86d4 1240 50e0 1f40 9834 0b40 f630 0440
000000a0: 8f3f 2440 7bb7 d23f 7fd9 0140 7ee5 0140
000000b0: 079d 1a40 b5aa 1040 d7b6 0140 d867 ff3f
000000c0: f7a9 2f40 e611 1b40 6a4c fc3f fba4 a73f
000000d0: 79d8 1b40 4e88 0340 f475 cf3f df32 ad3f
000000e0: 9ba8 e63f 3247 d43f 3e50 1840 6976 cf3f
000000f0: 21e5 de3f 7494 0440 8dd8 da3f 7729 dd3f
00000100: f359 2640 0232 cd3f 572e 1040 79f6 ff3f
00000110: 1155 f83f 0934 1440 5cdd b03f 8668 d53f
00000120: 3f9e ff3f 82e1 cd3f 1269 0d40 6309 1b40
00000130: a126 0840 f337 f43f a915 0740 aa41 c73f
00000140: c7f8 bb3f 2785 eb3f eb72 0340 679b 1040
00000150: a255 1440 f6fc 1740 d461 de3f 0f16 1c40
00000160: 9bc6 bd3f 0d1c d63f 9aff 1040 2ea8 f03f
00000170: abe5 fa3f 4967 0b40 17c1 f23f e888 cf3f
00000180: e2df de3f 34e9 0340 acfa cb3f 2c70 ee3f
00000190: bbba 1b40 4669 0a40 44a6 2440 3405 0540
000001a0: fb4c db3f 8cd4 0740 93e9 ba3f e0fa 0d40
000001b0: b320 2540 1891 ac3f 5285 d43f 2782 de3f
000001c0: e7b7 b63f c62b c03f 8b2a bd3f 2a09 1740
000001d0: 430f f63f e638 0e40 d07f f33f fcfa 0340
000001e0: 2be7 0d40 33f4 0a40 6c63 e63f 3a73 0840
000001f0: beb5 2840 3940 1840 72db 0f40 83ca d33f
1.8703314 2.4621732 2.2067957 2.3192906 1.9133799 1.5846817 1.4810772 2.5263093
1.7865739 1.8218765 2.0323887 1.8644458 2.2823205 1.4967114 1.9334433 1.2571547
1.8878458 1.9683182 2.0744264 2.2641838 2.2090323 2.1069436 2.1892757 1.7432339
2.0421238 1.9374459 1.8240863 2.5379634 1.54079 2.2078583 2.274605 2.1178026
2.2026372 1.4159229 2.2370317 2.0455837 2.2942214 2.498066 2.175085 2.0654883
2.5663793 1.6462244 2.0289 2.029632 2.4158342 2.2604191 2.0267847 1.9953566
2.7447488 2.4229674 1.971082 1.3097223 2.4350874 2.0551944 1.6207871 1.353115
1.8020204 1.6584227 2.3798976 1.6208011 1.7413675 2.0715609 1.7097336 1.7278279
2.59924 1.6030886 2.2528284 1.9997092 1.940096 2.315676 1.3817554 1.6672523
1.9970168 1.6084445 2.209538 2.422448 2.1273577 1.9079574 2.110697 1.5566914
1.4685296 1.840001 2.053889 2.259485 2.3177266 2.3748145 1.7373605 2.4388463
1.4826235 1.672731 2.2656007 1.8801324 1.9601339 2.178179 1.8965176 1.6213655
1.7412074 2.0611086 1.5935874 1.8627982 2.4332721 2.1626754 2.572648 2.0784426
1.7132868 2.1223478 1.4602531 2.2184372 2.5801208 1.3481779 1.6603186 1.7383469
1.4274873 1.5013359 1.4778608 2.3599343 1.9223408 2.2222228 1.902338 2.0621939
2.2172344 2.1711547 1.7999091 2.1320329 2.6360927 2.3789198 2.2477689 1.6546177

attn_norm.bias f4 [128]
00000000: 48ae b4be 34a7 4e3e 9c17 1bbe c920 bb3e
00000010: c5cd c5be d40d 34bf 27aa be3e ebb0 fb3d
00000020: 2790 1dbe 8842 65bc 0849 853e c090 703e
00000030: 69c7 3f3f 432d 1b3f eb2a 953e c981 f53e
00000040: 4adf 523f c1cf c6be 8af0 083f a6db a7bd
00000050: af20 663f 4151 a5be c1f1 e43e 4804 2fbf
00000060: 791f 603f 207c 2b3e a25e 143f a187 6ebe
00000070: b16d a3be 7113 9dbe 3baa a5bb dc67 1dbf
00000080: 01dd 0f3f fc9e 513f 358f e43e ee4c c6be
00000090: cb1f e63d bb7b 29be 7304 b8bc 396e cebe
000000a0: f720 4ebe 7858 1abf e8a8 a93e 3a5c 2abf
000000b0: 6ab2 92be 66f9 d4be 61a4 993e e2c5 e9be
000000c0: 19e2 aabd 6a1d 173e 6fff 183f 051e 243f
000000d0: 6ccf b23c 4de0 043e 44ab 65be 8428 963e
000000e0: 3a17 00bf 3ac8 e3be e633 0cbf 795c 213f
000000f0: d3d4 853f 81cd e13d 6128 f5be 2d0d ed3e
00000100: 0324 793e b77a 373f c45e e8be ae2f abbe
00000110: a2cb 04bf e39d 01be a114 06bf 1e25 503f
00000120: 8d16 fd3e 9617 3bbf 3d6e de3e cd98 e0bc
00000130: d966 40bf 55d6 dfbd 6a4e 93be 4528 023f
00000140: f47e c5be b6e2 1abe 9a35 1abf 8a5e 143f
00000150: f140 6a3e 5472 3bbe 4e47 0bbf c22b babd
00000160: 8081 9dbe 6876 1cbf 8f70 94be d9e5 0abf
00000170: bac9 ddbd 7261 2cbe ada9 79bf 470f 153f
00000180: dce4 383f 95af 08bf af5a 3a3f e750 a63e
00000190: 720d 6ebc 809e 73bf 5dfc 01be 6e2f b9be
000001a0: ee9e f63e b099 e4be f7eb 42bf b0e2 6e3d
000001b0: 9686 80bd 5325 ce3e 6e91 253f 2ead e0bd
000001c0: 2f27 22bf da91 813d ba69 393f b152 e53e
000001d0: 23cf eabe cccd ebbe 5cb2 523d 841b f73e
000001e0: d99a 023f 2100 e6be f1a4 18bf 24e3 ec3e
000001f0: 0ce4 adbd eb03 3d3e 2e96 13bf 9527 4a3f
-0.35289216 0.2018097 -0.15145725 0.3654845 -0.38633552 -0.703336 0.3723919 0.12289604
-0.15387021 -0.013992913 0.2603228 0.23492718 0.7491365 0.6061594 0.29134306 0.4795058
0.8237196 -0.3883038 0.53492033 -0.081961915 0.8989362 -0.32288554 0.44715694 -0.6836591
0.87548023 0.16746569 0.579569 -0.23293926 -0.31919625 -0.30678895 -0.0050556934 -0.614866
0.561966 0.81883216 0.44640508 -0.38730568 0.11236533 -0.16551106 -0.022463059 -0.40318468
-0.20129763 -0.6029124 0.33136678 -0.66546977 -0.28651744 -0.41596526 0.30008224 -0.45658785
-0.08343906 0.14757314 0.5976476 0.64108306 0.021827422 0.12976189 -0.22428614 0.29327786
-0.5003544 -0.44488698 -0.5476669 0.6303173 1.0455574 0.11025525 -0.4788237 0.46299115
0.24330144 0.71671623 -0.453848 -0.33434814 -0.5187322 -0.12657885 -0.5237523 0.81306636
0.49431267 -0.73082864 0.4344348 -0.027416611 -0.75156933 -0.109295525 -0.28770763 0.50842696
-0.3857342 -0.15125546 -0.6023804 0.57956755 0.22876336 -0.18305331 -0.5440568 -0.090903774
-0.30762863 -0.61118174 -0.28992125 -0.5425697 -0.10829492 -0.16834047 -0.9752453 0.58226436
0.7222421 -0.53392917 0.7279462 0.324836 -0.014529573 -0.95163727 -0.12693925 -0.36168998
0.4816813 -0.44648504 -0.76141304 0.058321655 -0.0627567 0.4026285 0.64675033 -0.109705314
-0.6334104 0.06326647 0.7242695 0.4478965 -0.45861158 -0.46055448 0.051439628 0.4826318
0.5101753 -0.44921973 -0.5962668 0.46267045 -0.08490762 0.18458526 -0.5765103 0.7896665
